heart_model.pth (torch, 59952 bytes, 8 tensors)

encoder.fc1.weight f4 [128, 43]
-0.03107953 -0.12151816 -0.11214079 0.022929175 0.086070076 0.075039715 0.14782943 -0.027659124
-0.015298381 -0.03619048 0.10980521 -0.1346049 0.12778154 -0.0401118 0.06028756 -0.028361296
0.024242625 -0.13721831 0.12741427 -0.022518106 -0.03738891 -0.11050428 -0.016913554 0.044644974
-0.1222488 -0.03599796 0.110957 0.08578741 -0.08898396 0.011191453 0.04435282 -0.036472622
0.09246279 -0.02774024 -0.016760647 0.13196495 0.07091784 0.0823059 0.090140864 0.039003175
-0.116799444 -0.1486422 -0.13140164 0.10589377 0.016949221 -0.19274169 -0.7071802 0.11605849
0.49925685 -0.20068058 -0.28841427 0.2796119 0.1717618 0.13648696 0.1548089 -0.16524972
-0.49382195 -0.02840086 -0.23247287 -0.0389906 0.20779444 0.10931819 -0.20941472 0.12819667
-0.15438958 -0.31887677 -0.07097653 0.040503554 -0.17571737 -0.16884772 0.0025074682 0.010150181
0.65572387 0.1526384 0.521523 -0.053468693 0.8510001 0.21139407 0.045497123 -0.16264407
-0.53936064 -0.2758171 -0.16421473 0.05012217 -0.46267867 -0.15303536 -0.093886025 -0.11783708
0.051397514 -0.11666112 -0.051832575 0.032371 -0.06543559 -0.11281452 0.1324064 0.014478574
-0.09198713 0.013383923 -0.030836364 0.12817153 -0.1426979 0.019934867 0.08979885 0.037170332
-0.032292977 -0.12015202 -0.07015953 0.019358797 -0.065566845 0.030402383 0.096033126 0.06729384
0.06284407 -0.009718134 -0.12846267 -0.03702528 0.08536125 -0.06433231 -0.00062248594 0.055661526
-0.047051255 -0.1475633 -0.010080738 -0.1459898 0.07059714 -0.06247689 -0.11365443 0.058621824
0.08258903 0.13781166 0.08336952 0.004858523 0.13906746 -0.022519939 -0.18304875 -0.017821334
0.026456602 0.08450191 0.09269853 -0.094017774 -0.026982939 -0.026813049 -0.16638952 0.00027162375
-0.027043767 0.19749752 -0.038800888 -0.16092043 -0.09333443 -0.5692638 -0.1333283 -0.40438148
-0.036115024 -0.1802324 0.07701659 0.0707138 0.022059223 0.10083416 -0.12610738 0.03686457
-0.6488753 0.08362118 0.05326349 -0.024245365 0.15947576 -0.018493176 0.16867286 0.055049613
0.14845754 0.01004468 0.10477122 -0.10169726 0.18731387 0.1150822 -0.09386353 0.050555367
-0.05181405 0.2624698 -0.07403458 -0.030822244 -0.1007673 0.024331613 0.048362583 -0.15800807
-0.11667268 0.05191634 0.13739637 0.081037536 0.085239954 -0.11274578 -0.008964899 -0.09520133
0.20917802 -0.03862255 0.03195388 0.01239031 -0.071488656 -0.055504702 0.06393349 -0.12885356
-0.07618663 -0.055848945 -0.14658035 -0.42862636 -0.09263262 -0.18124561 0.03211826 -0.059041657
0.073288545 0.013721298 -0.05372295 -0.03152974 0.1123231 0.0054134354 -0.14977913 0.0048604943
0.07063577 0.06929569 0.117647976 -0.025057146 0.019666782 -0.022704626 0.019098043 0.07255759
-0.117012195 0.09126827 0.10251566 -0.011338505 0.1330169 0.0022211222 -0.08518073 0.09628918
-0.006936837 -0.07264911 -0.06548601 0.07420516 0.02783539 0.07073441 0.040923994 -0.110533185
0.009169757 -0.13020356 0.14378381 0.07808657 -0.02590039 -0.10452721 0.03702709 0.13518053
0.12652688 -0.12376573 -0.085002884 -0.08961854 0.057974998 -0.10550253 -0.09448398 -0.14501996
00000000: 809a febc 83de f8bd 12aa e5bd f7d5 bb3c
00000010: 8245 b03d 6cae 993d 9960 173e 6395 e2bc
00000020: 10a6 7abc 783c 14bd 8ee1 e03d ded5 09be
00000030: 2ad9 023e 454c 24bd 17f0 763d f355 e8bc
00000040: 7898 c63c f582 0cbe e378 023e e477 b8bc
00000050: 1d25 19bd 1150 e2bd 4b8e 8abc a6dd 363d
00000060: 945d fabd 9972 13bd 6c3d e33d 4fb1 af3d
00000070: 393d b6bd 5b5c 373c 4dab 353d 5164 15bd
00000080: 225d bd3d 803f e3bc a04d 89bc d221 073e
00000090: 5f3d 913d ff8f a83d c69b b83d cbc1 1f3d
000000a0: 8c34 efbd a935 18be 278e 06be d5de d83d
000000b0: 18d9 8a3c 145e 45be c309 35bf 13b0 ed3d
000000c0: 989e ff3e 367f 4dbe 09ab 93be 4a29 8f3e
000000d0: 53e2 2f3e 3dc3 0b3e 3986 1e3e 3937 29be
000000e0: 3bd6 fcbe eca8 e8bc 5e0d 6ebe 9bb4 1fbd
000000f0: 11c8 543e 37e2 df3d d070 56be fd45 033e
00000100: 4d18 1ebe d143 a3be 255c 91bd 0ee7 253d
00000110: 41ef 33be 6be6 2cbe 5654 243b f24c 263c
00000120: 85dd 273f 3e4d 1c3e 8882 053f fd01 5bbd
00000130: 24db 593f b077 583e 315b 3a3d 2b8c 26be
00000140: 8a13 0abf e637 8dbe e827 28be e84c 4d3d
00000150: 38e4 ecbe 4db5 1cbe 5147 c0bd 9154 f1bd
00000160: 3386 523d 06ec eebd 654e 54bd 7497 043d
00000170: 1803 86bd 4d0b e7bd 8b95 073e 8a37 6d3c
00000180: c063 bcbd 3e48 5b3c 8b9c fcbc 663f 033e
00000190: 661f 12be 724e a33c 76e8 b73d eb3f 183d
000001a0: a445 04bd 4312 f6bd cdaf 8fbd 5796 9e3c
000001b0: e947 86bd 6b0e f93c 04ad c43d 5ad1 893d
000001c0: 64b4 803d cf38 1fbc b88b 03be d2a7 17bd
000001d0: e1d1 ae3d a8c0 83bd 532e 23ba 57fd 633d
000001e0: d1b8 40bd d51a 17be ae29 25bc 5a7e 15be
000001f0: 3c95 903d c4e7 7fbd a7c3 e8bd 701d 703d
00000200: 7024 a93d 801e 0d3e a4bd aa3d 3f34 9f3b
00000210: b367 0e3e bc7b b8bc 2271 3bbe 0cfe 91bc
00000220: 84bb d83c 560f ad3d bad8 bd3d 648c c0bd
00000230: 530b ddbc 0aa7 dbbc 0462 2abe b968 8e39
00000240: e48a ddbc ca3c 4a3e aeed 1ebd 53c8 24be
00000250: 1f26 bfbd 46bb 11bf 3787 08be 170b cfbe
00000260: 59ed 13bd d88e 38be e0ba 9d3d 66d2 903d
00000270: 8bb5 b43c 2482 ce3d 4b22 01be 4eff 163d
00000280: b11c 26bf 9541 ab3d d12a 5a3d 379e c6bc
00000290: 9d4d 233e 007f 97bc 94b8 2c3e b47b 613d
000002a0: 4105 183e 7192 243c 4b92 d63d a746 d0bd
000002b0: 35cf 3f3e 37b0 eb3d 863b c0bd 2513 4f3d
000002c0: f83a 54bd 7162 863e 719f 97bd ee7e fcbc
000002d0: 165f cebd 1753 c73c d817 463d decc 21be
000002e0: 16f2 eebd 3aa6 543d a2b1 0c3e 02f7 a53d
000002f0: 4992 ae3d 42e7 e6bd 83e1 12bc eaf8 c2bd
00000300: c332 563e ae32 1ebd 12e2 023d ba00 4b3c
00000310: a568 92bd e658 63bd 90ef 823d 30f2 03be
00000320: bc07 9cbd ddc1 64bd 2919 16be ea74 dbbe
00000330: 2cb6 bdbd 7398 39be 708e 033d aad5 71bd
00000340: 4e18 963d 4ccf 603c 990c 5cbd 5425 01bd
00000350: a709 e63d 3063 b13b b35f 19be c844 9f3b
00000360: 7da9 903d e6ea 8d3d 6cf1 f03d a544 cdbc
00000370: 3b1c a13c 0dff b9bc 8073 9c3c 1399 943d
00000380: 17a4 efbd dcea ba3d bbf3 d13d 23c5 39bc
00000390: 9535 083e 3f90 113b 3c73 aebd 4333 c53d
000003a0: 684e e3bb 0ec9 94bd 871d 86bd e0f8 973d
000003b0: 0b07 e43c 34dd 903d eb9f 273d 395f e2bd
000003c0: c03c 163c 1554 05be 103c 133e daeb 9f3d
000003d0: 0e2d d4bc 5d12 d6bd b8a9 173d c46c 0a3e
000003e0: 4390 013e e378 fdbd fe15 aebd ed89 b7bd
000003f0: 3177 6d3d b611 d8bd d180 c1bd 1d80 14be

encoder.fc1.bias f4 [128]
0.07444287 -0.028678559 0.049751334 0.1532623 0.021722771 -0.0143438075 -0.08031482 -0.066904075
-0.052065 -0.05970252 -0.03580239 0.14896181 0.008581968 -0.06093976 0.13099764 0.058661822
-0.09478144 -0.052731168 -0.010162881 0.3969025 -0.047130663 -0.102527864 -0.058386378 -0.1077008
-0.014969315 0.12454885 -0.09604928 -0.045782324 0.09944604 0.14802897 -0.09874564 0.038393535
-0.033925954 -0.112437986 -0.050820053 0.15443152 -0.03628347 0.019967014 -0.105139546 0.066993184
0.015699698 -0.05151028 0.04492032 0.07449694 0.07240694 0.14960273 0.13843893 0.05236816
-0.06441335 0.014971817 -0.108845025 0.15908834 -0.13848515 -0.12202023 -0.03084111 0.09287066
0.08729333 0.11196182 0.03014975 0.03981119 -0.076938495 -0.15210392 0.07143537 0.09386389
-0.077492945 0.06897331 -0.035314366 0.10202477 0.034191303 0.1725857 0.1116932 0.155079
-0.12877382 -0.08345025 0.07282204 0.034152284 0.024974855 -0.03180094 0.08205945 0.06359138
-0.062323567 0.03332983 0.12240082 -0.053446513 -0.03995912 -0.0922971 0.3344232 0.17870207
0.19123824 0.0022986385 -0.00453337 0.13039932 0.163238 0.17870015 0.15214516 -0.11897021
-0.07808074 0.02395123 -0.010862081 -0.056578293 0.14570706 -0.014775491 0.0036500592 0.12180257
-0.023650961 0.13006061 -0.13160218 0.28663623 -0.053997334 0.01966391 0.069688104 -0.053177185
0.10017874 -0.03428057 -0.08742457 -0.04481547 0.061082013 -0.11675728 0.1343528 0.13653117
0.1715642 0.029794086 -0.049723804 0.167143 0.07161169 0.006642297 0.038216595 -0.039494067
00000000: 8175 983d 4cef eabc 0ec8 4b3d cbf0 1c3e
00000010: f4f3 b13c 4a02 6bbc 197c a4bd 0105 89bd
00000020: 1c42 55bd a18a 74bd 87a5 12bd 7289 183e
00000030: 629b 0c3c f89b 79bd 3f24 063e 6147 703d
00000040: c61c c2bd a3fc 57bd 3682 26bc ce36 cb3e
00000050: 150c 41bd 21fa d1bd 8e26 6fbd 3d92 dcbd
00000060: dc41 75bc 7813 ff3d 7cb5 c4bd 3f86 3bbd
00000070: 5eaa cb3d e894 173e 273b cabd 8a42 1d3d
00000080: f1f5 0abd e345 e6bd b028 50bd 4c23 1e3e
00000090: fa9d 14bd dd91 a33c 6753 d7bd b933 893d
000000a0: a79c 803c 72fc 52bd 5ffe 373d da91 983d
000000b0: 174a 943d 7531 193e efc2 0d3e ff7f 563d
000000c0: 25eb 83bd 5a4c 753c 24ea debd 0ee8 223e
000000d0: 0dcf 0dbe bee5 f9bd 7fa6 fcbc f932 be3d
000000e0: d8c6 b23d 3d4c e53d 9cfc f63c 0f11 233d
000000f0: ee91 9dbd 21c1 1bbe b54c 923d b63b c03d
00000100: 9fb4 9ebd e141 8d3d cca5 10bd 5df2 d03d
00000110: 2e0c 0c3d 4eba 303e 68bf e43d 08cd 1e3e
00000120: 49dd 03be f7e7 aabd b923 953d 44e3 0b3d
00000130: 1198 cc3c b441 02bd c90e a83d 333c 823d
00000140: ff46 7fbd dc84 083d 48ad fa3d bbea 5abd
00000150: 2dac 23bd 4306 bdbd 8539 ab3e adfd 363e
00000160: f5d3 433e c1a4 163b aa8c 94bb 6687 053e
00000170: dd27 273e 2cfd 363e f1cb 1b3e a7a6 f3bd
00000180: cce8 9fbd 5f35 c43c dff6 31bc a4be 67bd
00000190: 3b34 153e e714 72bc d535 6f3b a073 f93d
000001a0: a9bf c1bc 9c2e 053e b9c2 06be fcc1 923e
000001b0: 4f2c 5dbd 3516 a13c a3b8 8e3d 52d0 59bd
000001c0: 832a cd3d c869 0cbd a70b b3bd 6d90 37bd
000001d0: 2231 7a3d 711e efbd c893 093e d4ce 0b3e
000001e0: 87ae 2f3e ba12 f43c 30ab 4bbd 8927 2b3e
000001f0: 26a9 923d a0a7 d93b 0189 1c3d 88c4 21bd

encoder.fc2.weight f4 [40, 128]
-0.056661915 -0.41700068 -0.08015697 0.03973262 -0.01638581 -0.008162496 0.10075812 0.060361493
0.05655973 -0.025465684 0.052558362 -0.031443097 0.026150774 -0.004795933 0.08277992 0.061917044
-0.003033867 -0.048034433 -0.044000234 0.11164734 -0.0031317547 -0.031340234 0.099667855 -0.016732752
-0.0038052513 0.035923254 0.09378512 0.18382041 -0.071992815 -0.044011932 -0.03459107 -0.08179078
0.02617343 0.052465387 0.09195251 0.05690026 -0.030798186 -0.027410617 -0.05677099 0.028660784
0.093411356 -0.019076373 0.097816 -0.0398487 -0.009485001 -0.04487463 -0.075301036 0.06736859
0.06473639 -0.023789799 0.09670976 0.029091448 0.01776831 -0.016072275 -0.075404555 -0.059021454
-0.08493103 0.09861688 0.09311888 0.094122075 0.073252104 0.0168595 0.016451761 0.04084327
-0.02544117 0.09278677 -0.044124413 -0.031792346 -0.05899883 -0.010072794 -0.01831242 0.0521848
-7.704444e-05 0.044816736 -0.04046131 -0.023653572 0.057921693 -0.011375126 -0.2505937 0.013417276
0.06312628 -0.003685921 -0.08554713 0.10906795 0.06399533 -0.0033894184 -0.36408603 -0.0068837255
-0.41177258 -0.005579294 -0.05300601 0.031486426 0.09139134 -0.15076245 0.07480941 -0.074499875
-0.038885366 -0.032725062 -0.01270619 0.016990628 -0.005244933 -0.08372663 -0.30561686 0.029506281
0.06587584 0.06016792 -0.028021216 -0.2875357 0.050913144 -0.01726985 0.040941797 0.056323107
0.03561847 0.06931661 -0.056767132 -0.0659535 -0.06572411 -0.06304197 -0.048825517 -0.010751355
0.010948197 0.032744803 0.036843088 0.14480585 0.11548112 0.04536124 -0.0819606 0.021549283
0.015537014 0.25469923 -0.081417195 0.09536274 -0.015143677 -0.054288734 0.1038142 0.00044273058
-0.058988888 -0.023274701 0.07972214 -0.01877583 -0.030467898 0.059561044 0.037627622 -0.00074950943
0.05846365 -0.018073438 0.0101570655 0.33051038 0.030404823 -0.044333592 0.0426578 -0.049663275
0.05197958 0.015038638 -0.030214913 -0.042247165 0.10418996 0.012180566 0.087984495 -0.0018046385
0.106431454 0.11289158 0.08016021 0.09876252 0.07986213 0.010387908 -0.05751954 0.059460476
0.048686624 0.002991059 0.01411786 -0.042562112 -0.066187315 0.0191109 -0.07013469 -0.034342118
-0.076356456 -0.009359597 -0.029439198 0.09419538 -0.037197817 -0.14343157 -0.08630409 0.06314292
-0.06442534 -0.008272934 0.10656375 0.054324705 0.056043603 0.08956343 0.10293869 0.119802885
0.036063947 -0.026338924 0.02330866 -0.07667107 0.0039480794 -0.0134741 -0.03370688 0.021037387
0.045559708 -0.049996696 0.03359146 -0.01069576 0.05276906 0.0014401097 0.07502674 -0.041430317
-0.02209245 -0.019554652 -0.013785785 0.08713091 0.015564147 0.024454545 0.18060328 0.0068419194
0.32856584 -0.028192153 -0.027168311 -0.018115442 -0.029507505 0.23476882 0.05365964 0.057872564
-0.0026473317 0.007201532 0.06175619 0.041642908 0.055363424 0.0022183887 0.24677144 -0.015802117
0.015233716 0.024687735 -0.06294485 0.34460956 0.0655768 0.045308463 0.01464448 0.05873102
0.024310282 0.08460125 0.08465093 0.09507775 0.01003541 -0.04781017 -0.043937653 0.026750885
0.06973344 0.05176782 0.085874446 -0.08144685 0.037868105 0.03985371 0.042155858 -0.018074201
00000000: 5316 68bd 1d81 d5be 5629 a4bd acbe 223d
00000010: 893b 86bc fdbb 05bc 465a ce3d 9d3d 773d
00000020: 2dab 673d 699d d0bc 7047 573d 7aca 00bd
00000030: 263a d63c 3427 9dbb 8588 a93d ba9c 7d3d
00000040: d8d3 46bb c1bf 44bd 9739 34bd 5ca7 e43d
00000050: 203e 4dbb 9e5e 00bd a91e cc3d 2013 89bc
00000060: 8661 79bb 4324 133d 6a12 c03d 6b3b 3c3e
00000070: f870 93bd db45 34bd 5eaf 0dbd ed81 a7bd
00000080: a969 d63c f2e5 563d 9951 bc3d 3f10 693d
00000090: 7a4c fcbc 3b8c e0bc b388 68bd 05ca ea3c
000000a0: 744e bf3d 0e46 9cbc c153 c83d 6438 23bd
000000b0: fa66 1bbc 76ce 37bd 6e37 9abd 8bf8 893d
000000c0: 8394 843d d3e2 c2bc c40f c63d 3051 ee3c
000000d0: d98e 913c 01aa 83bc b46d 9abd 7bc0 71bd
000000e0: 52f0 adbd a6f7 c93d 1db5 be3d 13c3 c03d
000000f0: 3305 963d ef1c 8a3c d8c5 863c 464b 273d
00000100: 006a d0bc fd06 be3d cdbb 34bd b138 02bd
00000110: c2a8 71bd 5c08 25bc ee03 96bc bbbf 553d
00000120: eb92 a1b8 c191 373d c2ba 25bd 23c5 c1bc
00000130: 4c3f 6d3d bd5e 3abc d14d 80be 22d4 5b3c
00000140: 5a48 813d 7e8f 71bb 5533 afbd 045f df3d
00000150: fc0f 833d 0121 5ebb 7c69 babe e090 e1bb
00000160: dbd3 d2be 83d2 b6bb d41c 59bd e9f7 003d
00000170: 622b bb3d 7961 1abe ad35 993d 6493 98bd
00000180: 4346 1fbd b70a 06bd a02d 50bc ee2f 8b3c
00000190: b0dd abbb de78 abbd d079 9cbe 28b7 f13c
000001a0: eae9 863d a372 763d c08c e5bc e137 93be
000001b0: 4d8a 503d 8079 8dbc 96b2 273d 0fb3 663d
000001c0: ace4 113d def5 8d3d a784 68bd a112 87bd
000001d0: 5d9a 86bd 261c 81bd 44fd 47bd 7426 30bc
000001e0: 1160 333c 6a1f 063d c7e8 163d fc47 143e
000001f0: 5e81 ec3d b5cc 393d f6da a7bd 1f88 b03c
00000200: f68e 7e3c f067 823e 0fbe a6bd 8a4d c33d
00000210: 2f1d 78bc dd5d 5ebd 8a9c d43d 4b1e e839
00000220: 559e 71bd 96aa bebc 5d45 a33d c5cf 99bc
00000230: d097 f9bc 48f6 733d 6c1f 1a3d ba7a 44ba
00000240: 9577 6f3d bf0e 94bc d269 263c a838 a93e
00000250: 8913 f93c 2497 35bd f2b9 2e3d b86b 4bbd
00000260: 8ae8 543d 9f64 763c 4485 f7bc 5d0b 2dbd
00000270: 8c61 d53d ff90 473c 3731 b43d 9f89 ecba
00000280: bcf8 d93d b333 e73d 092b a43d 0144 ca3d
00000290: c28e a33d 0b32 2a3c 9c99 6bbd d48c 733d
000002a0: a06b 473d a505 443b 994e 673c 9c55 2ebd
000002b0: 378d 87bd 768e 9c3c c7a2 8fbd 52aa 0cbd
000002c0: c660 9cbd ff58 19bc 792a f1bc 82e9 c03d
000002d0: bd5c 18bd badf 12be 33c0 b0bd 1351 813d
000002e0: 6ff1 83bd 338b 07bc 183e da3d 9583 5e3d
000002f0: fa8d 653d 086d b73d 85d1 d23d 375b f53d
00000300: cab7 133d bac4 d7bc cef1 be3c b905 9dbd
00000310: e45e 813b 79c2 5cbc 3a10 0abd 9956 ac3c
00000320: d19c 3a3d 56c9 4cbd 3397 093d 453d 2fbc
00000330: 5f24 583d 10c2 bc3a 9fa7 993d d6b2 29bd
00000340: 3afb b4bc 1431 a0bc c6dd 61bc b171 b23d
00000350: c400 7f3c e654 c83c 11f0 383e 2e32 e03b
00000360: c839 a83e 3bf3 e6bc 1490 debc d666 94bc
00000370: b9b9 f1bc 3d67 703e 36ca 5b3d c80b 6d3d
00000380: db7e 2dbb d4fa eb3b 0ff4 7c3d c191 2a3d
00000390: c2c4 623d 6362 113b a7b1 7c3e 7173 81bc
000003a0: d696 793c ef3d ca3c 3be9 80bd aa70 b03e
000003b0: 214d 863d 5e95 393d 67ef 6f3c f08f 703d
000003c0: 5b26 c73c 6c43 ad3d 775d ad3d 20b8 c23d
000003d0: 8f6b 243c 99d4 43bd f8f7 33bd ac24 db3c
000003e0: 68d0 8e3d 7e0a 543d f1de af3d 9bcd a6bd
000003f0: 961b 1b3d a53d 233d 9fab 2c3d 5910 94bc

encoder.fc2.bias f4 [40]
-0.04605754 0.03840681 -0.007696147 -0.053963616 -0.0286979 -0.0910044 -0.11840592 0.05731785
0.007863385 0.060967658 0.016445482 -0.061256226 0.08282886 -0.010624948 0.031160917 0.010182671
0.103535876 0.04417254 -0.013137262 -0.12209232 0.050910324 0.07993395 -0.078140974 -0.012480588
-0.0028933368 0.08323531 -0.023641128 0.07090329 -0.021059588 0.00087019714 0.016124729 -0.030513419
0.039189864 -0.016824568 0.0068541267 -0.0040105605 0.06340128 0.08801834 0.025293712 -0.011190814
00000000: d5a6 3cbd 7650 1d3d f62f fcbb f408 5dbd
00000010: dc17 ebbc 8460 babd ce7e f2bd 1fc6 6a3d
00000020: 6dd5 003c 39b9 793d adb8 863c cfe7 7abd
00000030: 2da2 a93d 4314 2ebc 2e45 ff3c 38d5 263c
00000040: 9e0a d43d 44ee 343d ac3d 57bc 8a0b fabd
00000050: 5887 503d 69b4 a33d 6008 a0bd 617b 4cbc
00000060: 239e 3dbb 4677 aa3d 0aab c1bc be35 913d
00000070: 2885 acbc f11d 643a 0218 843c 47f7 f9bc
00000080: 8d85 203d add3 89bc 9598 e03b 056b 83bb
00000090: 88d8 813d f642 b43d c234 cf3c ad59 37bc

decoder.fc1.weight f4 [40, 40]
-0.1081752 0.12305878 0.07806852 0.062449623 0.16870676 -0.19137387 -0.09709338 -0.13891496
-0.093376 0.029126251 -0.050860234 -0.054373194 -0.12495778 -0.113938935 -0.09118299 -0.002858251
0.17403287 0.10352858 -0.080784835 -0.172804 -0.10302408 0.01705907 -0.10154384 0.17867991
-0.0347938 0.030555598 0.14758337 0.15805422 0.06722607 -0.056585867 0.18755607 -0.012232509
-0.1796977 0.14246728 -0.017480396 -0.122131884 -0.09099149 -0.004324147 -0.12912767 -0.024628224
-0.123883754 0.16187227 0.032174043 0.13310127 0.06628388 -0.15908392 -0.05898137 -0.11353511
-0.12526572 0.1243133 0.096676536 0.053969074 -0.015924707 0.005902382 -0.15510827 -0.1799599
0.18127783 -0.1272681 0.1576101 -0.1306134 -0.050453924 0.15185693 -0.03001458 0.15921968
-0.03093499 0.110591955 0.08001506 0.04178618 -0.016642934 -0.053230338 0.12775445 -0.11203937
-0.07745152 0.09197798 0.10753604 -0.03461586 0.13256438 -0.01866153 -0.0650204 -0.053488575
-0.09844353 -0.0010733787 0.108462155 0.011566908 0.065278694 0.061507683 0.01788495 -0.06461307
-0.17165954 0.06442958 -0.09863235 0.009369776 0.011449579 0.13798553 0.12807053 -0.047045108
-0.07198649 0.09157527 -0.0380038 -0.051372547 0.09007944 -0.007718997 -0.06934221 0.039152425
0.13633782 0.11282476 0.10329694 -0.0031312932 -0.120921835 0.15816034 -0.13346131 -0.09453254
-0.07364172 -0.12307476 -0.14867046 -0.11182418 -0.041828245 -0.068253726 -0.117116764 -0.08019751
0.11435098 0.0747062 -0.054070067 0.01395874 0.07049522 -0.08188106 0.08759392 -0.08362877
-0.15380183 0.1404829 0.11201039 -0.05599239 -0.021975283 -0.14362949 0.04466533 -0.06979709
0.12625287 0.16226384 -0.1523254 0.0001667615 0.03582009 0.051897712 0.15768075 0.10544386
0.07219372 -0.035987984 -0.10441233 0.03735915 0.037241757 -0.046757966 0.0365064 0.16081318
0.044685837 0.12477648 -0.17232548 0.10588771 -0.16600521 -0.090734415 0.15463121 0.116925634
-0.11301328 -0.13887237 -0.15348497 0.013715498 -0.076541625 0.03539381 0.0007696844 0.1300602
-0.090982795 -0.023922643 0.033969026 -0.085494414 -0.027780281 -0.0038615782 -0.027014516 -0.030553369
-0.019841872 0.14199288 0.114446454 0.087859236 -0.12086483 -0.022120165 -0.05141535 0.10028006
0.15717645 0.0045927926 -0.15199763 -0.07703889 0.06577828 0.052896474 -0.08230716 0.10767231
-0.058133326 -0.063116886 -0.048132557 -0.05142615 -0.022234313 -0.0419391 -0.14841636 -0.10924924
0.10044171 -0.058034576 0.09187282 -0.05656006 0.09977774 0.077494204 -0.082183234 -0.0026001066
0.0122939795 0.06297869 0.028939098 0.09558635 -0.07204185 0.11157413 0.047697797 0.0016447736
0.045369726 0.018039798 0.031744182 -0.10912172 -0.16651236 -0.13931404 0.110333435 -0.09435517
0.16183744 0.09536646 -0.093028314 0.09023931 -0.11382741 0.07441792 -0.077224545 0.11568119
-0.046779394 -0.047309153 0.01984716 0.059513714 -0.07362692 0.1118953 0.13940229 0.052499577
0.17049648 -0.012681788 -0.100892335 -0.008719808 -0.032055806 0.015430698 0.09317977 0.10995018
0.0807134 0.0016797222 -0.1209942 -0.07815592 -0.14313349 -0.02869516 0.01967838 0.1374501
00000000: f68a ddbd 3e06 fc3d 63e2 9f3d 2dcb 7f3d
00000010: 77c1 2c3e 83f7 43be e5d8 c6bd b93f 0ebe
00000020: eb3b bfbd 2d9a ee3c d252 50bd 6db6 5ebd
00000030: dde9 ffbd d158 e9bd 26be babd 7f51 3bbb
00000040: ac35 323e cb06 d43d 8572 a5bd 88f3 30be
00000050: 4afe d2bd 76bf 8b3c 37f6 cfbd def7 363e
00000060: f283 0ebd bc4f fa3c 1820 173e f7d8 213e
00000070: d2ad 893d 95c6 67bd b30e 403e dd6a 48bc
00000080: ad02 38be f1e2 113e 0c33 8fbc 4820 fabd
00000090: bf59 babd 93b1 8dbb 0b3a 04be 21c1 c9bc
000000a0: c4b6 fdbd d8c1 253e eec8 033d b34b 083e
000000b0: d8bf 873d e5e6 22be 7396 71bd 1985 e8bd
000000c0: a845 00be f997 fe3d 59fe c53d ad0e 5d3d
000000d0: 8874 82bc c568 c13b b4d4 1ebe 6847 38be
000000e0: e5a0 393e 9252 02be 8b64 213e 85bf 05be
000000f0: c6a8 4ebd 6280 1b3e 23e1 f5bc 7c0a 233e
00000100: 606b fdbc 097e e23d f0de a33d fc27 2b3d
00000110: c356 88bc 0e08 5abd 10d2 023e e674 e5bd
00000120: e79e 9ebd f45e bc3d db3b dc3d 5cc9 0dbd
00000130: f5be 073e 11e0 98bc 6a29 85bd d616 5bbd
00000140: c39c c9bd 9db0 8cba 6821 de3d 2183 3d3c
00000150: d6b0 853d 7bef 7b3d 7583 923c db53 84bd
00000160: 85c7 2fbe a8f3 833d c2ff c9bd b083 193c
00000170: 0497 3b3c 144c 0d3e ec24 033e 5fb2 40bd
00000180: a76d 93bd d18b bb3d dfa9 1bbd 056c 52bd
00000190: 927b b83d a4ef fcbb 4a03 8ebd 4b5e 203d
000001a0: 249c 0b3e ab10 e73d 598d d33d 6236 4dbb
000001b0: dea5 f7bd c9f4 213e 15aa 08be 479a c1bd
000001c0: 78d1 96bd 9f0e fcbd 123d 18be 1304 e5bd
000001d0: 1854 2bbd 9cc8 8bbd eada efbd 983e a4bd
000001e0: d930 ea3d 90ff 983d 9378 5dbd 33b3 643c
000001f0: cc5f 903d 42b1 a7bd 7164 b33d 9045 abbd
00000200: 3a7e 1dbe c0da 0f3e b465 e53d 4758 65bd
00000210: 8205 b4bc 9c13 13be fef2 363d c7f1 8ebd
00000220: 6f48 013e 7e28 263e 31fb 1bbe b3dc 2e39
00000230: 16b8 123d b292 543d 1077 213e f3f2 d73d
00000240: 4dda 933d 2368 13bd 22d6 d5bd e805 193d
00000250: d08a 183d 4885 3fbd bc87 153d 36ac 243e
00000260: 7f08 373d d08a ff3d 1776 30be a8db d83d
00000270: 45fd 29be f7d2 b9bd a557 1e3e b576 ef3d
00000280: 8273 e7bd 8f34 0ebe 2a2b 1dbe f8b6 603c
00000290: dbc1 9cbd 1af9 103d a5c4 493a 802e 053e
000002a0: 3055 babd 6bf9 c3bc 1b23 0b3d b217 afbd
000002b0: 7993 e3bc 8812 7dbb 8c4d ddbc 0f4b fabc
000002c0: 6c8b a2bc 9566 113e e762 ea3d 8bef b33d
000002d0: fb87 f7bd 5935 b5bc e798 52bd a25f cd3d
000002e0: ddf2 203e 237f 963b 44a5 1bbe 91c6 9dbd
000002f0: c3b6 863d f9a9 583d a890 a8bd 4d83 dc3d
00000300: 361d 6ebd 6d43 81bd a526 45bd 3aa4 52bd
00000310: bc24 b6bc 55c8 2bbd 75fa 17be 11be dfbd
00000320: 62b4 cd3d aab5 6dbd d127 bc3d 85ab 67bd
00000330: 4658 cc3d 48b5 9e3d af4f a8bd 8d66 2abb
00000340: b06c 493c f9fa 803d b011 ed3c c7c2 c33d
00000350: ad8a 93bd fa80 e43d c45e 433d 7295 d73a
00000360: 9bd5 393d 33c8 933c 3006 023d 357b dfbd
00000370: 3782 2abe 57a8 0ebe 7ff6 e13d 493d c1bd
00000380: b7b8 253e 7e4f c33d a185 bebd 63cf b83d
00000390: 581e e9bd 6c68 983d e727 9ebd 42ea ec3d
000003a0: c09b 3fbd 3ec7 41bd 8396 a23c a7c4 733d
000003b0: b6c9 96bd 5d29 e53d 79bf 0e3e cc09 573d
000003c0: a196 2e3e 46c7 4fbc a4a0 cebd 87dd 0ebc
000003d0: f34c 03bd 0ad1 7c3c 09d5 be3d 8f2d e13d
000003e0: 114d a53d 202a dc3a cfcb f7bd 3610 a0bd
000003f0: 9691 12be 1d12 ebbc 8e34 a13c b8bf 0c3e

decoder.fc1.bias f4 [40]
0.011580571 0.043762464 -0.022664687 -0.103690006 0.07173754 -0.004166128 0.05120039 0.10621849
-0.012949452 -0.03727361 0.027535481 -0.07080722 0.13716613 -0.02427722 -0.057260245 -0.060498305
-0.112936325 0.1305274 -0.035881408 -0.018690934 0.013266791 -0.07297834 0.10963423 0.05733766
-0.11097292 -0.1288279 -0.09335974 0.11278402 -0.039507505 -0.09644837 -0.11002169 -0.08699797
0.042242713 0.14507662 0.14627077 -0.028539544 -0.023008132 0.049713932 -0.10263702 -0.107681185
00000000: 6fbc 3d3c 4540 333d 4bab b9bc 6d5b d4bd
00000010: 22eb 923d 0484 88bb 80b7 513d 1489 d93d
00000020: f029 54bc 36ac 18bd 1792 e13c 6003 91bd
00000030: 4775 0c3e 05e1 c6bc b889 6abd 12cd 77bd
00000040: 294b e7bd faa8 053e 62f8 12bd bb1d 99bc
00000050: f45c 593c ab75 95bd e987 e03d e5da 6a3d
00000060: c545 e3bd 76eb 03be 6433 bfbd 4ffb e63d
00000070: 9fd2 21bd b986 c5bd 0d53 e1bd fe2b b2bd
00000080: b206 2d3d f78e 143e 01c8 153e c3cb e9bc
00000090: 8d7b bcbc d6a0 4b3d 5c33 d2bd f487 dcbd

decoder.fc2.weight f4 [43, 40]
0.07274685 -0.029922387 -0.05217526 -0.012671134 0.14309567 0.08468791 0.0728962 0.018747967
-0.108954586 0.034997217 0.09265172 0.04674916 0.046053495 -0.04943876 -0.14319247 -0.109320946
-0.035338487 -0.06118101 -0.05999801 0.08943663 0.07180526 -0.15175053 -0.1007809 -0.013736013
-0.15099409 0.045988023 -0.002190052 0.0912532 0.056845777 -0.07153858 -0.012768129 -0.042407412
-0.12302242 0.05385015 -0.06426368 0.050781354 0.012304985 0.068440475 0.036284633 -0.08067582
0.0370295 0.106273845 -0.14234732 -0.026661236 -0.11340786 -0.024148665 0.14348395 -0.022095129
-0.063339 0.14823438 -0.024714917 0.082338795 -0.15246694 -0.12828541 0.121835396 -0.116004385
0.12185287 -0.06275475 -0.07105313 0.1023857 0.117076956 0.09594268 0.014111705 -0.17130092
0.15608798 -0.02223207 0.011902715 0.08359945 -0.16206217 0.07394965 0.04618674 0.11465375
0.046740547 0.07425938 -0.13649897 -0.039871413 0.14957753 -0.012139995 -0.098707005 -0.12505627
0.094277166 -0.019052409 -0.13191946 -0.121974364 -0.14491512 0.105125405 0.054450665 -0.10804905
-0.0978219 -0.06595568 -0.067249134 0.033953253 -0.029794145 0.019639218 0.009443892 0.044640858
-0.018895907 0.018519938 0.011068617 0.024568915 -0.0033670065 0.009059521 0.017137986 0.037303273
-0.07321546 0.015611034 0.11660287 -0.023707299 -0.055980776 0.036177453 -0.09611771 0.029613651
-0.09335279 0.15161759 -0.034229647 -0.035435125 -0.046647757 -0.11923054 0.10470323 0.16053495
-0.05643845 0.1314982 0.0026928848 0.021871014 0.14873774 0.10825249 0.025786117 -0.09706418
0.018776119 -0.060765933 -0.11692874 0.09288494 0.08725837 -0.024128355 0.065450504 0.103116125
-0.065457545 -0.24729556 0.13021065 0.080652505 0.044261422 -0.15523766 -0.11130965 -0.08475294
0.027892487 -0.22139859 0.06350057 0.0032372426 -0.09048981 -0.15401651 -0.012191393 -0.14832251
-0.029030437 0.004477442 0.106189735 -0.072227985 -0.23725383 0.15338671 -0.013066716 -0.5340398
-0.06759871 0.09473633 0.10992188 0.092006095 -0.017513292 -0.14102264 -0.036528878 -0.11018657
0.058866225 -0.13197379 -0.05799243 -0.086952955 0.08950345 0.11956926 0.067020655 0.02480708
0.06847663 0.020377362 0.12211845 -0.030377876 -0.0035440119 -0.10713117 -0.13438483 -0.14878663
-0.009056528 -0.05398043 0.030441204 -0.13644557 -0.09047848 0.072381385 -0.078234166 -0.070823796
-0.02669914 -0.13913606 -0.06687016 -0.016546657 -0.00066658814 -0.08735358 -0.10055331 0.13244571
-0.26601323 -0.042998757 0.16730298 0.09254723 0.070140556 -0.13813384 -0.06971676 0.11913031
-0.057806853 -0.057963744 0.16637897 0.018497027 0.105637476 0.1268651 -0.07747522 -0.23913388
-0.107493445 0.26347306 0.27202144 -0.08302287 -0.14256117 -0.13786216 0.022290945 0.02867866
-0.08460165 -0.029248934 -0.040115472 -0.3061725 0.05832488 -0.110313796 -0.03542536 -0.06641205
0.038027912 0.034570094 0.11395898 0.102449276 0.024166238 -0.22646692 -0.023984328 -0.21824764
-0.04612523 0.035903182 0.12842798 -0.11414913 -0.15724078 0.03566818 0.15520924 -0.05732332
-0.12852672 -0.07148163 0.017755883 0.007988329 0.022037473 0.017535476 -0.037807044 0.061038602
00000000: 4dfc 943d cb1f f5bc bab5 55bd 979a 4fbc
00000010: ac87 123e db70 ad3d 9a4a 953d 5695 993c
00000020: 9523 dfbd 3e59 0f3d 2fc0 bd3d 0c7c 3f3d
00000030: 97a2 3c3d 4c80 4abd 0ca1 12be a9e3 dfbd
00000040: 17bf 10bd f098 7abd 79c0 75bd 8d2a b73d
00000050: a30e 933d 7e64 1bbe 3766 cebd 040d 61bc
00000060: 329e 1abe f05d 3c3d fa86 0fbb f5e2 ba3d
00000070: 1ed7 683d d282 92bd 6a31 51bc 65b3 2dbd
00000080: 2ef3 fbbd fa91 5c3d ad9c 83bd 1c00 503d
00000090: d99a 493c 852a 8c3d 329f 143d 5d39 a5bd
000000a0: 3fac 173d 1aa6 d93d 7fc3 11be aa68 dabc
000000b0: 6142 e8bd 6cd3 c5bc 75ed 123e d800 b5bc
000000c0: e1b7 81bd c1ca 173e f076 cabc 3ea1 a83d
000000d0: 4b20 1cbe 405d 03be d684 f93d b593 edbd
000000e0: ff8d f93d 9085 80bd 4e84 91bd 98af d13d
000000f0: 0bc6 ef3d 997d c43d c834 673c 8269 2fbe
00000100: 87d5 1f3e 0820 b6bc 9b03 433c 3036 ab3d
00000110: a0f3 25be ea72 973d 4f2e 3d3d 96cf ea3d
00000120: 0473 3f3d 4d15 983d 63c6 0bbe 3550 23bd
00000130: da2a 193e d4e6 46bc e626 cabd c00e 00be
00000140: 6314 c13d cc13 9cbc e515 07be b2cd f9bd
00000150: a164 14be fd4b d73d a907 5f3d d248 ddbd
00000160: d956 c8bd c613 87bd eab9 89bd 9112 0b3d
00000170: da12 f4bc 6de2 a03c 8eba 1a3c 55d9 363d
00000180: 97cb 9abc 20b7 973c 2559 353c c044 c93c
00000190: ffa8 5cbb 636e 143c f664 8c3c 51cb 183d
000001a0: fdf1 95bd 6cc5 7f3c 7ccd ee3d cf35 c2bc
000001b0: 194c 65bd cf2e 143d 5dd9 c4bd 5498 f23c
000001c0: bf2f bfbd a441 1b3e 6334 0cbd 6c24 11bd
000001d0: b811 3fbd 242f f4bd a66e d63d 4663 243e
000001e0: 012c 67bd 77a7 063e 1c7b 303b d72a b33c
000001f0: b54e 183e 7bb3 dd3d 683d d33c 96c9 c6bd
00000200: 60d0 993c b3e5 78bd 5678 efbd 763a be3d
00000210: 84b4 b23d d4a8 c5bc ea0a 863d 8c2e d33d
00000220: 9b0e 86bd 0c3b 7dbe f155 053e 242d a53d
00000230: 774b 353d 9ff6 1ebe 50f6 e3bd f392 adbd
00000240: c97e e43c 50b6 62be 960c 823d eb27 543b
00000250: b952 b9bd 81b6 1dbe 69be 47bc dbe1 17be
00000260: 3dd1 edbc 81b7 923b 017a d93d 44ec 93bd
00000270: abf2 72be 6811 1d3e c715 56bc d5b6 08bf
00000280: 3171 8abd 1f05 c23d b91e e13d b16d bc3d
00000290: 0978 8fbc 3d68 10be 4e9f 15bd 7fa9 e1bd
000002a0: b61d 713d 2324 07be 7889 6dbd 6414 b2bd
000002b0: 964d b73d bae0 f43d 2042 893d 3838 cb3c
000002c0: 7a3d 8c3d 6dee a63c 3d19 fa3d 06db f8bc
000002d0: a742 68bb 9667 dbbd 2d9c 09be 865b 18be
000002e0: d561 14bc 951a 5dbd d55f f93c 63b8 0bbe
000002f0: c84c b9bd b13c 943d 3c39 a0bd 110c 91bd
00000300: 28b8 dabc af79 0ebe 39f3 88bd db8c 87bc
00000310: f9bd 2eba 6fe6 b2bd e5ee cdbd d99f 073e
00000320: e332 88be 771f 30bd 7951 2b3e 6789 bd3d
00000330: daa5 8f3d f572 0dbe a9c7 8ebd 98fa f33d
00000340: e1c6 6cbd 646b 6dbd 405f 2a3e 1487 973c
00000350: 7658 d83d ede8 013e 54ab 9ebd 83df 74be
00000360: 8625 dcbd f1e5 863e 6546 8b3e e507 aabd
00000370: 8efb 11be bd2b 0dbe 809b b63c 82ef ea3c
00000380: a143 adbd 769b efbc 1f50 24bd a4c2 9cbe
00000390: 12e6 6e3d 33ec e1bd 2f1a 11bd 0a03 88bd
000003a0: 28c3 1b3d 5f99 0d3d 5363 e93d edd0 d13d
000003b0: 46f8 c53c f2e6 67be c87a c4bc 4f7c 5fbe
000003c0: cfed 3cbd 370f 133d a082 033e 05c7 e9bd
000003d0: ba03 21be cc18 123d 2cef 1e3e dccb 6abd
000003e0: 829c 03be f664 92bd c974 913c 7be1 023c
000003f0: ee87 b43c 8fa6 8f3c 8fdb 1abd 9d03 7a3d

decoder.fc2.bias f4 [43]
0.0611561 0.052726313 0.22115128 -0.009958037 -0.1696425 0.041440103 0.16452275 0.08482393
0.06887519 -0.062378842 -0.12367796 -0.0836317 0.008686384 -0.06812599 0.0395484 -0.031006822
-0.04200554 0.13915727 0.12172087 0.14522378 -0.12877698 -0.2728926 0.19895102 -0.08255129
0.21598941 -0.02074182 0.141787 -0.17483276 0.044093277 0.04381096 0.010313235 0.08816526
-0.022020038 0.1786955 -0.17976077 0.2285155 0.09698406 0.06466267 -0.17985862 0.083238795
0.17221643 0.1870226 0.100213304
00000000: d27e 7a3d 8cf7 573d 7b75 623e 0927 23bc
00000010: c3b6 2dbe 19bd 293d a778 283e 2bb8 ad3d
00000020: 700e 8d3d f580 7fbd df4a fdbd 1947 abbd
00000030: 5651 0e3c a485 8bbd 81fd 213d 0502 febc
00000040: 000e 2cbd 3e7f 0e3e cb48 f93d 8bb5 143e
00000050: 1dde 03be 94b8 8bbe d1b9 4b3e a710 a9bd
00000060: 542c 5d3e c0ea a9bc 9c30 113e 5c07 33be
00000070: 279b 343d 1f73 333d d8f8 283c fd8f b43d
00000080: 5e63 b4bc f4fb 363e 3513 38be f8ff 693e
00000090: 949f c63d dd6d 843d dc2c 38be 1a79 aa3d
000000a0: 8159 303e da82 3f3e a23c cd3d
