heart_model.pth (torch, 51120 bytes, 8 tensors)

encoder.fc1.weight f4 [128, 43]
000000 de 59 a9 bb 5f 23 4d 3e b5 9b ca 3d 07 b8 6e 3e
       -0.0051681837 0.20033024 0.0989298 0.23312388
000010 a8 ae 8e 3b e2 88 41 3e f5 31 90 bd 8f 22 66 bd
       0.0043543167 0.18899873 -0.070407785 -0.0561853
000020 06 e9 b8 3d 2a 7d 51 3d 06 58 5d 3d 7c 81 f0 bc
       0.09028821 0.051144756 0.054039024 -0.029358618
000030 04 12 0e 3d a0 b1 a5 bb cb db e8 3d 9c 46 92 bd
       0.03468515 -0.005056575 0.11370047 -0.07142374
000040 f8 27 ad 3c 56 4f 42 3e d3 a1 b0 bc e4 02 d3 3d
       0.021137223 0.18975577 -0.021561539 0.10303286
000050 10 a0 1b 3c a2 98 6e 3e eb 94 08 3e ed 7c 0e 3c
       0.009498611 0.23300412 0.13338058 0.008696777
000060 e7 dc 49 bd 23 de de bc 16 5e 21 3e 7e 0c 68 bd
       -0.049282935 -0.027205532 0.15758547 -0.05665254
000070 69 ac ef 3d 36 62 93 3d 0b 7e 45 3d cb d4 11 3e
       0.117028065 0.071964666 0.048215907 0.1424133
000080 6e 0d 12 3c a1 f0 27 3e 78 1d 88 bd 5a 20 e4 3b
       0.008914335 0.16400386 -0.06646246 0.0069618644
000090 de 12 14 3d e1 84 2a bd 55 70 5f bc f0 d4 96 3c
       0.036150806 -0.04163063 -0.013637622 0.018412083
0000a0 95 bc c5 3c 89 f6 c1 3c c1 aa 36 3c 51 50 97 bb
       0.024137774 0.023677127 0.011149109 -0.0046177288
0000b0 41 b5 d9 bd 54 0a 1c bd 2b a5 e4 bd 28 4d 82 3d
       -0.106302746 -0.038095787 -0.11164316 0.06362373
0000c0 49 db 92 bd 93 a9 c0 3d 8b 6d 65 bd fb d6 5e 3d
       -0.071707316 0.09407344 -0.05601267 0.05440424
0000d0 2b db 1f 3e 8a 90 b9 bd dc a2 0a bc b6 86 54 bb
       0.1561095 -0.09060772 -0.00846168 -0.0032428927
0000e0 22 8a d2 bd d9 93 37 3e 14 a0 67 3e 12 32 20 3d
       -0.10280253 0.17927493 0.22619659 0.03911025
0000f0 4f 7c 03 be 84 bb 36 3e 01 b6 89 be ae 01 96 be
       -0.12840389 0.17844969 -0.2689667 -0.29298156
000100 c7 f0 0e 3e b9 47 39 be 6a 44 05 be ed f1 84 3d
       0.13959037 -0.18093766 -0.13014379 0.06491456
000110 e9 ad 1f be c1 0d 28 be 15 25 60 3d ac 89 de bd
       -0.15593685 -0.16411497 0.054722864 -0.108661026
000120 24 53 58 3e f1 69 bf bd 92 3f e8 bc 54 e5 a7 3c
       0.21125466 -0.093463786 -0.028350625 0.020495094
000130 29 55 ee 3d 0b 34 4e 3d 5b 07 0d 3e f0 e5 3c 3e
       0.11637337 0.0503426 0.13772337 0.18447089
000140 fa 0d e8 3d be 42 1b 3e 6b b5 21 be cb 9b 12 3e
       0.11330791 0.15162179 -0.15791862 0.14317243
000150 de fe 80 3d ca 08 c1 bc d7 f3 e1 3d ec 89 0a 3e
       0.06298612 -0.023563761 0.11032837 0.13529176
000160 83 4e 33 3e a5 34 86 bd 9e 24 d7 bd f8 18 84 bc
       0.17510419 -0.0655301 -0.10505031 -0.016125187
000170 14 c6 f6 3c 03 96 0c bd 66 e7 cd 3d ee 27 2c 3e
       0.030123748 -0.03432275 0.100539014 0.16812107
000180 74 19 9a 3d 4d c5 4e bd 81 25 ff bd 05 e6 60 bd
       0.07524386 -0.05048113 -0.12458325 -0.054906864
000190 cb c1 1a 3e 4a 65 06 bc 3e 1e 05 3e 93 88 8b bc
       0.15112989 -0.00820286 0.12999818 -0.017032897
0001a0 b5 9f 01 bd 5f 5c 24 3e f3 5e 6e 3e 37 df 8b 3d
       -0.03164645 0.16050862 0.23278408 0.06829684
0001b0 44 66 d4 3c 33 f2 84 be 41 c7 8c 3d 79 f1 6e bc
       0.02592767 -0.25966033 0.06873942 -0.014583939
0001c0 65 3d 11 3e f5 64 4d 3d d9 a3 a1 bd 6f 5f 0a 3d
       0.14183576 0.05014511 -0.078925796 0.03378242
0001d0 23 b8 fc bd 16 e1 cc bd d8 6d 8a 3e d3 07 42 3e
       -0.12339809 -0.10003869 0.2703693 0.18948297
0001e0 68 df d4 3d 98 15 a3 3d 5a 9a 70 bd e8 bc 34 3d
       0.10394174 0.07963103 -0.05874095 0.044125468
0001f0 53 79 e1 bc 85 68 eb bc a9 9b 40 3e a3 6e 47 3e
       -0.027523672 -0.028736362 0.1880938 0.19475798
000200 71 a5 fc bd c5 86 4f 3e e9 1a 6a bc 9a 05 04 3e
       -0.12336243 0.20266254 -0.014288642 0.12892762
000210 95 16 73 3d ed 2f 12 be e5 b6 32 3e 98 c9 59 bb
       0.059347708 -0.14276095 0.17452581 -0.0033231732
000220 75 01 66 3e e4 3e b4 bd 79 e1 be 3d a7 a7 ea bc
       0.22461493 -0.08801058 0.09320349 -0.028644396
000230 d9 26 1d bd 39 a1 20 3e 71 16 f7 bd 4b 35 af 3d
       -0.038367126 0.15686502 -0.12064827 0.08555087
000240 0c 7e 4a be 7d 16 9e 3e 05 7a a3 be 8a 57 87 3e
       -0.19774646 0.30876532 -0.3192903 0.26433975
000250 23 a6 8f bc a9 12 7e 3e 7d 97 82 bd 49 fd 9c be
       -0.017535275 0.24811806 -0.0637655 -0.3066199
000260 1f aa e8 bd fb d9 01 3e ff f4 e1 3d 62 2f da bd
       -0.11360573 0.12680809 0.110330574 -0.10653569
000270 0f e9 83 3d ec 96 0e 3e 01 aa 11 3e 70 ad fb 3d
       0.06440937 0.1392476 0.14225008 0.1228894
000280 b7 67 6b be 6b c2 05 be da ab 65 be ea 95 f8 3c
       -0.22988783 -0.13062446 -0.22428837 0.030344922
000290 58 cc 78 3e 68 9d ad 3d 31 18 cc 3d d1 f9 23 3e
       0.24296701 0.084772885 0.09965552 0.16013266
0002a0 69 03 d8 bd 67 4d 78 3e a1 02 a3 3d b5 4b 3d bd
       -0.105475254 0.24248277 0.07959486 -0.046214778
0002b0 6a 6a 63 be bb be 8d 3c 9c 43 15 3e a2 39 14 3e
       -0.22208562 0.017302861 0.14576572 0.1447511
0002c0 ab d2 7f be 05 99 07 3e 73 e1 b9 bb 6d f3 2f bc
       -0.24982707 0.13241966 -0.0056726276 -0.01073919
0002d0 cb 13 60 3d 6a 80 39 3e 1d fc bf 3d 36 12 6d bc
       0.054706376 0.18115392 0.09374259 -0.014469674
0002e0 96 59 14 be c4 e4 0a 3e 6c a6 d0 3c ab ec 2b 3e
       -0.144873 0.1356383 0.025469981 0.167895
0002f0 a1 c8 23 3e 03 3a 89 3e 2e 76 4c be a8 00 6b 3d
       0.15994503 0.26802072 -0.19966957 0.057373673
000300 22 ff 23 3e 56 71 cc bd 5f 59 1c 3e 2e 5e 19 3e
       0.16015294 -0.099825546 0.15268467 0.14977333
000310 8a 30 96 bd 2b 7f e0 bc db 3a 9d bd 33 f7 31 3e
       -0.07333477 -0.027404388 -0.076772414 0.17379455
000320 4b 3f 6e 3d 9c 7b 09 be b7 3c 73 bd 81 98 5d 3d
       0.05816583 -0.1342606 -0.059384074 0.054100517
000330 72 d2 97 be f2 50 88 3e e5 be fb bd 25 e2 91 be
       -0.29652745 0.26624256 -0.122922696 -0.28492847
000340 5f a6 4b 3e 3b 90 88 bc 5d 38 f6 bd a6 c3 0b 3e
       0.19887684 -0.016670337 -0.12022469 0.13648853
000350 1e d5 42 bd d1 62 ed 3d 2a 2f 21 3e c4 27 81 bd
       -0.047566526 0.11591113 0.15740648 -0.06306413
000360 85 37 57 be fe a6 de bc 1b f5 db 3e 71 fb 8d be
       -0.21017273 -0.027179237 0.42960438 -0.27730897
000370 35 de 4d bb b0 22 96 bc df 3e 5a 3e 0a bf 9b be
       -0.0031412963 -0.018327087 0.21313046 -0.3041919
000380 f1 d5 d6 3d 0c ca 47 3e 85 e7 09 3e 70 55 8c be
       0.10490025 0.19510669 0.13467224 -0.27408934
000390 a2 55 7e 3e fd db e2 3e 98 97 b4 3e 90 31 26 3f
       0.24837354 0.44308463 0.35271907 0.64919376
0003a0 57 07 30 3d 1c 5a ba 3b 58 05 8b 3e ca d7 32 3e
       0.04297575 0.0056870114 0.27152514 0.1746513
0003b0 9c ea 04 bd 74 cb cd 3d 88 87 b4 bd 2c 70 49 be
       -0.032450303 0.10048571 -0.08814913 -0.19671696
0003c0 7b 06 63 bd 10 31 e7 3e 7f 80 be 3d 8e b6 fc 3d
       -0.055426102 0.4515462 0.093018524 0.12339507
0003d0 01 48 20 bc b4 3d 25 3e d7 2d 32 3e a2 a2 b6 3c
       -0.009782792 0.16136819 0.17400299 0.022294346
0003e0 eb bb 65 3d d0 ae 0a 3d 5f 33 8b bd f1 59 48 3e
       0.056087416 0.03385812 -0.06796908 0.1956556
0003f0 f3 8b 27 3e 96 14 84 bc d0 20 6c bd 12 78 33 3d
       0.1636198 -0.016123097 -0.05764848 0.04381568

encoder.fc1.bias f4 [128]
000000 45 e1 50 3b 9e 6b e6 3c b8 1f 08 3d dd 35 72 3d
       0.0031872552 0.028127488 0.033233374 0.0591334
000010 07 67 e2 bd 26 1d d7 3c 5c 0f 0f 3e 67 09 11 3e
       -0.11054807 0.026259016 0.13970703 0.14163743
000020 0b dd 2e bb 97 0b 9d 3d 36 8c c2 3e 53 9b 20 3e
       -0.0026682045 0.07668226 0.37997597 0.15684251
000030 21 9b 68 3c 37 61 be 3d fa bf 97 bd 39 18 40 3e
       0.014197142 0.09295886 -0.074096635 0.1875924
000040 b0 b2 84 bd f4 48 ef bd ee 6c 3b 3d b7 90 89 3d
       -0.064793944 -0.116838366 0.04575818 0.06717055
000050 37 33 93 3b 14 48 1f bd d5 6f 51 bd 9d 45 0f 3e
       0.0044921893 -0.0388871 -0.051132042 0.13991399
000060 f6 8c cb bd 9f 8a 6c bd 83 d0 af bc 32 cf 73 3d
       -0.099389955 -0.057749387 -0.02146173 0.05952377
000070 ab f3 cf 3c bd 64 7e 3e 47 cc d2 3d 1c fd 20 3e
       0.025384745 0.24843116 0.10292869 0.15721554
000080 07 33 7f 3b 56 05 c3 3e 29 f1 89 3e da 6e 82 3b
       0.0038940327 0.38090008 0.26941803 0.0039804997
000090 22 a5 3b 3e 60 e4 47 3e b5 a3 8d 3e cd 6d 41 3d
       0.18324712 0.19520712 0.2766396 0.047223855
0000a0 70 13 5b 3e a2 38 03 3b d9 8d 04 3d c7 38 9f 3a
       0.21394134 0.002002277 0.03236184 0.0012147658
0000b0 31 08 7b bd 98 73 5a 3e 06 a0 21 3e 2a 8d 4a 3b
       -0.06128711 0.21333158 0.157837 0.0030906894
0000c0 2d 0b ad bd 80 fb a3 3d 95 ea 60 bd fd 18 2a bc
       -0.08449397 0.08006954 -0.054911215 -0.010381934
0000d0 95 95 37 3d 6d dd b0 bd b5 e7 8c bb d5 3f 74 bd
       0.044820387 -0.086359836 -0.0043000826 -0.059631187
0000e0 87 11 0b 3e e7 c5 1a bd 60 27 3d 3e 8e cd ae bb
       0.13580905 -0.03778639 0.18472052 -0.0053345626
0000f0 14 7a fa bd a6 0a 56 3d c3 c4 0f 3e c5 00 ec bd
       -0.12230316 0.05225625 0.14039902 -0.11523584
000100 6b 64 89 3d 13 38 a8 3d 85 3c 7d 3e 0b ed af bc
       0.06708606 0.0821382 0.24730118 -0.021475336
000110 4c fa 9f 3e 46 e1 40 3e bc 06 c8 bc 65 ff a2 3d
       0.3124565 0.18835935 -0.024417274 0.07958869
000120 f3 65 33 3d 34 2e 11 3e 12 37 c7 3d c5 b8 8e 3c
       0.0437984 0.14177781 0.09727301 0.01742209
000130 24 0c 4c 3e 80 1c 2b bd 57 f3 4e 3d 68 fc 6b bd
       0.19926506 -0.041775227 0.050525036 -0.05761376
000140 24 9a cd bd b2 e2 ec bd 14 c0 d4 3d 8b 5e 8d bc
       -0.100391656 -0.11566676 0.103881985 -0.017256996
000150 e4 bc 89 3d 91 73 a7 3c 9d eb 7a 3c 65 2f a2 bd
       0.06725481 0.020440849 0.015314964 -0.07919196
000160 89 3d 02 be 46 3e 92 bd 3b 04 83 3c e3 f3 e1 3c
       -0.12718786 -0.07140784 0.015993228 0.027582115
000170 8b c5 dd 3d 96 c5 dc 3c 11 65 4f bc bb ba cc bd
       0.10828694 0.026949685 -0.012658373 -0.099965535
000180 51 2e fd bd e0 3b a4 3d 36 34 f5 3d 07 12 ad 3e
       -0.1236235 0.08019233 0.11972849 0.33802816
000190 7e 4a 90 3d 83 c4 d2 3d c8 38 1c 3e ca 18 9d bd
       0.07045458 0.10291388 0.15256035 -0.07670744
0001a0 2e 26 85 3e 56 5a 26 3e fd 24 6c bb 3c ad ab 3e
       0.2600569 0.16245398 -0.003603279 0.33530605
0001b0 5f 31 89 3d be 78 d5 bd b7 8e 1e 3e cd 50 08 3d
       0.0669887 -0.1042342 0.15484129 0.033280183
0001c0 b1 0f c8 3d 6e 44 77 3c c2 0f 56 3d c9 4e ca 3d
       0.09768618 0.0150919985 0.05226112 0.09878308
0001d0 bb c5 c7 bd 7a 84 02 3e bf 79 2d 3e 56 f3 8a bd
       -0.09754511 0.12745848 0.16940974 -0.06784694
0001e0 90 71 2d bd a7 48 9e bd 9a fe 9c 3d 4a d2 fd 3c
       -0.04234463 -0.07728701 0.07665749 0.030984063
0001f0 9c 59 b7 3d cf 76 b3 3d 43 b7 8e 3e 67 88 db 3d
       0.089526385 0.08762895 0.27874193 0.10719376

encoder.fc2.weight f4 [31, 128]
000000 34 50 b5 3d 99 73 ff bd b5 dc 4c 3d 63 7f 66 3e
       0.08853188 -0.124732204 0.05001517 0.22509532
000010 81 53 41 3d e1 42 8a 3e 24 a7 85 3d a4 c4 71 be
       0.047198776 0.2700415 0.0652602 -0.23610169
000020 75 9b 6d 3d fa 30 be 3d 0d 6f 89 3d 8e b0 2e 3d
       0.058009584 0.09286685 0.067106344 0.042648844
000030 95 74 24 bd 5f ff 43 3d cc 3e a2 3c d1 1a 89 3d
       -0.040150244 0.047850963 0.019805335 0.06694568
000040 88 5b c9 bd 52 d9 a4 bc 5d ff a2 bd 7b d8 b0 bc
       -0.09831911 -0.020123158 -0.07958863 -0.021587601
000050 46 50 0b be 1c ab e1 bc b9 f8 4f 3e 7e d0 bd bd
       -0.1360484 -0.027547412 0.20309724 -0.09268282
000060 a3 e0 b1 3d a7 6d 85 bd e4 d5 86 bd 20 cb 83 bd
       0.08685424 -0.06515055 -0.06583765 -0.064352274
000070 1d f1 8d 3d cf d9 c6 bc 7c 74 a6 bd 1a 86 87 bd
       0.06930754 -0.024273781 -0.081276864 -0.06617375
000080 97 11 34 be 79 40 69 be 99 5e bc bd 5e 11 21 be
       -0.17584835 -0.227785 -0.091977306 -0.15729281
000090 dc 25 64 bb 8a c5 13 3e 92 69 9c bd a0 d0 83 3d
       -0.0034812605 0.14430824 -0.076373234 0.064362764
0000a0 ff ca 18 3d d7 c1 7b 3e c3 87 92 3d f7 3e d9 bd
       0.037302967 0.24585663 0.07154801 -0.10607713
0000b0 7e 47 e0 bd 00 b9 2d 3b 58 18 ab 3c 4d aa bb bd
       -0.10951136 0.0026507974 0.020885631 -0.09163342
0000c0 09 98 60 bd 3e ce 24 3e 6c 43 e2 bd f2 88 00 bc
       -0.054832492 0.160943 -0.11048016 -0.00784515
0000d0 5c 64 c8 bd 9e 66 2f 3d 07 54 ed bc 03 c1 c0 bd
       -0.09784767 0.042822473 -0.028970731 -0.09411814
0000e0 0d 47 bf bc 2b 3e c3 bd b7 22 7c 3e 31 b4 24 3d
       -0.02334931 -0.09533342 0.24622618 0.040210906
0000f0 a8 0d d5 bd 57 76 b3 bd 40 79 32 3d b2 b1 96 bd
       -0.10402995 -0.08762806 0.043572664 -0.073581114
000100 f0 07 87 bd 87 03 71 ba 7e a8 81 bd 00 ef 27 bd
       -0.06593311 -0.0009193946 -0.063309655 -0.040999413
000110 78 06 64 bd 32 05 98 bd ea c5 19 be c1 59 b1 bc
       -0.05567023 -0.07422866 -0.15016904 -0.021649243
000120 03 86 ea bd 55 15 83 bd d5 e6 12 bd 76 1a a2 be
       -0.11451342 -0.06400553 -0.03586467 -0.31660813
000130 a4 82 e2 3d 3e 7d 02 bd e9 6a da bc f2 4c 06 3d
       0.11060074 -0.03185772 -0.026662307 0.032788225
000140 b5 84 69 bd 8b 59 8f bd 02 18 2b 3e c9 14 2e bd
       -0.057011325 -0.06999501 0.16708377 -0.04250029
000150 44 56 cd 3d 0b f6 fb 3c e4 c1 0a 3e 49 c3 51 3d
       0.100262195 0.03075697 0.13550526 0.05121163
000160 20 03 74 3d ea ef 31 bd 0f e5 a7 bd 8b 34 45 bd
       0.059573293 -0.04344169 -0.08197986 -0.048145812
000170 57 70 2a be 84 27 62 3d 5f c9 fe bd e1 5c fb bc
       -0.16644417 0.055213466 -0.12440752 -0.030683937
000180 6e 15 af bd aa 35 52 bd 3c 7d be bc 1a 48 55 be
       -0.08549009 -0.05132071 -0.023253076 -0.20828286
000190 65 a4 1d bc 9f 32 44 3c c1 9a 6c bc 3f dc 0f be
       -0.009621714 0.01197496 -0.014441193 -0.14048861
0001a0 fa 50 bc 3d d9 e3 3a bd 77 1f 73 bd bb fc 2b bd
       0.091951326 -0.04562745 -0.05935618 -0.04198907
0001b0 94 c2 d7 3c de b4 b4 bc d8 4a 05 bd 5e 44 9a 3a
       0.0263379 -0.0220589 -0.03254208 0.0011769643
0001c0 4e 86 b9 3a 6f 9e 6a 3d 24 53 f1 bc c9 4d b2 bd
       0.0014154406 0.05728 -0.02945859 -0.087062426
0001d0 81 e4 aa bd ff 63 36 3d e8 8c af 3e 0f a0 7b 3d
       -0.08344365 0.044528957 0.3428719 0.06143194
0001e0 7b 19 6b bd cd 2c 2d 3d 61 4c 98 3c e3 0d b6 3d
       -0.057397347 0.042279053 0.018591108 0.088893674
0001f0 2e 92 24 3d bd f0 7f 3e 8f 3e cc 3e 1e ca 68 3c
       0.04017847 0.24994178 0.39891478 0.014208345
000200 b4 74 22 3e 2b c7 19 be 0c a0 b3 3c ac af 0f 3e
       0.15864831 -0.15017383 0.021926902 0.14031857
000210 d6 98 a6 3d 8f ca 88 3e d2 ef 1e be fb c1 1e 3e
       0.0813462 0.2671704 -0.15521172 0.15503685
000220 30 e6 a7 3d 29 11 54 3d 02 e3 07 bd 49 f0 61 bd
       0.08198202 0.051774178 -0.033175476 -0.055160794
000230 5f 51 18 3e e9 25 05 be 66 4a 42 3d ba 4d 0c bd
       0.1487479 -0.13002743 0.047434233 -0.034253813
000240 91 b5 10 3d 21 5c ea bc b9 6a 4d bd b6 8b c6 3d
       0.035329405 -0.028608384 -0.050150607 0.096946165
000250 5f d6 4a 3c 55 dc 78 3d bb 27 f1 bd 9e ce 4c bc
       0.012380212 0.060757 -0.11775156 -0.012500433
000260 83 a2 33 bc 30 79 81 bd 4a 3e b6 3d 50 6b 95 bd
       -0.010964039 -0.06321943 0.088985994 -0.07295859
000270 16 35 43 bc 26 d9 ca 3d 65 0a d1 bc 05 27 f4 3d
       -0.011914512 0.09904699 -0.025517652 0.11921505
000280 cf 50 57 be fd eb f1 bb de 99 a8 bd dc 8b a5 3d
       -0.2102692 -0.0073828683 -0.08232473 0.08083317
000290 95 91 3b 3e 3d a3 b2 bc a1 86 87 bd a1 f3 57 3e
       0.18317254 -0.021806354 -0.06617475 0.21089031
0002a0 2e 71 df 3d a4 eb c9 3d 93 83 fb bc 69 1d 5c 3c
       0.10910259 0.09859398 -0.030702388 0.013434746
0002b0 38 92 94 3c a4 ae 35 3c 15 c7 99 bd 2d 47 1f be
       0.018136129 0.011089001 -0.07508675 -0.15554495
0002c0 ee a6 85 3d 17 3d a8 be c0 cc 99 bd 27 90 40 bd
       0.0652598 -0.32859108 -0.07509756 -0.047012474
0002d0 f9 5b dd 3d df 00 af 3d a7 b1 95 bd 6d be 03 3e
       0.10808558 0.08545088 -0.07309275 0.1286561
0002e0 f8 a4 6c 3d 02 bd b6 bc b2 c2 c9 3e c2 4c 87 bb
       0.057774514 -0.022306923 0.39406353 -0.0041290233
0002f0 74 80 0c 3e 44 3f 00 be bb c7 a8 bd 44 41 80 bd
       0.13720876 -0.12524134 -0.082412206 -0.062624484
000300 23 89 b0 bd 41 d9 ff 3d 1e c2 c9 3c c3 13 2b be
       -0.08619907 0.1249261 0.024628695 -0.16706757
000310 90 b2 42 be 42 f7 6b 3c ba ae 86 bc 0b ec 12 be
       -0.19013429 0.014402213 -0.016440738 -0.14347856
000320 6a ff c6 bd a3 d7 f8 bd 22 0b ae bd d5 e1 5c be
       -0.09716685 -0.121505044 -0.08498217 -0.21570523
000330 93 de 94 be f8 eb 8d bd c8 1c 22 bd 71 dc 13 3c
       -0.2907606 -0.06929773 -0.03957823 0.009024725
000340 24 9b 9e bb c2 48 04 ba 23 78 fe 3d 85 11 bc 3c
       -0.0048402715 -0.0005046242 0.12425258 0.022957573
000350 31 45 50 3e 4f 8e c4 3d 0e bf ed bd 2b cc b7 3d
       0.20338894 0.09597456 -0.116087064 0.08974489
000360 3a bd 2f 3c fd 5c 96 bd 90 91 5d bd 90 22 28 3c
       0.0107262675 -0.07341955 -0.054093897 0.010262147
000370 b7 f6 4b 3d a0 57 d5 bd df cf e3 3d 18 67 71 bd
       0.049795832 -0.10417104 0.11123633 -0.05893621
000380 37 81 8e 3d 61 60 9c bd 2c f7 37 be 14 3b 8b 3d
       0.069582395 -0.0763557 -0.17965382 0.06798378
000390 c3 1f 44 bd 8b 4d 0d 3e a6 9a 9b 3d 45 3b 4f 3d
       -0.047881853 0.13799112 0.07597856 0.050593633
0003a0 65 b2 43 be 46 71 90 bc e5 8a 02 3d 53 30 a4 3d
       -0.19111021 -0.017632138 0.03187074 0.080170296
0003b0 f7 79 12 be 4f c7 82 bd 1b de 15 3e b1 9a 11 3e
       -0.14304338 -0.06385671 0.14635508 0.14219166
0003c0 3e 54 1c bc fe 21 8c bc 93 1e f9 3c 81 90 a8 bd
       -0.009541569 -0.017106052 0.030410087 -0.08230687
0003d0 37 a5 23 3d 97 62 ae 3c 4e 96 02 3d 4e 93 8a bc
       0.039952483 0.021287246 0.031881623 -0.016915943
0003e0 fb 9a 22 bc 22 36 a6 bd 28 f4 07 bd 1c 72 36 3e
       -0.009924646 -0.08115794 -0.03319183 0.17816967
0003f0 8e 86 8e bc 5d ac 55 3e 46 23 ee bd f2 1f ae 3c
       -0.017398145 0.20866533 -0.116278216 0.021255467

encoder.fc2.bias f4 [31]
000000 ac af 03 ba 59 9f 84 bd 10 a5 86 bd d1 28 fa 38
       -0.00050234306 -0.06475706 -0.06574452 0.000119285316
000010 b9 d0 cd bb a7 f2 bd bd b7 50 0f 3b 25 5d 95 bc
       -0.006280985 -0.09274798 0.0021868178 -0.018232891
000020 73 9a 8e 3d 72 30 55 3c 63 16 82 bc de f4 8f bd
       0.069630526 0.013012039 -0.015879815 -0.070291266
000030 82 cc bb 3d 9c f0 9d bb 49 9e 8a bd ad 7f 55 bd
       0.09169866 -0.0048199426 -0.06768472 -0.052123714
000040 c1 5e 3d bc 9f 80 32 bd 4e 10 80 bd 86 c3 88 bd
       -0.011558236 -0.043579694 -0.0625311 -0.06677918
000050 7b fb b0 bc ec 5c 1a 3d a8 f9 49 bd 87 42 8b 3d
       -0.02160429 0.037686273 -0.049310356 0.067997985
000060 8d 8f ad bd ae ac d1 bc b5 f2 1b bc 1b 68 89 3d
       -0.08474646 -0.025595035 -0.009518315 0.0670931
000070 ea 65 04 3d 86 89 23 3c 28 95 5a 3d
       0.032323755 0.009981519 0.053364903

decoder.fc1.weight f4 [31, 31]
000000 25 d3 93 3e 50 fe 7c 3e f1 05 90 bd 39 f4 f5 3d
       0.28872028 0.24706388 -0.07032383 0.120094724
000010 87 6c 59 bd 18 29 e4 bc 16 68 52 3e 97 15 98 3d
       -0.053082015 -0.027851626 0.20547518 0.07425993
000020 5f a6 28 be 0b bc 10 3d b9 f9 af bd a2 4b 78 be
       -0.16469716 0.03533558 -0.08592553 -0.24247602
000030 0c 1d 0d be 0e 71 53 be c3 99 9c bc 17 ff 2c be
       -0.13780612 -0.20648596 -0.019116288 -0.16894184
000040 5d d9 ff bd 2b 87 6b 3e 88 cd 93 3d ae 51 07 3e
       -0.12492631 0.23000781 0.07216936 0.13214752
000050 86 f8 d0 bc 26 48 16 bd 1f 74 03 3d 22 e7 94 3d
       -0.02550913 -0.0366899 0.032093164 0.072706476
000060 12 d6 67 be cd 18 cc bd 13 04 66 be c0 72 e3 bd
       -0.22640255 -0.09965668 -0.22462492 -0.11105871
000070 6e de 0a be bd 18 ff 3d 95 49 b1 3d cf 9c c1 3d
       -0.13561413 0.1245589 0.08656613 0.09453737
000080 5e 92 03 3d 3a bd 12 3d 0a 0a 67 3d ea fe 37 be
       0.03212201 0.03582499 0.05640606 -0.17968336
000090 15 d5 a6 bd 0f a1 8f 3d b8 9f b9 3d b8 fb 9f bd
       -0.08146111 0.07013141 0.09063667 -0.078116834
0000a0 61 56 cf bd 87 bf 1c 3e bb 5a 2a bb 92 83 01 be
       -0.10123897 0.15307437 -0.002599402 -0.12647846
0000b0 ce 5b df bd c3 a6 69 bd 4c 76 12 3e 3b db 93 3d
       -0.10906182 -0.057043802 0.14302939 0.07219549
0000c0 18 1c c1 bc 63 49 e3 bc aa 31 02 be 61 b0 ae 3d
       -0.023572966 -0.027744954 -0.12714258 0.08529735
0000d0 01 69 c2 bd 28 2d 33 3e 80 ed 66 bd b9 82 0e bd
       -0.09492684 0.17497694 -0.05637884 -0.034792636
0000e0 c4 3d a4 3c 13 53 e4 bd 50 bc 41 bd 91 3b 9e 3d
       0.020048983 -0.11148658 -0.04729873 0.07726205
0000f0 5e 09 37 3e bd ce 89 bc ce 9e 8e bd d8 63 e8 bd
       0.17874667 -0.016822213 -0.06963883 -0.11347169
000100 73 b8 1a 3e 4b be 8e bd 51 a0 ad bc 6f 5f 16 bd
       0.15109424 -0.06969889 -0.021194609 -0.036712106
000110 01 68 8c 3c 04 51 0c bd 07 85 ef 3d ec 93 08 bd
       0.017139437 -0.03425695 0.11695295 -0.033344194
000120 85 86 b1 bc bb 9f 9a bd f9 92 0a 3e f5 81 3e 3d
       -0.02167059 -0.075499974 0.13532628 0.046510655
000130 89 5f d8 3b fc 36 93 3d e1 01 c8 bd d9 b9 35 be
       0.0066031856 0.07188222 -0.097659834 -0.17746677
000140 e6 b7 f1 3d a7 35 cf 3d e1 d0 1b 3e ed 9a 48 3d
       0.11802654 0.10117655 0.152164 0.048975874
000150 a9 bf 0c 3e f8 78 f8 3d 5b fa 2e 3e 4d 8f c4 bd
       0.13744988 0.12132448 0.1708769 -0.09597645
000160 8e bc ee 3d 67 e1 d9 3d 14 4e 81 bd 51 49 9a 3d
       0.11657058 0.10638695 -0.0631372 0.07533515
000170 65 4c c1 bd 2a f1 fd 3d d4 30 98 3d 8c 84 32 3e
       -0.09438399 0.12399514 0.07431188 0.17433375
000180 64 80 0b be cd ef a7 3d d5 22 56 bd e0 ed c9 bd
       -0.13623196 0.08200035 -0.052279312 -0.09859824
000190 0e 95 1d be 09 c7 8b 3d 6c 64 2d be 0e 35 24 be
       -0.15388891 0.06825072 -0.16932839 -0.16035864
0001a0 6b c7 f9 bd 26 a0 ee 3d 82 4b 73 bd 70 15 0d 3e
       -0.12196239 0.1165164 -0.05939818 0.13777709
0001b0 37 69 47 3e 72 f8 f5 bd 66 c2 8e bd 2a 8a 33 bd
       0.1947373 -0.12010278 -0.06970672 -0.043832935
0001c0 6c 58 23 bd d6 ae 34 bd a1 cc c3 bc 3d ed 34 3e
       -0.039879248 -0.04411205 -0.023901286 0.17668624
0001d0 49 a9 1f 3d 02 42 a4 3d 97 69 30 be 77 ac 25 be
       0.038979802 0.080204025 -0.1722778 -0.16179071
0001e0 16 e8 16 bd 09 27 26 3e be f4 af 3d e7 e1 22 3e
       -0.03684243 0.16225828 0.08591603 0.15906487
0001f0 b1 c7 2b be 4a 20 55 be 60 df 1d be 57 cf 93 bc
       -0.16775395 -0.20813099 -0.15417242 -0.018043203
000200 47 2e 97 bd c8 76 85 be 9e 28 30 3e d6 f0 b7 bc
       -0.073818736 -0.26067185 0.17202994 -0.022453707
000210 69 c3 a1 bc 54 78 a7 3d 2a 43 17 be e6 a7 ba 3d
       -0.0197465 0.08177248 -0.14771715 0.09114055
000220 62 19 d0 bd c8 c5 97 bb cb 05 08 3e a3 33 46 be
       -0.101610914 -0.0046317317 0.1328346 -0.19355635
000230 5e e8 33 be 8f 87 29 3e cf c0 c2 bd eb f1 97 bd
       -0.1756911 0.16555618 -0.095094316 -0.07419189
000240 82 35 b0 bc b3 3d 08 be 69 42 c3 39 53 f6 3d 3e
       -0.02150989 -0.13304786 0.00037242778 0.18550996
000250 31 ce 07 be 68 9a fe 3d 1e 6d 6d 3e 11 a5 5f be
       -0.1326225 0.124317944 0.23186156 -0.21840312
000260 c6 7f 10 be 0a cc 11 3e 8a 2d 43 3e 13 c7 3e bd
       -0.14111242 0.14237991 0.1906034 -0.04657657
000270 31 f1 16 be c8 a6 42 3e 75 58 0e 3e 67 a7 4d bd
       -0.14740445 0.19008934 0.13900931 -0.050208475
000280 ff 5f d0 bc 18 6f 04 be 37 f3 91 bd 7c e9 62 bd
       -0.0254364 -0.12933004 -0.07126468 -0.05539845
000290 87 bf 82 bb 57 4b 6f bd 89 30 fa 3c e0 1e b0 3d
       -0.003990117 -0.05842146 0.030540721 0.08599639
0002a0 2c d9 cc bd e9 45 eb bc b7 50 1f 3e d4 c7 b3 3d
       -0.1000236 -0.02871986 0.15558134 0.087783486
0002b0 39 af bf 3c 90 2f 9e 3d 3d 90 1d 3e 57 75 10 be
       0.023398982 0.077239156 0.15387054 -0.14107262
0002c0 ab a2 a7 bd 50 79 f6 3d 55 ea bb 3d 22 da 3d 3e
       -0.08185323 0.12034857 0.09175555 0.18540242
0002d0 e9 bb 51 bd 37 e3 bd 3d 0c 24 1f be c6 d7 e9 bd
       -0.051204596 0.092718534 -0.15541095 -0.11418109
0002e0 d0 58 00 3e e6 4a 19 3d 22 71 6e 3a 72 96 ac bc
       0.1253388 0.037424944 0.00090958376 -0.021067832
0002f0 d5 83 2b 3e 39 6a 1d 3d e1 44 4b 3d 1b b1 4c be
       0.16749509 0.03843138 0.049626235 -0.19989435
000300 ec ff 5f 3e 96 9e b3 3d 1f 71 2c 3e f4 5e f0 bd
       0.2187497 0.08770482 0.16840027 -0.11736861
000310 65 48 e2 bd 31 4c c9 bd df a8 2d 3e af 5b a3 bd
       -0.110489644 -0.098289855 0.1695895 -0.07976472
000320 5c 68 ca bc 9d 05 f1 3d 5a 12 e8 3d 71 cf 20 be
       -0.024707966 0.11768649 0.11331625 -0.15704133
000330 c0 7e c9 bd 76 b3 c4 3c 22 c2 79 be 73 a4 7f 3d
       -0.09838629 0.024011355 -0.24390462 0.06241269
000340 75 9a 47 bd c9 bb 5b be ee e5 e8 bc 59 93 ab 3d
       -0.048731286 -0.21458353 -0.028429952 0.08377714
000350 9b 2c e6 bd de 9b 1c 3e 98 32 05 be 05 d3 85 3d
       -0.112389766 0.15293834 -0.13007581 0.065343894
000360 cb 61 67 3e a2 b0 b9 3d 5d 97 cd 3d a6 0c a4 bd
       0.22595899 0.09066893 0.10038636 -0.08010225
000370 ba 26 af 3d 03 91 db 3d 8c d7 e8 bb 66 c6 04 be
       0.085523084 0.10721018 -0.0071057733 -0.12966308
000380 44 7d 7b bd 0d 65 ce 3d fa 95 54 3e 86 18 49 3d
       -0.06139876 0.10077868 0.20760337 0.049095653
000390 eb 79 59 3e 61 f0 1b 3e f0 44 50 3d ba 91 b4 3d
       0.21237914 0.15228416 0.050846994 0.08816858
0003a0 9e b7 aa bd 01 fb 84 3d 96 8f f0 bc a1 bb 85 ba
       -0.083358034 0.06493188 -0.029365342 -0.0010203012
0003b0 e7 10 cf bd f2 1b 8c bd bf 0a fd bc f5 6d e8 3d
       -0.10110646 -0.06841268 -0.030888913 0.11349098
0003c0 f0 5a 1f 3e 1c fc aa 3d 30 c6 96 3c 45 ec 1c be
       0.15562034 0.08348867 0.01840505 -0.15324505
0003d0 c8 2d c5 3d ec 6d 64 be ed ef 98 3d 41 08 3f 3e
       0.09627873 -0.22307557 0.07467637 0.18655492
0003e0 24 40 7f bd 85 74 b2 3d bc eb cc bd 36 22 e3 3b
       -0.06231703 0.087136306 -0.100059 0.0069315685
0003f0 9b 39 98 3d 60 9b 26 3e 4b ae cc 3d 0d 5d 92 3d
       0.07432862 0.16270208 0.09994181 0.07146654

decoder.fc1.bias f4 [31]
000000 a5 7a ee 3c 7c 36 17 3e bd df 96 bd ac 0e 98 bc
       0.029111216 0.14766878 -0.073668934 -0.018561684
000010 12 5e a4 3b 6b 5b 27 be b0 35 c2 3d 0d 19 1d bc
       0.005016097 -0.16343467 0.09482896 -0.009588492
000020 e4 f3 1a 3d 81 91 d2 bd 77 0f e6 3d 1b 73 0b 3e
       0.03783025 -0.10281659 0.112334184 0.13618128
000030 cf da f0 bc 53 10 10 3e cf 3f 14 3e 29 c5 34 bc
       -0.029401211 0.14068727 0.14477466 -0.011033335
000040 ea 46 78 bc 9a 89 c6 3d 8d 0b d0 3d 13 48 0e bd
       -0.015153626 0.09694214 0.10158453 -0.034736704
000050 92 9a 21 3e 81 68 33 3d 6f 39 f9 3d 58 6e be bd
       0.1578162 0.043800835 0.12169158 -0.0929839
000060 69 a7 cc 3d a3 1d 1c 3e d2 47 4b 3e 57 08 d9 bc
       0.099928685 0.1524568 0.19851616 -0.026493235
000070 29 2b 29 3e 4b 0f 07 3e c7 19 48 3e
       0.1652037 0.13189428 0.19541083

decoder.fc2.weight f4 [43, 31]
000000 00 42 ae bd 8b 8b ac 3d b7 89 a7 bd db 2a bd bd
       -0.08508682 0.08425053 -0.08180564 -0.0923669
000010 b9 a6 88 3b cc cd 78 3d ce 27 2c bd 17 13 9a bb
       0.0041702655 0.06074314 -0.04203015 -0.0047019827
000020 6e 34 f8 3c 17 85 6e bc 9c 90 f6 bd ed e4 0f 3d
       0.030298438 -0.014558098 -0.12039301 0.03513043
000030 9b 7b 39 3c 80 da 97 bc 6e 47 aa 3c 55 0b d5 3c
       0.011320974 -0.018536806 0.020786013 0.02600638
000040 c1 64 38 3d d2 84 0c 3d b9 d8 7f bd d9 02 b2 3d
       0.04501796 0.034306355 -0.062462542 0.086919494
000050 91 99 26 3d 34 e8 92 3c 23 77 00 3d bd 0e 30 bd
       0.040673796 0.017932989 0.031363618 -0.042982806
000060 48 09 4e 3d e1 b6 c5 3c 99 31 78 bb 9e a6 ee bc
       0.05030182 0.024135055 -0.003787136 -0.029132184
000070 20 bf 1f 3d 12 1f 72 3c e3 0c 24 bd 39 24 f6 bd
       0.03900063 0.014777916 -0.040051352 -0.12018628
000080 63 88 8c 3d c2 3c 86 3d 4e 03 e6 bd 98 d3 db bc
       0.06861951 0.065545574 -0.11231099 -0.026834294
000090 a6 f9 f2 bc 6c 63 1d be 7d 20 cd 3c 0b 7b 99 bd
       -0.029660057 -0.15369958 0.025039906 -0.07494172
0000a0 c8 64 11 3e cb da 95 bd bc ff aa bd 26 db af 3c
       0.14198601 -0.07317122 -0.08349559 0.021466803
0000b0 eb 2d 6b bc d4 d9 48 3d b0 c6 03 3d 1f d3 2e bd
       -0.014354209 0.049035862 0.032171905 -0.04268181
0000c0 72 b1 00 3e 71 93 8a bd ae fe 95 3d 0a be 22 3e
       0.1256769 -0.067664035 0.07323967 0.15892807
0000d0 9f 0e 39 3d da 3d 2c bd 0e 41 d8 bc 29 c7 84 3e
       0.04517996 -0.042051174 -0.026398208 0.25933197
0000e0 03 00 97 3d da bc 41 bb 00 45 2f 3d a2 8e 15 bd
       0.07373049 -0.0029562027 0.042790413 -0.03651298
0000f0 6a 29 9f bd b9 d8 cc bd a9 ff b2 bc fb 02 9e bd
       -0.07771571 -0.10002274 -0.021850424 -0.07715412
000100 12 7f 80 3b 94 04 fa 3d 65 f3 9f bc 37 24 2c bd
       0.003921398 0.122079045 -0.01952524 -0.042026725
000110 60 12 44 bc 19 20 83 bd 1d 65 d3 bd 64 f8 f9 3d
       -0.011967272 -0.064026065 -0.1032202 0.1220558
000120 73 48 02 3e 66 81 3b 3d 0c e5 63 bd df de 50 bd
       0.1272295 0.0457777 -0.055638358 -0.050993796
000130 d9 44 11 bb f3 84 c5 bd 5d 42 94 bd d4 71 0a 3e
       -0.002216628 -0.09644499 -0.0723922 0.13519984
000140 0c b1 ab 3d cf 9f 1d bc 5f 84 af 3c ca 97 02 3e
       0.083833784 -0.009620621 0.021425424 0.12753215
000150 a7 77 8a 3d cf cd 78 3d d4 ec 9a 3d 3c db aa bd
       0.06761103 0.06074315 0.07564703 -0.08342597
000160 08 61 9d bd 5c 58 0c 3c 55 26 ed bc 0b a2 db 3b
       -0.07684523 0.008565988 -0.028948942 0.0067026666
000170 57 82 27 bc 6c 24 c3 3d 0c 5b 0e 3e 7e 10 1f be
       -0.0102239465 0.09528431 0.13901919 -0.15533635
000180 b9 be e5 3d c8 6f 1e bd ac e4 d6 bc 5a d4 3f 3e
       0.11218018 -0.03868082 -0.026232086 0.1873335
000190 f3 46 68 3e 48 d5 1e 3e bf 9d 0c be 55 6a 22 3e
       0.22683315 0.15511048 -0.1373205 0.15860875
0001a0 3f cd 64 bd c6 69 b6 3d 11 d6 5e 3d 27 42 31 be
       -0.0558598 0.089068934 0.05440337 -0.17310391
0001b0 9b 1f cf bd fb 8b 9a 3c b2 35 c0 3d 0a be 5a 3d
       -0.1011345 0.018865576 0.093852416 0.05340389
0001c0 db fa 81 bd ea 9e d7 bd fd 03 a2 bd a2 18 0f be
       -0.06346675 -0.10528357 -0.07910917 -0.1397424
0001d0 99 bd f0 bd 72 4c 55 3e db 53 29 bc 21 c7 be 3a
       -0.11754913 0.20829943 -0.010334934 0.0014555195
0001e0 0d 56 2e 3e 4c 8d 13 be 06 05 0a 3e 38 17 23 3e
       0.17025013 -0.14409369 0.13478479 0.15926826
0001f0 d6 05 05 3e 39 c8 0c bd c8 b9 8e 3c d8 33 05 3d
       0.12990507 -0.034370635 0.017422572 0.032520145
000200 c1 14 04 3e 25 d4 09 be 87 0b cf be 6e a1 4a 3e
       0.12898542 -0.13459833 -0.40438482 0.19788143
000210 5d a8 ba bd b3 17 36 be bd 55 15 be ce 18 56 be
       -0.09114144 -0.17782478 -0.14583488 -0.209079
000220 5b 68 7b bc a6 d1 75 be 1b ac a1 bc a4 93 30 3e
       -0.0153447045 -0.24005756 -0.019735387 0.1724382
000230 ab ec 4d 3e 19 28 9f bb 64 b0 f9 3d 73 2f 6d 3e
       0.20109813 -0.004857075 0.12191847 0.23162632
000240 8a 8a 1e 3e 37 8b 0d 3b bb bf df 3d 7a a9 57 bb
       0.15482536 0.002159787 0.109252416 -0.0032907412
000250 b8 e2 3d 3d ff c2 4f be c3 c6 7d bc 2d ae 68 3c
       0.046358794 -0.20289229 -0.015489283 0.014201683
000260 61 fb 99 3e e1 74 51 3e ae 04 ed 3d 3c 76 a6 3d
       0.300746 0.20454742 0.11573158 0.0812802
000270 7c 6d aa bd eb cd ce 3d bc 45 05 bc 1f 56 ec 3d
       -0.08321664 0.100978695 -0.008134302 0.11539864
000280 dc a0 27 3e 45 3b 5b 3d e9 0f 85 bd fd 36 a9 3c
       0.16369957 0.05352332 -0.06497175 0.020656103
000290 63 81 03 3e 88 2f 01 bc 0a 4f 5c bd 8b 8e 17 be
       0.12842326 -0.0078848675 -0.053786315 -0.1480047
0002a0 0d de 0d 3c c1 15 d1 be 06 ea da bd ca 93 53 be
       0.008658898 -0.4083691 -0.10689168 -0.20661846
0002b0 6e f8 24 3e 7b ae fa 3d 7a bb b6 3c 74 b9 23 3d
       0.16110393 0.12240311 0.022306193 0.039971784
0002c0 2f 7b 21 3d b0 1b 09 be 78 94 a7 3d ca 42 e2 bd
       0.039424118 -0.13389468 0.08182615 -0.11047895
0002d0 be 62 42 be 08 25 e7 3d be 28 8a 3e 2b d9 56 3d
       -0.1898298 0.1128636 0.2698421 0.0524532
0002e0 6c 79 7c 3d b5 e6 51 be 9d a2 80 3d d6 e6 2d 3d
       0.061639234 -0.20498164 0.06281016 0.04245647
0002f0 5f 86 1a be 94 d1 f2 bd bd f7 61 3c 41 b7 e6 3c
       -0.15090321 -0.1185638 0.013791976 0.028163554
000300 6a a3 78 3d d5 0f 81 3b b8 b4 83 3d e6 9c bc bd
       0.06070272 0.003938655 0.06430954 -0.092096135
000310 ff 4b 26 3c fe 86 e0 3c de 3f c9 b9 43 b1 8d 3c
       0.010149955 0.02740812 -0.00038385292 0.017296439
000320 73 a4 73 bc c1 7b 14 3c 77 5a 18 3d 49 ed 35 3e
       -0.014870751 0.009062708 0.03719565 0.17766298
000330 a3 d3 e2 3c 61 66 e0 bc fd c3 8c bd 4d 3d 58 bd
       0.027688807 -0.027392568 -0.06873319 -0.052792836
000340 68 67 ef 3b d4 3e 41 bc f6 8f 03 be 59 31 c6 bb
       0.007306028 -0.011794765 -0.12847885 -0.006048363
000350 84 27 e5 3c 8f b0 90 bc 02 3c c3 3c fc 87 23 3d
       0.027972944 -0.017662315 0.023832325 0.039924607
000360 5e db 1b 3d 6c 0a 8d bc 17 9d 4f 3d 84 8e e2 bd
       0.038051 -0.017216884 0.050686922 -0.11062339
000370 d3 2a 30 be 21 68 38 3d 42 49 b9 3d 43 82 97 3d
       -0.17203836 0.04502118 0.09047176 0.07397892
000380 d8 c8 99 3e 94 a4 57 bd 4c 78 99 38 97 da 25 3e
       0.30036044 -0.05264719 7.3180156e-05 0.16196667
000390 cc ea 94 bd b5 45 eb 3d 64 cb 66 bd 4f 05 c4 3e
       -0.072713464 0.11487905 -0.056346312 0.382853
0003a0 30 0e ba bd 25 77 e3 3b 44 c8 2c 3e 8e 5d e3 bd
       -0.09084737 0.0069416934 0.1687327 -0.111018285
0003b0 47 c1 04 be b5 b6 3a 3e e4 13 b2 3c 00 35 d0 3b
       -0.12964354 0.1823376 0.021738 0.0063539743
0003c0 f3 b2 28 3d 39 3a 2d be c4 41 71 bd b2 9a 39 3d
       0.041186284 -0.16916741 -0.05890061 0.045313545
0003d0 8a 1c 6d 3e 36 1e a1 bc c4 6c a5 3d 7f 15 4d be
       0.23155418 -0.019667726 0.08077386 -0.20027731
0003e0 11 96 36 be 93 26 0d 3d 80 8b c7 bd 96 d6 eb 3d
       -0.17830683 0.034460615 -0.097434044 0.115155384
0003f0 f9 1c 9e 3c c1 31 d6 bd 89 f8 f9 bd 4a 2f 59 3e
       0.019300925 -0.104587086 -0.122056074 0.21209446

decoder.fc2.bias f4 [43]
000000 d6 10 02 3d 67 39 10 3e 95 83 3a bd b6 99 cd bb
       0.031754337 0.14084397 -0.045535643 -0.0062744273
000010 3b fc f8 ba 50 a6 6a 3c 6b 3c 25 bd 93 65 fd bc
       -0.0018996069 0.014321879 -0.040340822 -0.030932223
000020 8d f6 fd 3c 4d 6e c2 bc 71 f3 0b 3e 8e f5 a1 bc
       0.031001354 -0.023734236 0.13667084 -0.01977041
000030 23 82 1e bd da 1f 05 3e 6a 85 b3 bc ad 08 ec bd
       -0.038698327 0.13000432 -0.021914203 -0.11525092
000040 4b 23 27 3d 58 91 a8 3c 88 50 ae 3c 5a e9 4e 3d
       0.040805142 0.020577118 0.021278635 0.05051551
000050 f3 74 04 3e f9 3b 0a 3e 89 20 fe bb 76 0c 10 be
       0.12935238 0.1349944 -0.0077553433 -0.14067253
000060 dd 29 07 3d 29 fb 1d bd 8d 47 b2 3d 6c 3b f6 39
       0.03299891 -0.038569603 0.087050535 0.0004696505
000070 68 c5 b9 3d 24 0c 6f 3d a2 36 11 3e 8b e9 fc 3d
       0.090708554 0.058361188 0.14180997 0.12349232
000080 e9 ac 71 bc cd f6 5a 3d 4b b9 f5 3d 99 84 d2 bd
       -0.014750698 0.053458024 0.119982325 -0.10279197
000090 2a c7 dd bc da 4a 66 bd 5d 00 05 3e b6 e7 8d 3d
       -0.027072508 -0.056223728 0.1298842 0.06928961
0000a0 88 90 04 be 28 b0 ce 3d 00 a2 a9 bd
       -0.1294576 0.10092193 -0.08282852
