heart_model.pth (torch, 51120 bytes, 8 tensors)

encoder.fc1.weight f4 [128, 43]
0.14935888 0.044126462 -0.12077296 0.13822311 0.27034485 -0.054385412 -0.0106030265 0.05872202
0.04443865 0.123774506 -0.002612545 0.17243217 0.08970689 -0.11722242 -0.002539634 0.121875115
0.03812542 -0.08216018 0.07135245 -0.057777975 0.32677007 0.047475506 0.14705694 0.10102614
0.09596082 0.06947473 0.05821604 0.16984323 -0.069811694 -0.08807279 0.067078546 -0.02644379
0.12766194 0.15780781 0.030062757 -0.23808473 -0.07287006 -0.024085846 0.18703337 0.052054327
0.050394394 0.1488096 -0.040439382 0.09961916 -0.14400327 -0.08154003 -0.12186622 -0.1363085
-0.03777232 0.009922855 0.06096632 -0.050175402 0.16278912 0.1573556 0.20401192 -0.15622805
0.070684575 0.03359785 0.022466242 0.032695524 0.06462845 0.17703351 -0.13508004 0.035471186
-0.27977982 -0.088336885 -0.14875655 -0.010538427 0.08396666 0.075848214 -0.11625365 -0.016730597
-0.013941581 -0.11318811 -0.048439328 0.22692616 -0.1753751 0.15285124 0.119131856 -0.018672436
0.24718228 0.044814747 -0.12775958 0.19893079 -0.01219686 0.14851573 -0.24584053 0.23171301
0.05876339 0.17254305 0.0016386742 -0.15551509 0.48865718 -0.062215988 0.38569546 0.11768334
-0.038084704 -0.2277185 0.72108346 0.078373134 0.1844319 -0.07214802 0.38335764 -0.10813047
-0.40975127 0.11621446 -0.1232853 0.25740853 -0.13550389 0.08283826 -0.3766699 0.15548319
-0.13340275 0.2585345 -0.05339065 -0.5446437 0.033895273 -0.0734249 0.08710773 -0.061626054
0.15702778 0.13258424 -0.10181251 -0.2981659 -0.13096373 -0.4361127 -0.23755227 0.21342364
-0.01225254 0.07549873 0.07376557 0.12926751 0.028622642 0.0047124284 -0.1519023 0.06804376
0.063071616 -0.039196897 0.12549171 0.015892863 0.33677697 0.0013615838 0.05634242 0.14122467
-0.058817614 0.15282018 -0.08783878 0.010935538 -0.2119887 0.015439161 0.11601525 -0.07791713
0.20412137 -0.07125458 0.003603537 -0.08791587 0.090022676 -0.036893167 -0.0580758 -0.03760539
0.08550724 -0.17322451 0.15403144 0.01353015 -0.011216135 0.09810234 0.1348135 -0.16615003
-0.02490861 0.015969079 -0.09344427 -0.11425063 0.35529444 -0.047516152 -0.075123645 -0.07033161
-0.007679669 0.18185793 -0.34877247 0.11760744 0.120483175 0.10670566 -0.05145201 0.3428182
-0.0076264916 -0.18055086 0.18330608 0.111693755 -0.24809046 0.108133554 -0.025485069 0.07122821
-0.29674655 0.13487118 0.22019753 0.049429514 -0.02263537 -0.13278735 -0.04262421 0.05803389
0.050093282 0.21498883 -0.087157644 0.04528255 -0.2296701 -0.014443881 0.15529522 -0.16150267
0.00025790406 0.12554559 0.36080703 0.03839415 -0.09429039 0.12385301 0.0023322017 0.116136566
0.05691948 0.010869845 0.09765965 -0.21097815 -0.12848742 0.09163948 -0.019661942 0.026570095
0.097962976 -0.08270021 -0.122612946 0.010999269 -0.08280271 -0.10102753 -0.2034592 -0.15596524
-0.08060442 0.03378869 0.18689337 0.072993375 -0.2079865 0.11888875 0.15188475 0.046499714
-0.11403577 -0.009329117 0.11796213 -0.055955447 -0.01739419 0.13854553 0.0005133192 -0.25609154
0.046112355 0.059656695 -0.2743915 -0.070786715 0.083211415 -0.0787588 0.13407086 0.21143064
00000000: 89f1 183e f3bd 343d d057 f7bd 5c8a 0d3e
00000010: a46a 8a3e 3dc3 5ebd 51b8 2dbc 8086 703d
00000020: 4d05 363d 7d7d fd3d 3b37 2bbb 0f92 303e
00000030: 3fb8 b73d 4f12 f0bd fd6f 26bb a999 f93d
00000040: 6729 1c3d 9943 a8bd 3c21 923d 99a8 6cbd
00000050: 684e a73e ad75 423d 1896 163e cbe6 ce3d
00000060: 1b87 c43d c448 8e3d f173 6e3d 62eb 2d3e
00000070: 6ff9 8ebd 825f b4bd 7a60 893d a6a0 d8bc
00000080: d0b9 023e 5f98 213e 2c46 f63c 7ccc 73be
00000090: e63c 95bd ae4f c5bc ad85 3f3e eb36 553d
000000a0: 5a6a 4e3d 8b61 183e c4a3 25bd 2105 cc3d
000000b0: 9875 13be 76fe a6bd ff94 f9bd 7594 0bbe
000000c0: 26b7 1abd 7893 223c d2b7 793d b984 4dbd
000000d0: 31b2 263e d421 213e 80e8 503e 3ffa 1fbe
000000e0: 13c3 903d e69d 093d 200b b83c beeb 053d
000000f0: ec5b 843d 4648 353e 6c52 0abe 3c4a 113d
00000100: 4d3f 8fbe f8e9 b4bd a353 18be 5ea9 2cbc
00000110: b6f6 ab3d 4f56 9b3d 6516 eebd 9b0e 89bc
00000120: 3b6b 64bc 2bcf e7bd 5168 46bd 555f 683e
00000130: 8895 33be 0985 1c3e 67fb f33d f0f6 98bc
00000140: 5a1d 7d3e ab8f 373d 68d3 02be 83b4 4b3e
00000150: 57d5 47bc 8214 183e 9fbd 7bbe 2d46 6d3e
00000160: e1b1 703d 20af 303e c8c8 d63a 593f 1fbe
00000170: 4631 fa3e 31d6 7ebd e079 c53e f703 f13d
00000180: b5fe 1bbd 0a2f 69be ed98 383f 1882 a03d
00000190: b7db 3c3e 57c2 93bd 7447 c43e 8273 ddbd
000001a0: ebca d1be d901 ee3d 017d fcbd 0dcb 833e
000001b0: 88c1 0abe 1ba7 a93d e1da c0be fc36 1f3e
000001c0: bb9a 08be a25e 843e 27b0 5abd c56d 0bbf
000001d0: c5d5 0a3d cb5f 96bd 8a65 b23d 9a6b 7cbd
000001e0: e4cb 203e 2ac4 073e 1483 d0bd 33a9 98be
000001f0: 5b1b 06be 2a4a dfbe e740 73be ba8b 5a3e
00000200: e1be 48bc 149f 9a3d 6712 973d b45e 043e
00000210: 087a ea3c b76a 9a3b 478c 1bbe 875a 8b3d
00000220: b12b 813d ed8c 20bd e680 003e c031 823c
00000230: 086e ac3e 2c77 b23a 4fc7 663d 339d 103e
00000240: bdea 70bd e57c 1c3e d1e4 b3bd f92a 333c
00000250: 9113 59be 89f4 7c3c 6799 ed3d 0493 9fbd
00000260: 3105 513e eced 91bd 5229 6c3b 3c0d b4bd
00000270: cf5d b83d 4a1d 17bd e4e0 6dbd 1c08 1abd
00000280: 6b1e af3d c461 31be 6bba 1d3e 90ad 5d3c
00000290: e1c3 37bc e1e9 c83d 8d0c 0a3e 3c23 2abe
000002a0: 240d ccbc 96d1 823c b65f bfbd 3cfc e9bd
000002b0: 27e9 b53e 4ca0 42bd 6dda 99bd 050a 90bd
000002c0: bca5 fbbb f738 3a3e 4e92 b2be 2bdc f03d
000002d0: e2bf f63d 7f88 da3d 58bf 52bd de85 af3e
000002e0: a6e7 f9bb 53e2 38be 97b4 3b3e b2bf e43d
000002f0: 6d0b 7ebe 2075 dd3d 10c6 d0bc 19e0 913d
00000300: 2aef 97be ac1b 0a3e 767b 613e 9a76 4a3d
00000310: d06d b9bc 68f9 07be b996 2ebd f2b4 6d3d
00000320: 9d2e 4d3d 0826 5c3e b57f b2bd 327a 393d
00000330: a42e 6bbe 07a6 6cbc b605 1f3e f560 25be
00000340: 4c37 8739 068f 003e b3bb b83e 2f43 1d3d
00000350: 521b c1bd a6a6 fd3d dad7 183b 02d9 ed3d
00000360: 6724 693d 6f17 323c c801 c83d a80a 58be
00000370: 3592 03be 7bad bb3d 1512 a1bc 87a9 d93c
00000380: d0a0 c83d ba5e a9bd 7f1c fbbd 4736 343c
00000390: 7894 a9bd 86e7 cebd 9c57 50be 5ab5 1fbe
000003a0: ee13 a5bd 0266 0a3d fa60 3f3e 8d7d 953d
000003b0: 6afa 54be f27b f33d ad87 1b3e 7c76 3e3d
000003c0: 968b e9bd 27d9 18bc 2196 f13d 8a31 65bd
000003d0: 437e 8ebc e1de 0d3e 4590 063a 6e1e 83be
000003e0: 4fe0 3c3d 945a 743d 0b7d 8cbe a0f8 90bd
000003f0: bf6a aa3d 4b4c a1bd df49 093e 4681 583e

encoder.fc1.bias f4 [128]
0.08460128 0.023868622 0.23287301 0.07230711 0.0016735033 0.0628315 0.09281643 0.11750428
0.10441526 0.116982594 -0.0029354393 -0.08213019 0.078613564 -0.099699676 0.21028502 0.19105874
0.12573472 0.12705041 0.028853336 0.074735284 -0.0916879 -0.10069988 0.027604297 0.12223339
0.16293485 0.16056655 0.2492547 0.16690673 0.11664097 -0.1274106 0.12668957 0.1042655
0.23056048 0.085590586 -0.015538564 0.051050704 -0.13537732 -0.019616589 0.06583713 0.13080977
-0.16147175 0.13255258 0.17500326 -0.13452864 0.14465721 0.11815842 0.07018914 -0.13031499
0.06348671 -0.043681968 0.022584151 0.111352056 0.20527774 0.06222609 -0.11312086 0.20527421
0.25691152 -0.06034502 0.036910683 0.092784114 0.0841312 0.17919546 -0.14533131 0.112096
0.066769 -0.11730287 -0.024610406 0.10062363 0.10558757 0.065998085 0.09985852 0.14964955
0.04994288 -0.052811548 0.052141786 0.13946198 0.12556598 0.08036695 0.16912875 -0.08503615
0.1171275 -0.0439578 0.16044399 -0.10164237 -0.02545037 0.07091505 0.04884062 0.0589932
-0.0620341 0.029676402 -0.07244893 -0.0065277857 0.056175996 -0.0026567697 0.03523585 -0.088185206
0.01588628 0.11858679 0.16084842 0.061945204 0.08400667 0.12603508 0.114162534 0.12797761
0.17508969 -0.031824715 0.14325237 0.05200247 0.3883036 0.08997898 0.10793261 0.15660787
-0.14849795 0.0054798475 -0.024165908 0.116732545 -0.05024414 -0.025562339 0.010751403 0.026655793
-0.013626183 -0.034953218 0.3099109 0.0870995 0.0051591974 -0.0415769 0.17494333 -0.06732026
00000000: 7043 ad3d 2188 c33c 4376 6e3e c015 943d
00000010: 7459 db3a cdad 803d 8a16 be3d 15a6 f03d
00000020: abd7 d53d 9294 ef3d 8060 40bb e033 a8bd
00000030: 2600 a13d 582f ccbd f554 573e e7a4 433e
00000040: 9ac0 003e 8119 023e d55d ec3c d00e 993d
00000050: dec6 bbbd bd3b cebd 6822 e23c 8055 fa3d
00000060: 65d8 263e 8f6b 243e a03c 7f3e 99e9 2a3e
00000070: 76e1 ee3d ed77 02be e9ba 013e 2789 d53d
00000080: 0c18 6c3e 1e4a af3d 7695 7ebc 8b1a 513d
00000090: 5aa0 0abe f8b2 a0bc 9ed5 863d fff2 053e
000000a0: da58 25be ddbb 073e 0e34 333e e0c1 09be
000000b0: 0521 143e 0bfd f13d 53bf 8f3d 4b71 05be
000000c0: 5205 823d ddeb 32bd 6602 b93c 8c0c e43d
000000d0: 5434 523e c9e0 7e3d e9ab e7bd 6733 523e
000000e0: e889 833e 572c 77bd a82f 173d 9905 be3d
000000f0: fb4c ac3d 047f 373e bbd1 14be 9692 e53d
00000100: 2fbe 883d 7d3c f0bd c39b c9bc c313 ce3d
00000110: 4c3e d83d 012a 873d a082 cc3d bb3d 193e
00000120: e890 4c3d ec50 58bd a092 553d 1fcf 0e3e
00000130: 5e94 003e 6d97 a43d 1630 2d3e 6f27 aebd
00000140: 8be0 ef3d 180d 34bd 6e4b 243e e029 d0bd
00000150: 4b7d d0bc e93b 913d 1a0d 483d dba2 713d
00000160: 7817 7ebd ed1b f33c 1b60 94bd 09e7 d5bb
00000170: cd18 663d 331d 2ebb 7753 103d 729a b4bd
00000180: f223 823c a2dd f23d 73b5 243e 41ba 7d3d
00000190: b00b ac3d 570f 013e 0cce e93d 900c 033e
000001a0: b64a 333e a25a 02bd c0b0 123e 8b00 553d
000001b0: bbcf c63e e646 b83d c60b dd3d d05d 203e
000001c0: d90f 18be 4b90 b33b 95f7 c5bc 7911 ef3d
000001d0: cdcc 4dbd 1c68 d1bc a726 303c 405d da3c
000001e0: 5b40 5fbc 1b2b 0fbd a4ac 9e3e 3961 b23d
000001f0: 7c0e a93b 8a4c 2abd 5824 333e 34df 89bd

encoder.fc2.weight f4 [31, 128]
0.027354356 0.05380187 -0.16859646 -0.028843166 0.04330576 -0.13162516 0.039046053 -0.16927399
-0.04985551 -0.1303382 -0.00840249 0.010851051 -0.0044820877 -0.08653213 -0.29009968 0.030022563
0.085034974 -0.095137954 0.040836472 0.09626492 -0.048586067 -0.043423954 -0.008197702 -0.13043301
-0.1307003 0.044073746 -0.20063348 -0.11466805 -0.17108372 -0.029147001 -0.060022686 -0.004353485
0.17131022 -0.015055897 -0.029980958 0.020975443 -0.0776241 -0.112159215 -0.09780024 -0.3257623
0.024283944 -0.07697091 -0.042110886 -0.054902587 0.13373406 -0.0658402 0.0444769 -0.0026721458
0.046304833 -0.09091667 -0.038396433 -0.014359646 -0.23351778 0.049181778 -0.12605111 0.42926878
-0.1050691 -0.07918045 -0.00613383 0.0012253248 -0.06215984 -0.12561597 -0.057838876 0.00987331
-0.095693216 -0.13275501 -0.00035706 -0.07150047 -0.08263187 -0.06500051 -0.039559096 -0.09756533
-0.08257625 -0.09686152 -0.11689576 0.067408316 -0.23975565 0.030875549 -0.18787391 0.041285545
-0.088027336 -0.12857813 0.022931645 0.021598984 -0.05142488 -0.10888526 -0.29996717 -0.019492285
-0.11940039 -0.00043456562 -0.12085322 -0.06689911 -0.11247888 -0.067119405 0.04430285 0.025372393
-0.07767468 -0.0794369 -0.044823553 0.027647542 -0.027689641 0.14912547 -0.43907827 -0.07920926
-0.07526186 0.043780416 0.03221311 0.0062756618 0.16619419 0.08111833 -0.09615836 0.018005244
-0.06540673 -0.08233722 0.08566036 -0.21981758 -0.13604663 -0.042839903 0.03807456 -0.07132318
0.076561905 -0.061627954 0.2430053 -0.11086413 0.082136765 -0.032431494 -0.08565807 -0.039278407
0.10161075 0.048526794 -0.11315891 -0.010198687 0.018965745 0.019180167 0.08019986 -0.31428683
0.08470498 0.079032436 -0.06928305 0.07838374 -0.04301661 -0.069647685 -0.22552846 0.28023833
-0.17047322 -0.12990043 0.07602033 0.17138752 0.23866454 0.08085652 0.04288042 -0.2286274
-0.14837293 0.09408973 -0.10703832 0.06167062 -0.28045595 -0.043371562 0.21446043 0.010060526
0.33555603 -0.07410582 0.020129899 0.027543113 -0.022746231 0.106157534 0.10078377 0.27421978
-0.050273404 0.09250597 -0.19833194 0.11583777 0.14792645 0.0071141915 0.19567147 0.027076902
-0.008878728 -0.11403518 0.07943579 0.0758494 0.289231 0.30713442 0.12751107 0.35369018
0.21399218 0.10505196 -0.026783258 -0.06033805 -0.0075784116 -0.10561262 -0.06293479 0.093009084
-0.06432312 0.019885708 -0.046436343 0.071337424 0.097933486 0.012518257 -0.024174843 0.04472639
-0.02382279 0.060865995 0.14066422 -0.121010505 0.3818489 -0.40770435 0.026250089 0.06993018
0.0921818 -0.10049567 -0.13663755 -0.04878045 0.10988759 0.07442753 0.07025299 0.031846453
0.10451565 -0.008405609 0.049233075 -0.043359708 0.14582755 -0.026286757 0.025432145 0.13571265
-0.028945655 -0.045175947 0.057591613 0.15212297 0.09340192 -0.14604403 0.0026685062 -0.043473274
0.03258339 -0.0566197 0.034344096 0.053156808 0.1817438 0.05976087 -0.035508152 -0.3764609
0.07967738 -0.009596654 -0.077451006 -0.17359015 0.095663 0.12581499 0.052560072 -0.04097427
0.13700627 -0.06008524 0.24811488 -0.0353377 0.06389605 -0.0750441 -0.0014420281 0.048613787
00000000: 3e16 e03c 5a5f 5c3d 8da4 2cbe 8148 ecbc
00000010: 6161 313d bfc8 06be c1ee 1f3d 2956 2dbe
00000020: 4b35 4cbd 6177 05be 99aa 09bc 9bc8 313c
00000030: 7ade 92bb c237 b1bd f287 94be e1f1 f53c
00000040: d126 ae3d b0d7 c2bd 2544 273d 8b26 c53d
00000050: 2f02 47bd 51dd 31bd a74f 06bc 3b90 05be
00000060: 4dd6 05be ac86 343d dd72 4dbe 15d7 eabd
00000070: 9230 2fbe b1c5 eebc 59da 75bd aea7 8ebb
00000080: f26b 2f3e 02ad 76bc a09a f5bc b1d4 ab3c
00000090: 62f9 9ebd bbb3 e5bd 7e4b c8bd 51ca a6be
000000a0: 1fef c63c eda2 9dbd 777c 2cbd 89e1 60bd
000000b0: 95f1 083e 3ad7 86bd 692d 363d 2b1f 2fbb
000000c0: 23aa 3d3d 8532 babd 9445 1dbd b844 6bbc
000000d0: 491f 6fbe d572 493d 8b13 01be 1ec9 db3e
000000e0: 782e d7bd 5c29 a2bd 4cfe c8bb 149b a03a
000000f0: 519b 7ebd 79a1 00be 75e8 6cbd aac3 213c
00000100: cefa c3bd eef0 07be c833 bbb9 d76e 92bd
00000110: e63a a9bd fd1e 85bd b808 22bd 55d0 c7bd
00000120: bd1d a9bd 555f c6bd 0b67 efbd 5f0d 8a3d
00000130: 8182 75be b8ee fc3c 0562 40be 081b 293d
00000140: ad47 b4bd fca9 03be 25db bb3c 5af0 b03c
00000150: e5a2 52bd 3cff debd 4c95 99be 49ae 9fbc
00000160: 3188 f4bd 69d6 e3b9 e581 f7bd 6702 89bd
00000170: 545b e6bd e675 89bd e876 353d c4d9 cf3c
00000180: e713 9fbd d0af a2bd e798 37bd 197d e23c
00000190: 63d5 e2bc 59b4 183e dece e0be 7738 a2bd
000001a0: e422 9abd 1853 333d e5f1 033d 11a4 cd3b
000001b0: cf2e 2a3e 5e21 a63d adee c4bd bc7f 933c
000001c0: f7f3 85bd 6ba0 a8bd b36e af3d dc17 61be
000001d0: cf4f 0bbe e578 2fbd 12f4 1b3d e311 92bd
000001e0: 7dcc 9c3d 986d 7cbd 62d6 783e bc0c e3bd
000001f0: 5237 a83d e3d6 04bd 806d afbd 65e2 20bd
00000200: 4c19 d03d 08c4 463d dcbf e7bd 6518 27bc
00000210: 0d5e 9b3c ba1f 9d3c d33f a43d 34ea a0be
00000220: ce79 ad3d c2db a13d 46e4 8dbd a787 a03d
00000230: 2f32 30bd 72a3 8ebd eff0 66be 667b 8f3e
00000240: 8890 2ebe 9e04 05be 8cb0 9b3d 3680 2f3e
00000250: 7a64 743e 1a98 a53d 61a3 2f3d 4d1d 6abe
00000260: 13ef 17be 1eb2 c03d e836 dbbd 559a 7c3d
00000270: ec97 8fbe 61a6 31bd 849b 5b3e e8d4 243c
00000280: 00ce ab3e cbc4 97bd 75e7 a43c 18a2 e13c
00000290: 4e56 babc 1f69 d93d b967 ce3d 8966 8c3e
000002a0: 7ceb 4dbd c573 bd3d 8717 4bbe 5a3c ed3d
000002b0: 087a 173e 2a1e e93b 1a5e 483e 61d0 dd3c
000002c0: 1678 11bc 478b e9bd 3baf a23d ee56 9b3d
000002d0: 1616 943e b940 9d3e 4392 023e e116 b53e
000002e0: c420 5b3e 7b25 d73d 9068 dbbc 0825 77bd
000002f0: 5354 f8bb 6e4b d8bd f5e3 80bd 8c7b be3d
00000300: d7bb 83bd 5ae7 a23c 0934 3ebd 5b19 923d
00000310: 5a91 c83d 6019 4d3c 520a c6bc 0533 373d
00000320: 0328 c3bc 9f4e 793d 480a 103e 5bd4 f7bd
00000330: b381 c33e a0be d0be 6d0a d73c 8e37 8f3d
00000340: d0c9 bc3d add0 cdbd b7ea 0bbe 02ce 47bd
00000350: bf0c e13d 766d 983d cde0 8f3d 6d71 023d
00000360: 4d0c d63d aeb7 09bc 9fa8 493d f399 31bd
00000370: d153 153e 5357 d7bc 1357 d03c 42f8 0a3e
00000380: 701f edbc 6a0a 39bd 2fe5 6b3d 20c6 1b3e
00000390: 8149 bf3d 918c 15be 1be2 2e3b 0811 32bd
000003a0: 2976 053d 0fea 67bd 65ac 0c3d f4ba 593d
000003b0: 0c1b 3a3e d0c7 743d ff70 11bd 7cbf c0be
000003c0: e52d a33d 493b 1dbc a29e 9ebd 9ec1 31be
000003d0: f7ea c33d a5d5 003e 3b49 573d a3d4 27bd
000003e0: 5f4b 0c3e f11b 76bd d411 7e3e 44be 10bd
000003f0: efdb 823d b9b0 99bd 6f02 bdba 401f 473d

encoder.fc2.bias f4 [31]
-0.08286792 0.10870348 -0.09803507 -0.06567262 0.07701115 0.055930857 0.045956664 -0.05350233
0.019257711 0.063366145 0.034339935 -0.029291183 -0.020098358 0.09100729 -0.03442922 -0.060705833
-0.04107384 -0.0047376254 -0.050539255 -0.060520057 -0.04157653 0.11382824 0.01826436 -0.043051075
-0.061863177 -0.09992435 0.0024730382 -0.061141856 0.058097433 0.042035934 -0.056151785
00000000: a8b6 a9bd ee9f de3d 9cc6 c8bd 5e7f 86bd
00000010: 06b8 9d3d c117 653d 0e3d 3c3d 4225 5bbd
00000020: 59c2 9d3c 1cc6 813d 08a8 0c3d 10f4 efbc
00000030: 50a5 a4bc 0862 ba3d a705 0dbd aea6 78bd
00000040: 0b3d 28bd 153e 9bbb 4002 4fbd e1e3 77bd
00000050: 274c 2abd c81e e93d 249f 953c 5356 30bd
00000060: 3e64 7dbd 23a5 ccbd b212 223b e26f 7abd
00000070: 93f7 6d3d df2d 2c3d 6aff 65bd

decoder.fc1.weight f4 [31, 31]
-0.066622965 -0.106210545 -0.09256028 0.05132765 -0.022036925 0.14177635 0.066258155 -0.12589279
0.1575195 0.18546923 -0.0006034767 -0.11495866 0.22508708 -0.1256424 -0.18787646 0.023978041
-0.09311313 0.042537834 -0.22245821 0.021695547 -0.022729069 0.19822787 0.047556236 0.08501859
-0.11646346 0.061154746 0.052376635 -0.046962228 -0.011728008 0.13719815 -0.15046135 -0.08591756
-0.056678653 0.037876423 -0.06793988 0.16426 -0.19265096 0.13758759 -0.056894824 0.048933227
0.008877685 0.17521052 0.10958085 0.11340123 0.19044897 -0.030482529 -0.07079686 0.06607584
0.09965145 -0.06563537 0.0028080933 0.0982855 0.04847276 0.07486074 -0.022655172 0.04715026
-0.15037163 0.097435325 0.2108504 -0.01971943 0.011613601 -0.1505735 -0.094678886 0.12978773
0.02124649 0.093877114 0.12737629 0.34291577 0.28856796 -0.1393232 0.13438287 -0.14574376
0.035211362 -0.18241854 -0.021842266 0.1006611 0.06449384 0.07474876 0.16940518 0.078544885
-0.010748508 -0.08088852 -0.12643825 0.1132741 0.16229264 -0.08143627 0.10829155 -0.14538911
-0.027473494 -0.13355412 0.21517822 -0.16875964 -0.05825919 0.06788339 -0.13951863 0.14174978
-0.01221058 -0.17337203 0.1363646 -0.07239146 0.10916448 0.03368074 -0.040569443 -0.018255062
-0.09629349 -0.08535618 0.14708963 0.14402819 -0.08636557 -0.09270268 -0.1288548 -0.15968676
0.03888449 -0.19015506 -0.037752666 0.16095993 0.10538913 -0.015434407 0.14036375 -0.08720861
0.07456868 -0.0791199 -0.088592805 -0.11189679 0.08252218 0.19432428 -0.15621124 -0.0067593614
-0.086027674 -0.03594197 -0.053117454 -0.15810287 -0.17675857 0.19798157 0.15336111 -0.14808492
0.19579229 0.037997015 -0.107382655 -0.013893531 0.05695037 -0.08666909 0.08889145 -0.04807674
0.19669 0.15117808 -0.068302445 0.004050519 0.03065297 -0.11351063 0.23824933 0.13853921
0.22007813 0.20566982 -0.078106456 0.12743932 0.15760939 0.17271575 -0.12172704 -0.122515574
0.001199879 -0.13121864 0.10241627 0.0648963 -0.11761148 0.04901245 0.10055394 -0.087698095
0.024288608 0.14057429 0.14752544 -0.012141714 0.15982676 0.033465672 -0.090069875 0.054314185
0.14974251 0.06589162 -0.022414494 -0.034206092 -0.0029915113 -0.13233045 -0.028513614 -0.12568453
0.107141934 -0.0051005622 0.14823718 0.09672368 -0.046905145 0.046589542 -0.0044442164 -0.12921382
0.1871618 0.15198216 0.02965361 -0.17206074 0.15818001 0.14925016 -0.045618635 -0.029908514
0.023106437 0.1385177 0.15780935 0.07342218 0.033565044 0.00076304673 -0.061052125 -0.0029519058
-0.1360946 -0.109011315 0.039413646 0.13448274 -0.022649886 -0.18986529 0.09083207 -0.03893189
0.12938267 -0.20995247 -0.09828513 -0.11208179 0.09706796 0.15720908 -0.1356936 0.12881401
-0.05246968 -0.008863226 0.018215025 0.11190623 -0.1807358 0.061788335 -0.14193186 0.20729966
0.028142842 0.22853227 -0.009618536 0.037791517 0.07346357 -0.06060835 -0.086546466 0.0906776
0.18084674 -0.069952436 -0.0889896 0.073795944 -0.08078906 0.06413468 0.059367973 0.012154392
-0.21021701 0.06457306 0.022071289 0.08291904 0.14978382 -0.10554751 0.15824164 0.15092988
00000000: 9f71 88bd ea84 d9bd 3e90 bdbd f13c 523d
00000010: c886 b4bc d22d 113e 5bb2 873d 0aea 00be
00000020: cb4c 213e a5eb 3d3e a332 1eba 726f ebbd
00000030: 3a7d 663e 67a8 00be b062 40be 996d c43c
00000040: 19b2 bebd 273c 2e3d 16cc 63be dcba b13c
00000050: 5032 babc 3ffc 4a3e 54ca 423d 3a1e ae3d
00000060: 6584 eebd 667d 7a3d e288 563d 775b 40bd
00000070: d526 40bc ac7d 0c3e 8a12 1abe 8cf5 afbd
00000080: e027 68bd 4f24 1b3d 1024 8bbd c633 283e
00000090: 4b46 45be c3e3 0c3e 8c0a 69bd 356e 483d
000000a0: b673 113c 636a 333e ed6b e03d e73e e83d
000000b0: 0e05 433e 7fb6 f9bc f2fd 90bd c552 873d
000000c0: 0f16 cc3d d66b 86bd fd07 383b e949 c93d
000000d0: 5f8b 463d 9650 993d 5797 b9bc a220 413d
000000e0: 05fb 19be 2c8c c73d 2be9 573e a48a a1bc
000000f0: f946 3e3c f12f 1abe 01e7 c1bd 13e7 043e
00000100: 1e0d ae3c a542 c03d ee6e 023e a892 af3e
00000110: 2ebf 933e beaa 0ebe aa9b 093e da3d 15be
00000120: ca39 103d edcb 3abe 8dee b2bc 6827 ce3d
00000130: 5915 843d e115 993d 8d78 2d3e 24dc a03d
00000140: 831a 30bc e1a8 a5bd 0779 01be 40fc e73d
00000150: 0b30 263e 0fc8 a6bd f6c7 dd3d e2e0 14be
00000160: 1810 e1bc 69c2 08be ae57 5c3e 54cf 2cbe
00000170: 30a1 6ebd 7206 8b3d f9dd 0ebe db26 113e
00000180: e20e 48bc 7088 31be 29a3 0b3e f941 94bd
00000190: a091 df3d d1f4 093d 252c 26bd a48b 95bc
000001a0: 8535 c5bd 39cf aebd aa9e 163e 207c 133e
000001b0: 6fe0 b0bd e7da bdbd 83f2 03be ed84 23be
000001c0: 5845 1f3d 02b8 42be 8aa2 1abd aed2 243e
000001d0: 42d6 d73d 98e0 7cbc 84bb 0f3e 6d9a b2bd
000001e0: 77b7 983d 9d09 a2bd 2570 b5bd 252a e5bd
000001f0: 6401 a93d f2fc 463e d7f5 1fbe a27d ddbb
00000200: 472f b0bd e337 13bd b091 59bd b8e5 21be
00000210: 3300 35be aebb 4a3e b20a 1d3e 93a3 17be
00000220: c67d 483e c2a2 1b3d 70eb dbbd b1a1 63bc
00000230: cb44 693d 907f b1bd b80c b63d 1eec 44bd
00000240: 1a69 493e 6dce 1a3e 27e2 8bbd 37ba 843b
00000250: f01b fb3c 4378 e8bd a2f7 733e 39dd 0d3e
00000260: 295c 613e 1c9b 523e 47f6 9fbd 747f 023e
00000270: 5b64 213e 66dc 303e 074c f9bd 72e9 fabd
00000280: 4245 9d3a 2e5e 06be 9fbf d13d 5ae8 843d
00000290: 4ade f0bd 47c1 483d 39ef cd3d 0f9b b3bd
000002a0: e7f8 c63c b5f2 0f3e e910 173e 0aee 46bc
000002b0: a0a9 233e 4d13 093d 8e76 b8bd 8d78 5e3d
000002c0: 1a56 193e 30f2 863d 9a9e b7bc b01b 0cbd
000002d0: 3b0d 44bb a281 07be 6295 e9bc 72b3 00be
000002e0: 3b6d db3d 9e22 a7bb 7dcb 173e 1117 c63d
000002f0: 9c1f 40bd add4 3e3d caa0 91bb a150 04be
00000300: 58a7 3f3e 36a1 1b3e 21ec f23c b130 30be
00000310: f1f9 213e 09d5 183e 9bda 3abd b302 f5bc
00000320: b649 bd3c 95d7 0d3e c698 213e 5e5e 963d
00000330: 807b 093d 3307 483a cb11 7abd c374 41bb
00000340: 625c 0bbe 5341 dfbd 3470 213d d8b5 093e
00000350: 418c b9bc 0c6c 42be 2a06 ba3d 0c77 1fbd
00000360: e47c 043e c8fd 56be b749 c9bd 238b e5bd
00000370: 91cb c63d 6bfb 203e 43f3 0abe d2e7 033e
00000380: 72ea 56bd 1037 11bc ad37 953c 182f e53d
00000390: ce12 39be c415 7d3d 9656 11be 5d46 543e
000003a0: d18b e63c 5d04 6a3e 1097 1dbc 47cb 1a3d
000003b0: 1174 963d 7640 78bd 463f b1bd 2db5 b93d
000003c0: e32f 393e 3943 8fbd 2e40 b6bd 5422 973d
000003d0: bc74 a5bd 0b59 833d d52b 733d 3723 473c
000003e0: 2143 57be e13e 843d d9ce b43c 75d1 a93d
000003f0: ee60 193e 4b29 d8bd 190a 223e 5d8d 1a3e

decoder.fc1.bias f4 [31]
-0.122005604 0.009482218 -0.04913651 -0.066588305 -0.14037128 -0.10975802 0.047418557 0.011311942
0.1881131 0.10770756 -0.116070986 -0.023683311 0.14291432 -0.08236197 0.077075586 0.117256545
0.032003853 -0.061246872 0.09475351 -0.101437345 0.02649921 0.11077698 0.09569417 0.13952069
-0.18051487 -0.03368695 -0.15532646 0.10281385 0.11105623 0.12933561 0.15844034
00000000: 13de f9bd 4e5b 1b3c 5d43 49bd 735f 88bd
00000010: 7dbd 0fbe d0c8 e0bd f639 423d b955 393c
00000020: b8a0 403e c895 dc3d a0b6 edbd 8103 c2bc
00000030: 2258 123e 64ad a8bd ced9 9d3d 3324 f03d
00000040: 7916 033d 00de 7abd 210e c23d 62be cfbd
00000050: df14 d93c 0bdf e23d 4efb c33d 83de 0e3e
00000060: e4d8 38be 54fb 09bd e60d 1fbe 1190 d23d
00000070: 7371 e33d 8e70 043e 2f3e 223e

decoder.fc2.weight f4 [43, 31]
0.0896938 -0.045617808 -0.023557212 0.019487241 -0.043034602 -0.15935187 -0.135779 0.046059072
0.0857788 -0.03318126 -0.05146738 0.020013332 -0.017762931 -0.009538931 -0.07415721 0.06812937
0.011737968 0.062809885 -0.03779683 -0.1422875 -0.041292276 -0.013860492 -0.044452984 0.09008802
0.041534405 -0.022101726 -0.0030044988 -0.01223063 -0.07362487 0.0066558104 0.025732126 0.022561219
0.017164214 -0.002828877 0.0024379562 0.06283753 -0.028202342 0.15508938 0.023775266 -0.039239727
-0.00872239 -0.044683002 0.01353573 -0.1052791 -0.036155127 0.041374084 -0.07625501 -0.0224731
-0.0066596847 -0.0028386638 0.08275368 -0.003021991 0.046040725 0.026354467 0.0263899 -0.10441087
0.0064184577 -0.038836118 -0.07548725 0.013826283 -0.0035892427 0.04980694 0.09242126 -0.032789018
-0.0002287359 -0.02261985 -0.011040408 0.022777228 0.017041298 0.030329453 0.09681407 -0.048922602
-0.07864697 0.014859546 -0.016083466 0.011395863 -0.07350703 0.03961695 -0.019079344 0.05721391
-0.01835543 0.11936983 -0.034037624 -0.03732064 -0.020778224 0.1172835 0.12940156 -0.0017915856
0.006167375 -0.01904941 -0.052992143 0.010639743 0.015024404 -0.026882576 -0.05756103 -0.032145306
-0.029667504 0.12368326 -0.0046891286 0.17722167 0.03416402 0.037233155 -0.12741266 0.06259355
-0.007996163 -0.028205412 0.10879385 -0.13348873 -0.04535316 -0.13851951 -0.005205482 0.14341754
0.044854082 0.20286442 -0.1232409 0.1303959 0.042884547 -0.08446619 0.20937434 0.11423736
0.4520568 -0.2908664 -0.07525584 -0.06905297 -0.24972318 -0.044422645 0.21740696 -0.06360355
0.1904209 0.13179985 -0.12253261 -0.037064128 0.20957652 -0.20658714 0.19843648 -0.41655436
-0.062248968 0.04698149 -0.052442584 0.021971071 0.26789278 0.039732113 -0.09410549 -0.007047603
0.07376811 -0.05667331 -0.31075263 0.002039391 -0.046059974 -0.28101355 -0.1984081 0.060769767
0.2006695 0.2012096 -0.17024621 0.13088723 -0.25865427 0.05467131 -0.1596711 -0.026740087
0.049949676 0.17073943 -0.16916208 0.07850433 -0.24960767 -0.16983545 -0.03432527 -0.07763621
0.09534636 0.106276356 0.036082976 0.11703517 -0.12381763 0.07600922 -0.09222876 0.049140655
0.08252442 -0.027330566 -0.13262373 -0.10447656 -0.18834189 0.19355893 0.13299683 0.10981815
0.06843026 0.06005269 -0.061486118 -0.041211296 -0.028432982 -0.0034444376 0.017017521 -0.0507028
-0.029208003 0.07655821 -0.10776737 0.09933791 0.16088058 0.028929632 -0.047452085 0.0031551851
0.023980672 -0.035223737 -0.01735443 -0.03381563 0.041779507 -0.14441563 0.03422966 0.093777224
-0.02846122 -0.1132392 0.12892649 -0.007938851 -0.05452244 0.03054588 -0.013901642 -0.0029346216
0.05287945 0.16832046 0.094372906 -0.080258705 -0.1027074 -0.1820134 -0.006029627 0.12575209
-0.0776465 0.012351335 0.13026568 -0.040424976 -0.09627969 0.16477612 0.08993726 -0.11708805
-0.10152459 -0.2215372 -0.0509698 0.18129468 0.06350384 0.18346366 0.011211204 -0.09444163
0.13970923 -0.16859585 -0.009900589 -0.16466995 0.3074738 0.1832638 0.1738652 0.008942935
0.022038778 -0.0014090107 0.06086937 -0.029763857 0.17081246 0.16956908 -0.00022636498 0.2102015
00000000: 62b1 b73d bdd9 3abd 0efb c0bc b5a3 9f3c
00000010: 0d45 30bd 232d 23be a609 0bbe 70a8 3c3d
00000020: ccac af3d 13e9 07bd 76cf 52bd 00f3 a33c
00000030: 9183 91bc 2d49 1cbc bcdf 97bd 6987 8b3d
00000040: 9b50 403c 78a2 803d d9d0 1abd d0b3 11be
00000050: 1722 29bd 1e17 63bc 5514 36bd 1180 b83d
00000060: fb1f 2a3d ae0e b5bc 20e7 44bb fb62 48bc
00000070: a3c8 96bd fc18 da3b 2ecc d23c 4ed2 b83c
00000080: f79b 8c3c ae64 39bb 1ec6 1f3b f7b0 803d
00000090: 9908 e7bc c0cf 1e3e 59c4 c23c d6b9 20bd
000000a0: 5be8 0ebc 8605 37bd f7c4 5d3c 929c d7bd
000000b0: 6617 14bd df77 293d 962b 9cbd 8219 b8bc
000000c0: 7c39 dabb e008 3abb c37a a93d 990c 46bb
000000d0: 3395 3c3d 53e5 d73c a22f d83c 5ed5 d5bd
000000e0: ed51 d23b 9f12 1fbd 0f99 9abd a287 623c
000000f0: 8039 6bbb 5d02 4c3d 5c47 bd3d c74d 06bd
00000100: d3d8 6fb9 434d b9bc d4e2 34bc 4f97 ba3c
00000110: 319a 8b3c 7975 f83c 7546 c63d 1163 48bd
00000120: aa11 a1bd 7475 733c 79c1 83bc b7b5 3a3c
00000130: db8a 96bd 6245 223d 494c 9cbc 2259 6a3d
00000140: 205e 96bc 2b78 f43d 096b 0bbd 87dd 18bd
00000150: 1837 aabc 5532 f03d d881 043e a3d3 eaba
00000160: b117 ca3b 820d 9cbc 4a0e 59bd 5152 2e3c
00000170: eb28 763c d938 dcbc 1dc5 6bbd ccaa 03bd
00000180: 4409 f3bc a64d fd3d 43a7 99bb 9979 353e
00000190: 92ef 0b3d cb81 183d 7778 02be 0c31 803d
000001a0: 5702 03bc 090f e7bc 4fcf de3d 45b1 08be
000001b0: 3cc4 39bd 0fd8 0dbe bf92 aabb 0cdc 123e
000001c0: eab8 373d b1bb 4f3e ba65 fcbd 8186 053e
000001d0: b5a7 2f3d 9cfc acbd 3a66 563e 47f5 e93d
000001e0: fd73 e73e 71ec 94be bc1f 9abd a56b 8dbd
000001f0: 6fb7 7fbe 85f4 35bd ee9f 5e3e 9442 82bd
00000200: b2fd 423e 8af6 063e 61f2 fabd 8ed0 17bd
00000210: 3a9b 563e 948b 53be ef32 4b3e 9d46 d5be
00000220: c6f8 7ebd aa6f 403d 09ce 56bd adfc b33c
00000230: 3e29 893e 24be 223d 61ba c0bd 94ef e6bb
00000240: bc13 973d 4622 68bd f81a 9fbe 4ea7 053b
00000250: 62a9 3cbd 02e1 8fbe 7e2b 4bbe b8e9 783d
00000260: 4e7c 4d3e e409 4e3e 0655 2ebe 4d07 063e
00000270: 556e 84be 06ef 5f3d d280 23be 070e dbbc
00000280: 0898 4c3d 51d6 2e3e d338 2dbe e1c6 a03d
00000290: 2799 7fbe 58e9 2dbe a898 0cbd bcff 9ebd
000002a0: f444 c33d 6ba7 d93d becb 133d 23b0 ef3d
000002b0: 1994 fdbd b9aa 9b3d 6fe2 bcbd b647 493d
000002c0: 9002 a93d 5ae4 dfbc 84ce 07be cff7 d5bd
000002d0: b2dc 40be 5034 463e 5230 083e 57e8 e03d
000002e0: 2a25 8c3d cff9 753d ded8 7bbd 2dcd 28bd
000002f0: 49ec e8bc 13bc 61bb 5468 8b3c bdad 4fbd
00000300: 9f45 efbc 8dca 9c3d 24b5 dcbd ad71 cb3d
00000310: e1bd 243e d6fd ec3c 1e5d 42bd 39c7 4e3b
00000320: 1d73 c43c c446 10bd e12a 8ebc 4282 0abd
00000330: fd20 2b3d b1e1 13be 6634 0c3d 460e c03d
00000340: 8127 e9bc f4e9 e7bd 4e05 043e f411 02bc
00000350: ec52 5fbd 5a3b fa3c b6c3 63bc c852 40bb
00000360: 1f98 583d 335c 2c3e 9546 c13d ad5e a4bd
00000370: 4258 d2bd b961 3abe 2d94 c5bb 28c5 003e
00000380: 2105 9fbd 415d 4a3c 5e64 053e a994 25bd
00000390: 492e c5bd 12bb 283e 0731 b83d dccb efbd
000003a0: 20ec cfbd a6da 62be b6c5 50bd 50a5 393e
000003b0: 4d0e 823d e6dd 3b3e 33af 373c 9d6a c1bd
000003c0: f00f 0f3e 64a4 2cbe 1436 22bc 3d9f 28be
000003d0: 356d 9d3e 81a9 3b3e b809 323e 6385 123c
000003e0: ab8a b43c 8eae b8ba 2952 793d 55d3 f3bc
000003f0: 76e9 2e3e 84a3 2d3e 635c 6db9 103f 573e

decoder.fc2.bias f4 [43]
0.062394407 -0.06441393 -0.06650886 0.030102141 0.04004081 -0.014436796 0.11113624 0.10413878
0.089771606 -0.07932759 -0.023082372 0.05632026 0.06687814 0.12927955 0.019118479 -0.058129907
-0.109764054 -0.006191389 -0.08655544 -0.035163566 -0.12395224 0.019653924 -0.10449743 0.02784831
0.12250898 -0.08586244 -0.15317169 0.058253165 0.073134586 0.04190967 -0.04294227 -0.08571634
-0.10969602 -0.048216924 0.15351273 0.15315928 -0.10609482 0.06075534 0.008078325 -0.09541267
-0.019836085 0.017680932 0.02794664
00000000: 4791 7f3d 73eb 83bd cc35 88bd c498 f63c
00000010: d501 243d 5088 6cbc 669b e33d b646 d53d
00000020: 2dda b73d 8176 a2bd 3e17 bdbc 13b0 663d
00000030: 68f7 883d dc61 043e 5b9e 9c3c a019 6ebd
00000040: facb e0bd 23e1 cabb fb43 b1bd ac07 10bd
00000050: acda fdbd 4401 a13c c002 d6bd 2422 e43c
00000060: fde5 fa3d a6d8 afbd 0ad9 1cbe df9a 6e3d
00000070: 96c7 953d 79a9 2b3d 3ce4 2fbd 0c8c afbd
00000080: 4fa8 e0bd 1c7f 45bd 7132 1d3e c9d5 1c3e
00000090: 3e48 d9bd 97da 783d f35a 043c b867 c3bd
000000a0: 497f a2bc 9ad7 903c 5af0 e43c
