heart_model.pth (torch, 226544 bytes, 9 tensors)

encoder.fc1.weight f4 [128, 54]
000000 1e 7d 99 bd ff a7 e0 bd 8c f6 e8 bb 90 e6 e2 3d
       -0.07494567 -0.10969543 -0.007109469 0.110791326
000010 c2 0d bb 3c 5a 10 fe 3c 3c 77 7f bd 79 fa ef 3d
       0.022833709 0.031013656 -0.06236957 0.11717696
000020 85 ff 06 be 59 69 e6 ba 74 ba f8 3c f5 83 64 3d
       -0.1318341 -0.0017579003 0.030362345 0.055789907
000030 d8 96 23 bd 4c 64 63 3d 09 9a b1 bc db a5 d6 3d
       -0.039938778 0.055515572 -0.021679895 0.10480853
000040 1e 71 50 bc ce 39 c7 bd 41 f7 f6 3d f9 25 1c bc
       -0.012722282 -0.09727822 0.12058879 -0.009530538
000050 d2 87 e1 3d ab 59 87 3c d5 c1 83 bd 23 c5 7e bc
       0.11012234 0.01652225 -0.06433455 -0.015549931
000060 0d 17 f2 bc e5 a6 99 bd 60 bf e4 bc c7 4c e0 bd
       -0.029552007 -0.07502536 -0.027923286 -0.10952144
000070 b0 cf 6a bd 1a d3 da 3d 2b 5b d8 bd a2 82 9a 3b
       -0.057326972 0.10684796 -0.10564264 0.0047152797
000080 fb c4 0c 3d b9 e5 92 3c 9f 2d ba 3d c2 d0 ae 3c
       0.034367543 0.017931806 0.09090733 0.021339778
000090 27 f0 db 3d bd 48 a9 3d f3 65 99 bd 0d e0 86 bd
       0.10739165 0.08265827 -0.074901484 -0.06585703
0000a0 13 ad 08 bd 38 7d d0 3d 9a c8 53 bc 5f 33 0f 3d
       -0.03336818 0.101801336 -0.012926245 0.0349611
0000b0 a2 8a 68 3d 70 c5 df bc 92 80 c6 3c 0d 89 00 3d
       0.056772836 -0.027315825 0.024231229 0.0313807
0000c0 ae c6 09 3e ee 49 b9 bd 07 9b 81 bd 7e 14 50 bd
       0.13454697 -0.09047304 -0.06328397 -0.050800793
0000d0 0e b1 76 3d 76 e0 02 be 1e be f6 bc c3 42 81 3d
       0.060227446 -0.12780938 -0.030119952 0.06311562
0000e0 07 ac 54 3d 46 47 3f 3c db 4d e7 3d 84 96 f1 3d
       0.05192187 0.011674708 0.112941466 0.11796287
0000f0 da 2a 94 bd dc af 96 bd 52 33 36 bd 46 84 d5 bd
       -0.07234736 -0.07357761 -0.044482537 -0.1042562
000100 dd e4 3a bc 8b c5 07 3e 89 6f 06 3d 75 a2 c6 bb
       -0.011407104 0.1325895 0.032821212 -0.006061847
000110 47 2a 2e 3d 08 ee fd 3d a4 68 64 bd 88 93 86 bc
       0.042520788 0.123989165 -0.055763856 -0.01642777
000120 d2 98 c3 bd db 61 c5 bd f2 6b 03 bc 91 a4 86 bd
       -0.095506325 -0.09637805 -0.008021342 -0.06574357
000130 22 b8 41 3d 0b 74 c0 bd 1f 12 ec 3c 69 bb b4 bd
       0.047294743 -0.093971334 0.028817235 -0.08824808
000140 44 fb cd bd 6b d9 3d bb cc 12 a4 3d 58 f4 31 bd
       -0.10057691 -0.0028968703 0.08011398 -0.043445915
000150 24 6e 18 bc ff ee 42 bd 9f d4 40 3d 9b 50 73 3d
       -0.009303603 -0.047591206 0.04707777 0.059403043
000160 a0 49 be 3d 74 da 01 bd d5 b9 11 3d e7 e1 d0 3d
       0.092913866 -0.031702474 0.035577614 0.101993375
000170 cf 78 e7 3d e0 ff a2 ba 03 f7 99 3c 2a 06 3a 3b
       0.11302339 -0.0012435876 0.018794542 0.0028385022
000180 cc 34 e8 3d 3d 1f 9c bd ef db 8f 3d ae 96 27 bc
       0.11338195 -0.07623146 0.07024371 -0.010228796
000190 40 a3 b0 bd d4 52 c1 bd e2 08 cb bc f6 89 cc bd
       -0.086248875 -0.09439626 -0.02478451 -0.099872515
0001a0 f3 84 56 3c ca e2 09 be cd b6 b4 bc 8c 27 00 be
       0.013093221 -0.1346542 -0.022059822 -0.12515086
0001b0 c5 19 ae bd ea f0 7a bd 08 20 86 bc c6 10 39 3d
       -0.08501009 -0.06126491 -0.016372696 0.045182012
0001c0 ce c7 bf bd dc 3f 5a 3d 2b fd ec 3c 78 49 21 bd
       -0.093642816 0.053283557 0.028929314 -0.039376706
0001d0 72 3e e1 3d 01 f1 9d bd 50 f8 8e bc 13 e9 cf 3d
       0.109982386 -0.077119835 -0.017452389 0.10151877
0001e0 ad 8a b4 bd d4 1b eb 3d c3 2d f8 bd a4 86 07 be
       -0.08815513 0.11479917 -0.12118103 -0.13234955
0001f0 84 8f 0c bd e6 c9 7e 3d b8 30 8c bd 4c b8 5e 3d
       -0.034316555 0.062204264 -0.0684523 0.054374978
000200 ff fd 3e 3a 19 df 31 bd 97 12 5f bc a1 e0 99 3d
       0.0007285773 -0.043425653 -0.013615272 0.07513548
000210 ad 36 d3 3d f3 c5 39 bd 41 c8 fa bd b5 13 a7 bd
       0.10313163 -0.045354795 -0.12245227 -0.08158056
000220 16 fa c6 3d e7 be 9a bd c8 e7 4a bd 8f f6 cb bd
       0.09715669 -0.07555943 -0.04953745 -0.09959137
000230 d0 36 ef bd 5a 43 cf bc 1e a2 c8 bd 9f 43 9c 3d
       -0.116803765 -0.02530067 -0.097965464 0.07630085
000240 fb 1d f9 3d b0 0b a7 bd 17 22 12 bd 76 b1 76 3d
       0.121639214 -0.08156526 -0.03567704 0.060227834
000250 80 4c 9f bc 0d c7 88 bd 2f 3f 1f 3d fe f7 0c 3d
       -0.019445658 -0.06678591 0.038878616 0.03441619
000260 d9 28 dc bd bf 06 b0 3d d3 74 b4 bd cf 6d 58 bd
       -0.107499786 0.08595037 -0.08811345 -0.052839097
000270 64 79 19 bd 61 6d e3 bb 30 93 47 3d 25 f6 28 bd
       -0.037469283 -0.006940529 0.048724353 -0.041250367
000280 6d 53 3a 3d 59 e8 60 bc 12 15 51 bd 89 39 89 bd
       0.045489717 -0.013727271 -0.051045485 -0.06700427
000290 1c b6 d7 bd 69 ba 6b 3d f2 89 d1 3c 69 d4 48 3c
       -0.105327815 0.05755082 0.025578473 0.012257674
0002a0 ee a5 fb 3b e5 5d 25 bd 17 93 c1 bc 4a 7c fa bc
       0.0076796925 -0.040372748 -0.023629708 -0.030576844
0002b0 bb cf 47 3d ab 5b 95 bc 96 34 88 bd fa 56 9a bc
       0.04878209 -0.018232187 -0.06650655 -0.018840302
0002c0 5a ef 88 bd e6 59 e8 bc e5 2d 91 bd f9 fe f7 bc
       -0.06686278 -0.02836318 -0.07088832 -0.030272948
0002d0 30 b3 90 bc 04 5a 41 3b e0 b9 c4 bd 84 4c 1b bd
       -0.017663568 0.0029503116 -0.09605765 -0.037914768
0002e0 39 25 b5 bd 7b db fa bc e0 67 67 3d 41 b2 96 3d
       -0.0884499 -0.030622235 0.056495547 0.07358218
0002f0 71 0c 96 3d 9a cb de bc 9a c1 27 3b 68 de 99 bd
       0.07326592 -0.027196694 0.0025597573 -0.07513124
000300 94 05 48 bc 3d f3 52 bc 3e d5 ce bc 25 e2 f7 3b
       -0.012208361 -0.012875375 -0.025248166 0.0075648003
000310 ff d4 02 bd f7 a5 91 bb 06 d1 c7 bc e2 f7 66 bd
       -0.03194141 -0.0044448334 -0.024391662 -0.056388743
000320 99 06 75 3c f1 91 e7 3c d8 79 8b 3c aa 19 87 bb
       0.014955186 0.028267832 0.017025873 -0.0041229324
000330 de 4e 2e 3d 12 da 40 3d 54 92 e7 3c 34 91 b4 bc
       0.042555682 0.047082968 0.028268017 -0.022041894
000340 70 31 db bb 1b 11 a9 bc 60 39 92 bd c6 b3 ff bc
       -0.006689243 -0.02063804 -0.0713985 -0.031213652
000350 0f 64 92 bd b9 c4 d3 3b ca 5e 0e bd ac a7 7d 3c
       -0.07147991 0.00646266 -0.034758367 0.015481871
000360 e3 20 46 bd fd de 71 bd ea ae 84 bd 30 66 e2 3d
       -0.048371207 -0.05905055 -0.06478675 0.11054647
000370 49 25 00 bd fe ea fc bd 23 b4 50 bc 15 48 04 be
       -0.031285558 -0.12349509 -0.01273826 -0.12918122
000380 ab d2 d3 3d 82 b5 80 bd 56 cb 2c 3d 56 46 f1 b8
       0.10342916 -0.0628462 0.042186104 -0.000115048766
000390 c2 13 3a bd cd 63 21 bd 17 6b db bc e4 05 e2 bd
       -0.045429 -0.039401818 -0.026784463 -0.1103628
0003a0 26 90 c4 bd 12 63 8b bd 75 98 70 bd c6 eb a6 bd
       -0.09597807 -0.068060055 -0.058739144 -0.08150439
0003b0 43 a0 a4 3d ec fa cb bd 8e 89 c6 bd 32 d9 c9 bd
       0.0803838 -0.09959969 -0.09694205 -0.0985588
0003c0 ac 9f d3 3d 05 b4 f4 3d b4 d0 81 bd 16 6b c9 bd
       0.10333189 0.119483985 -0.06338635 -0.09834878
0003d0 42 49 08 bd bf 1a 0d bd b8 f4 f0 bc 3b bd 08 be
       -0.03327299 -0.034449335 -0.029413566 -0.13353436
0003e0 f7 af 08 3d 8c 55 02 3e 87 c5 01 be f4 f2 c8 3d
       0.03337094 0.12727946 -0.12673007 0.09811965
0003f0 e0 51 a6 3d b9 84 f9 bd 9a c4 f4 3d 5f 3a d5 3d
       0.08121085 -0.12183518 0.11951561 0.10411524

encoder.fc1.bias f4 [128]
000000 f7 77 d2 bc 9b a7 45 3d f7 cb a9 bc 15 7e db bd
       -0.02569197 0.048255544 -0.02072714 -0.107174076
000010 91 07 38 3d 78 d2 2a be 8d 5e 9c bc d1 72 dd 3c
       0.04492909 -0.1668185 -0.019088054 0.027032288
000020 06 41 97 3d 7f 98 20 be 7f c9 46 bd 42 fe 13 bb
       0.07385449 -0.15683173 -0.048532005 -0.002258197
000030 f9 76 26 bd bb bb e3 3d e3 45 b9 bd 61 bc 3c bd
       -0.040640805 0.11119791 -0.09046533 -0.04607809
000040 8d 8c f2 3d ff c8 a6 bd 35 d1 77 3d 63 b8 dd bd
       0.11843214 -0.08143806 0.06050225 -0.108261846
000050 24 41 a7 3d 20 6f 5f bd a4 32 54 bd 69 32 c5 3d
       0.081667215 -0.054549336 -0.051806107 0.096287556
000060 22 13 8c bd a1 f8 d9 3d f6 00 ab bc b2 02 0e 3e
       -0.06839587 0.10643125 -0.020874482 0.13868216
000070 94 7d 1f bd a7 01 dd bd 48 3f b2 3d ea b3 df 3c
       -0.03893812 -0.10791331 0.08703476 0.02730747
000080 ce 72 fc bd 40 fa 14 bd 1b 62 a2 3c 23 4e bd bd
       -0.12326585 -0.03637147 0.019822171 -0.09243419
000090 da cb 1c 3d a2 04 81 bd 9f 56 5a 3d b8 34 d1 3d
       0.038280345 -0.06299712 0.053305265 0.102151334
0000a0 4e a8 df 3d 93 69 ae bb d0 a1 79 3d e6 18 05 3e
       0.109207734 -0.005322644 0.060945332 0.12997779
0000b0 5e f6 f7 3d a5 69 98 bd 74 47 95 bd d6 01 95 3d
       0.12107538 -0.07442025 -0.07289019 0.07275741
0000c0 69 ac e7 bb 0b 33 cb 3d 28 48 d8 bd fd 44 0a be
       -0.0070701134 0.09921845 -0.10560638 -0.1350288
0000d0 98 6c 58 bd d2 94 fe 3d 6d 3f a3 3c a2 2b e9 3d
       -0.052837938 0.12430729 0.019927705 0.113852754
0000e0 66 52 45 3c 88 ba 9a 3d 81 fc b8 bc b5 14 f6 bd
       0.012043571 0.07555109 -0.02258134 -0.12015668
0000f0 96 9a d6 3d e5 ab 98 3d 11 47 84 3d 2e 86 ea bd
       0.10478704 0.07454661 0.06458867 -0.11451374
000100 30 06 08 bd 3f 70 a4 bd e2 c5 d0 bd 6d 2a 69 bd
       -0.033209026 -0.08029222 -0.10193993 -0.056925226
000110 58 f5 19 be 00 4c 04 be da f6 a5 3d ba 99 0c 3e
       -0.15034997 -0.12919617 0.08103724 0.13730517
000120 75 42 04 be 0c 1f 72 bc 75 f3 9a bd fe 4e 00 3e
       -0.12915976 -0.01477791 -0.07565967 0.12530133
000130 2d 68 01 be 60 93 d3 bc 45 0f 9d 3d 72 b3 1d bd
       -0.12637396 -0.02582711 0.07668928 -0.03850121
000140 90 e8 2f 3d b0 21 ab 3d 53 3c 04 3e bd 22 37 be
       0.0429464 0.08356035 0.12913637 -0.17884345
000150 dc cc e3 bd e7 de ee 3c a2 13 bf 3c 72 7d c5 3b
       -0.11123058 0.029159022 0.023324791 0.006026917
000160 ea e4 49 3c 4d 64 df bd 9a a3 5c bd f0 f9 ab 3b
       0.012322644 -0.10907803 -0.05386696 0.0052483007
000170 e7 40 1c bd d5 0a 02 be 3a 8c 1a 3c a3 e8 89 bd
       -0.038147833 -0.12699445 0.009432847 -0.06733825
000180 a1 b7 2a 3d 69 42 1a be da 2b 54 bd 1b b7 6d be
       0.04167903 -0.15064396 -0.051799633 -0.2321438
000190 63 90 e3 3d 5f f2 c3 bd 75 97 5e be 9b 7e 36 be
       0.11111524 -0.09567713 -0.21737464 -0.17821734
0001a0 eb 4e b7 3b 5b 54 a2 bd 51 e1 f4 3c 1d f0 be 3d
       0.0055941246 -0.07926246 0.029892595 0.09323142
0001b0 b5 a9 15 bd 75 12 0a be a3 68 27 3d 8c 59 7b bd
       -0.0365388 -0.13483603 0.040871274 -0.061364695
0001c0 3e a6 39 3d d8 81 5d bd 78 7e 77 bd 6f 8e 98 3d
       0.045324557 -0.054078907 -0.060423344 0.07449042
0001d0 01 17 8e bd 9a a4 b5 3c 85 43 dc 3c 11 e9 4b bd
       -0.069379814 0.022173215 0.026887665 -0.049782816
0001e0 73 ef e0 3d 00 75 09 3e 57 e6 06 be 7d 79 ff bd
       0.10983171 0.13423538 -0.13173805 -0.12474344
0001f0 96 20 ce 3d 65 81 2c bd 5d 0e 38 be 2f 38 03 bd
       0.10064809 -0.042115588 -0.17974229 -0.032036003

encoder.fc2.weight f4 [64, 128]
000000 39 f0 10 3d 55 e4 78 3d 74 62 59 bd 57 c8 a7 3c
       0.035385344 0.06076463 -0.053072408 0.020481272
000010 c2 c9 a2 bc b4 a2 73 bb bd d8 9d bd ec cc 84 3d
       -0.019871596 -0.0037175836 -0.07707355 0.06484398
000020 e0 37 3b bc 82 bc 75 3d e6 75 76 bd a7 d4 95 3a
       -0.011426896 0.05999423 -0.06017103 0.0011431173
000030 ee 54 f7 3b b7 f0 aa 3b 0f ea 1f 3d 99 b2 49 3c
       0.007547966 0.0052166837 0.039041575 0.012310647
000040 d9 ef 92 3d 4d 92 d7 3c 0b b2 53 3d 6c 5f 19 bc
       0.071746536 0.026314879 0.051683467 -0.009361129
000050 62 d6 42 3d c5 89 8a 3d 0c 8d ce 3c 42 df 48 3d
       0.047567733 0.06764559 0.02521374 0.04904104
000060 88 b9 9e bb 2f a3 b1 bd 01 8c 9f bc 0b c3 80 3d
       -0.0048438944 -0.08673703 -0.019475939 0.062872015
000070 ab 64 cf 3b 72 63 ab bd 6a 1c 4f bd d5 7a 8c bd
       0.006329139 -0.08368577 -0.050564207 -0.06859366
000080 4a b6 0b 3d 5d 69 8b bd 86 8d 8c bd 82 11 83 3d
       0.03410939 -0.06807206 -0.06862931 0.06399824
000090 24 7e 33 3d 8f 5f 87 bd e0 0a b0 3c b5 a2 14 bd
       0.04382147 -0.06610023 0.02148956 -0.036287982
0000a0 e0 52 9c bd f0 41 09 3d 77 71 b0 bd ff 85 87 3d
       -0.07632995 0.03351015 -0.08615392 0.066173546
0000b0 2a 23 2f bd 00 e3 77 bc 44 18 86 3b 82 3e 59 bd
       -0.042758144 -0.015129805 0.004092248 -0.053038128
0000c0 8a a3 8f bd 80 39 b2 3d ba b1 a7 3d 02 5d a3 3d
       -0.070136145 0.087023735 0.081881955 0.07976724
0000d0 59 9b 6e bd 76 e7 d8 bc 2c fd 6f bd 51 cc 12 bd
       -0.05825362 -0.026477557 -0.058591053 -0.035839383
0000e0 63 92 43 3c 96 7e b2 3c 1e 62 69 3d 80 11 9c bc
       0.011936757 0.021788877 0.056978337 -0.019051313
0000f0 4d 93 04 3d ce e9 81 3d 0c 56 4a 3b 9e 0a 8e bd
       0.03236704 0.06343423 0.0030874042 -0.06935619
000100 4d ed f0 bc ee fb 13 3c 64 23 21 3d e0 fc 18 3c
       -0.029410029 0.009032233 0.03934039 0.009337634
000110 24 40 7b bd 1b fd f4 bc cb b4 4d bd 0b a8 5b 3d
       -0.061340466 -0.029905846 -0.050221246 0.053627055
000120 ff 0b 8a bd 4a 8c 62 3d 54 4b b3 bd 28 19 cc bc
       -0.06740569 0.05530957 -0.08754602 -0.02491434
000130 04 16 68 bd cd 21 0c 3d c0 9a f3 3c 87 76 5e 3c
       -0.05666162 0.034211922 0.029736876 0.013578064
000140 fe 2b 87 3d 47 4d c1 3b 98 b6 49 3d 45 7e a2 bd
       0.06600188 0.0058991048 0.0492464 -0.0793424
000150 5f fb 9e 3d 44 76 52 3d b3 8f e3 3a 85 fc 17 bd
       0.07762789 0.05138232 0.0017361551 -0.037106056
000160 12 8c 42 3d 5a b5 2a 3d 61 fa 51 3d a1 b9 a1 bd
       0.047496863 0.041676857 0.05126417 -0.07896734
000170 9a a3 f9 ba cf 00 46 bd 1b f4 8d bd 6f f1 ea 3c
       -0.001904595 -0.048340615 -0.06931325 0.028679578
000180 75 2c 0f bd ac 1c 7d bd 52 b1 85 bd 9b 5f 40 bc
       -0.034954507 -0.06179492 -0.06527962 -0.011741544
000190 2d 7d a9 3d 5f 47 8a bd c7 51 1a bd 0d 7f 86 3c
       0.082758285 -0.06751894 -0.037675645 0.016418004
0001a0 f1 24 dc 3c 3c c0 04 3d 8a 5c ad 3d ec 5c 17 3b
       0.026873084 0.03240989 0.08464916 0.0023096157
0001b0 28 e5 03 3d fd e2 28 bc 9c f6 9e ba 14 cb 8c bd
       0.032200962 -0.0103080245 -0.0012127939 -0.068746716
0001c0 07 6d 77 3d 1b 3d 29 bd 13 62 ea 3c 77 f5 69 bd
       0.06040671 -0.04131804 0.028611219 -0.05711886
0001d0 19 11 a4 bc de 5f 19 bd 24 86 ee bc 7d 64 c0 3d
       -0.020027684 -0.03744494 -0.029116698 0.093941666
0001e0 26 ee 66 bc cc 5c 8b bd dd a6 2f 3c b7 9c 1b 3c
       -0.014094865 -0.06804809 0.010720936 0.009497813
0001f0 f2 91 2f 3d 39 15 5d 3d 24 67 82 3d 8d 17 a5 3c
       0.042863794 0.053975318 0.06367329 0.020152831
000200 8e f7 8c bd 13 07 3f 3d f5 7a 96 bc ce af ab 3d
       -0.06883155 0.046637606 -0.018369177 0.083831415
000210 1e 8b 87 bd 56 44 86 3d 51 0c ab 3c 82 f0 4e bd
       -0.066183314 0.06556003 0.020879896 -0.050522335
000220 51 12 90 bd 32 ee 96 bb e9 3e 46 bc af 18 15 bd
       -0.070347436 -0.004606032 -0.01209996 -0.036400493
000230 9f b7 a8 3d 76 c0 a3 3d 53 b0 95 3d 6e 6f bb 3d
       0.08238148 0.079956934 0.07309022 0.09152113
000240 8e 1e 77 3b b1 1b ae bd d3 b4 af 3d cb 24 1e 3c
       0.003770742 -0.085013755 0.08579411 0.009652327
000250 f7 0d 61 bd c6 d4 3d 3d 2f 87 58 3d 24 23 fb bc
       -0.05494496 0.046345495 0.052863296 -0.030656405
000260 26 ea a4 3d d9 7e b3 bc 0b 50 c5 3c 3b 85 26 bd
       0.08052473 -0.021911072 0.024086019 -0.040654402
000270 ec a8 7a bc 5a be 93 bd ea 41 38 bd 71 97 ae 3d
       -0.015299063 -0.07214041 -0.044984736 0.08524979
000280 75 14 90 3b c9 88 06 bc b2 a9 dc 3c a2 df 7c bd
       0.00439697 -0.008211323 0.026936386 -0.06173671
000290 b2 af 36 bd 46 cc 96 bd df f2 b0 bc 02 e3 1b 3d
       -0.04460115 -0.07363181 -0.021600185 0.03805829
0002a0 14 f6 e2 bc 7d 9f 9a bd b0 01 79 bd de e9 26 bd
       -0.02770523 -0.07549951 -0.060792625 -0.040750377
0002b0 0f c9 79 3d 9e d3 0a 3b 32 97 90 3d 6e 7a a7 3c
       0.06098276 0.0021183263 0.07060088 0.020444121
0002c0 41 78 11 bd 65 b9 a7 bd 4d 72 b9 3d 03 3e a3 bc
       -0.035515074 -0.08189658 0.09055004 -0.01992703
0002d0 a9 94 a3 3d 42 b1 14 3d 52 92 06 3d 25 6e 3b 3c
       0.07987339 0.03630186 0.032854386 0.011439835
0002e0 8a 89 a2 3d b1 07 06 3c 05 aa 79 bd c0 5d 40 3c
       0.0793639 0.008180545 -0.06095316 0.011741102
0002f0 24 05 8c bc f5 2f 73 bc 27 41 e1 3c 19 f8 e5 3c
       -0.017092295 -0.014842977 0.027496887 0.028072404
000300 80 a7 b4 bd 18 2e 9e bd 90 63 d7 3a fe 1f 36 bd
       -0.088210106 -0.077236354 0.001643287 -0.044464104
000310 ee 3d 88 bd c6 6b 9f 3d 5f 9e 97 bd 57 96 45 bd
       -0.06652437 0.07784228 -0.07403254 -0.04823908
000320 86 5b 90 bd 2c ab cd ba ec d6 9c bd d6 7f de 3c
       -0.07048707 -0.0015691272 -0.076581806 0.027160566
000330 24 a1 2b bb 1c b2 98 bd 06 83 c8 bc f6 ae eb bc
       -0.0026188577 -0.07455847 -0.02447654 -0.028769951
000340 22 0d 40 ba e1 7e 9b 3d 12 91 84 bd 13 1d f1 bc
       -0.00073261757 0.075925596 -0.064729825 -0.029432809
000350 f4 f7 a6 bd b5 f0 c1 bb dd 6b a8 3d 3f 67 2f bd
       -0.08152762 -0.005918587 0.08223698 -0.042823073
000360 00 9b 46 3d f0 9a 94 3d 4f e4 e1 3c 91 22 e7 bc
       0.048487663 0.072561145 0.027574686 -0.028214725
000370 2b af 73 3d 59 ec 29 3d cc a8 46 bd 20 2d 6b bd
       0.059493225 0.041485164 -0.04850082 -0.05741608
000380 9a 22 53 3d 85 1c 9b 3d 28 ca 80 bb 82 d1 16 bd
       0.05154667 0.07573799 -0.003930349 -0.036820896
000390 70 4d 8f 3d 6d c0 a0 bd 99 15 22 3d 24 51 13 bd
       0.06997192 -0.07849202 0.03957138 -0.035966054
0003a0 a1 49 28 3c d4 9c 8a bd c3 03 a3 3d 80 cf ac 3d
       0.010271461 -0.06768194 0.07959702 0.08438015
0003b0 61 97 a0 bb 14 99 65 3d a6 df 6d 3d 15 6d 4e bd
       -0.0049008583 0.05605419 0.058074616 -0.050396997
0003c0 7f 52 6d 3d 37 ad a6 3d 63 44 94 bd 64 cc 19 3d
       0.057940003 0.08138507 -0.07239606 0.037548438
0003d0 ea 95 9d 3d 85 93 fd bc ef 7f 67 bd 2d 38 9a 3c
       0.076946095 -0.030954132 -0.05651849 0.018825615
0003e0 8e 92 a8 3d 0c 4b bc bc 38 20 00 bd 48 2f 89 bd
       0.08231078 -0.022985004 -0.031280726 -0.06698471
0003f0 17 8a 11 bd 24 12 9d bd 40 31 4b bd 33 b1 56 bd
       -0.035532083 -0.07669476 -0.049607515 -0.052415084

encoder.fc2.bias f4 [64]
000000 e3 6d 9e bd 9d c8 e7 bd 0d e4 d6 bd 49 c9 05 3e
       -0.07735803 -0.11317561 -0.10492716 0.13065065
000010 d1 93 63 3e 88 0c 9a 3e 4c bb e6 be 2a 34 91 bd
       0.22224356 0.30087686 -0.4506477 -0.07090028
000020 20 c3 57 3e c5 53 c6 3c a9 60 93 bc c0 ae 3a be
       0.21070528 0.024209866 -0.017990427 -0.18230724
000030 9d 09 c7 be 53 4c b3 3d ac 46 90 be e1 ff 48 bd
       -0.38874522 0.08754792 -0.28178918 -0.04907215
000040 14 2d a6 3d c4 60 e7 3d 33 87 d9 bd 5f 8a cf bd
       0.08114067 0.112977535 -0.1062149 -0.10133814
000050 e0 31 8e 3e 84 e5 3a bd 56 9c a2 3d 61 d6 af 3d
       0.27772427 -0.04562904 0.07939975 0.085858114
000060 ec 42 75 3e 5b cf 94 3e 41 a0 75 be af ca fe 3d
       0.2395131 0.2906445 -0.23986913 0.124410026
000070 13 b0 bf 3e 51 7b 84 bd 98 1a 0a 3e 33 40 21 be
       0.3743902 -0.06468833 0.13486707 -0.15747146
000080 44 7a b0 be 7c a8 37 3e 58 07 9d 3c bd a1 b6 bd
       -0.3446828 0.17935365 0.01916854 -0.08917568
000090 9f 3f c3 be 64 40 d8 bd 80 c9 41 be 2d 47 00 3e
       -0.38134477 -0.105591565 -0.18924522 0.12527151
0000a0 67 95 37 3e c3 97 81 bd f2 82 a2 3c d0 33 92 bc
       0.17928086 -0.063277744 0.01983783 -0.017846972
0000b0 5a 43 96 3c 6d 80 68 3d a6 e2 1e 3d fb 2c ab 3d
       0.018342663 0.0567631 0.038790368 0.08358189
0000c0 4c 48 e4 bc 12 44 f7 3c a9 21 82 3b 7b c3 c7 bd
       -0.027866505 0.030183826 0.0039712978 -0.09754082
0000d0 1d bb 2b bd d4 11 6f 3d 2b 67 84 bb e2 a0 3b 3d
       -0.041926492 0.05836661 -0.004040619 0.045807727
0000e0 77 71 bf bd 80 60 85 be 61 7e 90 bc eb 90 b7 be
       -0.093478136 -0.26050186 -0.017638387 -0.3585275
0000f0 09 0e 86 be 55 dd c8 3d 22 36 8a be 15 d9 09 bf
       -0.26182583 0.09807841 -0.26994425 -0.53846866

vq_vae.embedding.weight f4 [512, 64]
000000 f8 59 c0 3a f8 92 db ba dc 76 b1 3a d0 45 06 3a
       0.001467525 -0.0016752174 0.0013539451 0.0005122097
000010 d0 00 ec 3a 50 30 60 39 e4 0b 57 ba 9c 95 27 ba
       0.0018005613 0.00021380302 -0.0008203371 -0.0006392838
000020 68 8c e4 39 02 ad f7 ba 50 18 6b 39 9e 4e 89 3a
       0.0004359216 -0.0018896165 0.00022420404 0.00104757
000030 c8 44 0a 3a ca 2b e8 3a c8 81 a2 39 08 6b 90 3a
       0.00052745314 0.0017713245 0.00030995742 0.0011018226
000040 f0 68 bf ba 5e 1f ac ba e2 99 dd 3a f8 30 33 ba
       -0.0014603417 -0.0013131907 0.0016906823 -0.0006835605
000050 7c f5 a4 3a 68 0c a9 3a a0 fb 37 39 78 ab f8 3a
       0.0012585367 0.0012897374 0.00017545978 0.0018972
000060 d0 66 e1 ba 1c 3e 28 ba 9c ac c0 3a b8 36 d6 ba
       -0.0017196778 -0.00064179464 0.0014699879 -0.0016343212
000070 50 61 a9 39 bc f5 ec 3a 60 42 19 b9 80 01 18 38
       0.00032306695 0.0018078606 -0.00014615944 3.624102e-05
000080 f0 9e 38 b9 12 8c bf 3a 7a a3 ad 3a 96 fd b8 3a
       -0.00017606816 0.0014613888 0.0013247572 0.001411366
000090 f4 2e ac ba e0 d5 f1 ba e4 9e ff ba b6 6c e5 3a
       -0.0013136552 -0.001845058 -0.0019502309 0.0017503712
0000a0 5c da 36 ba be 91 c7 3a 48 d0 56 ba 8c d0 ad ba
       -0.0006975287 0.001522593 -0.00081944885 -0.0013261004
0000b0 64 a0 23 3a b8 11 e8 b9 e0 fa ee ba a0 73 cb b9
       0.00062418566 -0.0004426369 -0.0018232726 -0.00038805325
0000c0 ec 16 d8 3a a6 36 a6 ba d2 cd de 3a 08 7a c1 39
       0.0016486323 -0.0012681081 0.0016998595 0.0003690275
0000d0 c4 e1 02 ba 30 be 4e 3a b4 3d e1 3a c8 f2 3d 3a
       -0.0004992748 0.00078866165 0.0017184527 0.0007245955
0000e0 fe 69 c6 3a c0 2d e8 ba e8 92 ea b9 b4 60 ef ba
       0.0015137789 -0.001771383 -0.00044741412 -0.0018263073
0000f0 aa 85 b4 ba 7c dd 58 3a 2e ae 8e ba 88 fb 43 ba
       -0.0013772745 0.000827275 -0.001088565 -0.0007476141
000100 6a dd e1 3a 20 0e 47 39 86 58 ef ba d4 98 d6 ba
       0.0017232124 0.00018983381 -0.0018260635 -0.0016372451
000110 28 00 ea 39 26 6b d9 ba ca 32 c9 3a 68 98 be b9
       0.00044632074 -0.0016587719 0.0015350219 -0.00036353176
000120 10 cb 34 b9 68 2a c4 ba 50 9b a9 b9 94 a0 50 ba
       -0.00017241784 -0.0014966251 -0.0003234991 -0.00079584983
000130 20 6e fa 3a b0 da 7e b9 96 4d ef ba 42 ac a2 ba
       0.0019106306 -0.00024304795 -0.0018257375 -0.0012410956
000140 36 22 9e ba cc 37 7c 3a b0 f4 5c b9 cc 36 3f ba
       -0.0012064639 0.00096213515 -0.00021071988 -0.0007294237
000150 04 1b d1 ba b2 22 ee ba f0 c7 d4 3a 46 fc 80 ba
       -0.0015953486 -0.0018168299 0.0016233902 -0.0009840808
000160 80 a3 18 b8 b8 54 98 39 64 29 ab 3a 40 20 c2 b9
       -3.6391895e-05 0.0002905482 0.00130586 -0.00037026592
000170 7e 1a fb 3a cc aa 2d 3a 20 6d b3 38 d8 dc b7 ba
       0.0019157676 0.0006624877 8.555711e-05 -0.0014027609
000180 4c 2b 18 3a c0 c2 3f 39 96 15 eb 3a fe fe ef 3a
       0.00058047916 0.0001828773 0.001793551 0.0018310247
000190 74 ce 88 3a dc cd cf ba dc 01 52 3a 0a 42 fa ba
       0.0010437504 -0.0015854198 0.00080111413 -0.0019093168
0001a0 c0 12 97 b8 68 8d 8c 39 4c ba a6 3a 30 ba c7 3a
       -7.2037335e-05 0.00026808237 0.0012720316 0.0015237983
0001b0 5c 68 47 ba 62 d0 91 ba 58 ed a4 b9 1c 71 89 3a
       -0.00076067983 -0.0011124725 -0.00031457352 0.001048598
0001c0 c2 e0 f6 ba 10 48 e7 39 f0 40 0b 39 c8 c8 d8 39
       -0.0018835294 0.00044113444 0.00013280264 0.00041348324
0001d0 bc 89 c0 ba 68 d3 e6 3a f4 37 cf 3a ca 1e 94 3a
       -0.0014689486 0.0017610611 0.0015809522 0.001130068
0001e0 e6 6d f1 3a 24 cd 95 3a d4 4f 72 ba 6c 7f d5 3a
       0.0018419593 0.0011428935 -0.00092434627 0.0016288585
0001f0 50 70 e3 3a 16 59 c1 ba 08 fc c0 ba fc 5a a5 3a
       0.0017352197 -0.0014751281 -0.0014723549 0.0012615616
000200 aa 05 c2 3a 3c af e1 3a 04 dc cd ba 60 3b a6 38
       0.0014802713 0.0017218362 -0.0015705829 7.926556e-05
000210 3a 6d bb 3a 46 a0 81 ba 50 19 11 b9 bc ef e7 3a
       0.001429952 -0.0009889684 -0.00013837707 0.0017695348
000220 a0 a3 4c ba 00 5b 9a 37 30 f8 b2 3a e2 04 b6 3a
       -0.00078063644 1.8400606e-05 0.0013654288 0.0013886953
000230 04 f9 8f 3a e8 47 97 b9 ec 9c 90 3a 54 29 c1 3a
       0.0010984247 -0.0002885454 0.0011033094 0.0014737048
000240 a8 75 c6 b9 48 81 d9 ba 48 9c 46 ba 64 1b 8f ba
       -0.00037853164 -0.0016594315 -0.00075763883 -0.0010918197
000250 34 d4 2c 3a 60 de 7e 3a 60 18 10 3a a0 cc 91 3a
       0.00065929 0.00097224675 0.0005496796 0.0011123605
000260 58 14 45 ba 78 c3 77 3a ec a1 82 ba 48 49 4f 3a
       -0.0007517985 0.00094514294 -0.0009966469 0.0007907343
000270 70 02 4a b9 32 d2 fd ba 70 8f 24 39 bc 99 6d 3a
       -0.00019265129 -0.0019365011 0.00015693693 0.0009063741
000280 f4 29 5f ba e0 0e 30 b9 80 e6 ce 39 ea 6b ce ba
       -0.00085130264 -0.0001679021 0.00039463118 -0.0015748714
000290 90 ec 91 b9 c0 5c 9c b9 94 59 2d ba 64 51 5a ba
       -0.00027832808 -0.00029823743 -0.00066127745 -0.0008328168
0002a0 36 7d da 3a cc 6c 30 3a e0 1e 87 38 86 89 97 ba
       0.0016669396 0.0006730079 6.4430526e-05 -0.0011561371
0002b0 08 91 62 3a d0 f4 e1 3a 6c 02 e9 3a b8 e2 9f b9
       0.0008642827 0.0017239098 0.0017777211 -0.00030495762
0002c0 22 39 91 3a d0 07 df b9 28 5d a8 3a ac 60 90 3a
       0.0011079649 -0.00042539695 0.0012845146 0.0011015139
0002d0 20 a6 28 39 50 e9 5d b9 78 c8 07 ba 3a ba a2 ba
       0.00016083615 -0.00021163118 -0.00051797135 -0.0012415119
0002e0 5c c8 eb 3a 08 ec 33 3a 24 15 84 ba dc 81 01 ba
       0.0017988789 0.00068634795 -0.0010077101 -0.000494031
0002f0 a2 e9 d5 3a 36 84 ee ba 0a 38 90 3a 5c 67 51 3a
       0.0016320238 -0.0018197361 0.0011003029 0.0007988119
000300 c0 c8 6c b9 08 fa 27 3a a0 66 94 3a 24 2a e1 ba
       -0.00022581499 0.0006407802 0.0011322089 -0.0017178697
000310 b0 25 aa ba f8 ac af 3a 6a 46 f1 ba 24 6c 18 3a
       -0.0012981202 0.0013402989 -0.0018407826 0.0005814454
000320 24 a3 07 ba 68 49 b2 3a d8 8a 0e ba bc d8 13 ba
       -0.0005174151 0.0013602199 -0.00054375594 -0.0005639901
000330 50 91 00 ba c0 62 67 b8 e8 f4 80 ba 54 cd 34 3a
       -0.0004904466 -5.516666e-05 -0.0009838613 0.00068970514
000340 50 9b 6d 39 52 4c 8e ba 8e 1f bf ba 60 db da ba
       0.0002265994 -0.0010856485 -0.0014581548 -0.0016697459
000350 e2 21 ae 3a 94 a6 80 ba 00 72 ad b6 c0 ce 39 b8
       0.0013285244 -0.0009815269 -5.169073e-06 -4.4299988e-05
000360 ca 2f 8a ba 14 c6 e4 3a 60 55 10 39 82 8b c4 3a
       -0.0010542807 0.0017454051 0.00013764715 0.001499519
000370 de 45 af ba c4 be 03 ba b0 5e 51 ba b0 cf 9d 39
       -0.0013372262 -0.000502568 -0.0007986827 0.00030100113
000380 3a 8a af ba 80 94 ac b7 36 1f b3 3a ec 28 80 3a
       -0.0013392635 -2.0573149e-05 0.0013665918 0.0009777821
000390 86 f1 e2 3a 60 ac 14 39 40 f8 69 b8 74 95 23 3a
       0.0017314411 0.00014178595 -5.578273e-05 0.0006240227
0003a0 30 6b e5 39 06 e8 a7 3a b0 0a 3b 3a f0 9e cd ba
       0.00043758145 0.0012810237 0.00071350764 -0.0015687626
0003b0 58 47 42 ba 62 d7 c2 3a 90 df 9b 3a c8 2e cf 39
       -0.0007411144 0.0014865214 0.0011892188 0.0003951697
0003c0 ea c6 fa ba 38 8b a7 39 78 f7 f4 ba 46 e8 d0 3a
       -0.0019132767 0.00031956448 -0.0018689474 0.0015938364
0003d0 32 73 cd 3a 42 bf 89 3a 74 9a 2e 3a 00 44 06 39
       0.001567459 0.001050927 0.00066605886 0.00012804568
0003e0 48 25 d2 b9 78 f1 94 3a 9c 0a 7f 3a 2e ad a8 3a
       -0.00040082098 0.0011363467 0.0009729059 0.0012868994
0003f0 7e 6b c3 ba 86 64 f4 3a 18 fc 83 ba 58 4a bc b9
       -0.0014909355 0.0018645681 -0.0010069637 -0.00035913545

decoder.fc1.weight f4 [64, 64]
000000 f6 ad 63 bf a4 8f f7 3f 1a 2a 08 40 42 cd cc bf
       -0.8893732 1.9340711 2.1275697 -1.600014
000010 f9 9d ee bf c1 83 c0 bf 84 11 23 3f 54 8f 77 bf
       -1.864196 -1.5040208 0.636986 -0.96703076
000020 ca 06 72 bf c5 67 01 c0 9b 50 ae bf d4 55 c7 3f
       -0.9454161 -2.0219586 -1.3618349 1.5573068
000030 ca 58 0a 40 8d f8 fb bf 51 e3 cc 3f 8f 22 c6 bf
       2.1616693 -1.9685227 1.6006871 -1.5479296
000040 56 e4 7d 3f 3f 63 e2 3f 02 52 fb 3f 3e 4b c7 3f
       0.9917654 1.7686538 1.9634402 1.5569837
000050 f1 b1 b6 bf 1c 64 62 bf c7 e2 e0 bf ba d6 8d 3f
       -1.4273053 -0.88434005 -1.7569207 1.1081154
000060 21 55 f7 bf 3b d6 a8 bf 0d fb 01 40 00 fa 94 3f
       -1.9322854 -1.3190378 2.030948 1.1638794
000070 75 ba c9 bf 6b 82 97 bf db fb 13 c0 c1 db c4 bf
       -1.5760027 -1.1836675 -2.312247 -1.5379564
000080 44 71 c3 3f 63 14 22 bf 5c 45 dc bf 38 73 9f 3f
       1.5268941 -0.6331236 -1.7208667 1.2457037
000090 a8 44 7d 3f 90 40 00 40 80 ca de 3f 0e 5f c6 3f
       0.98932886 2.0039406 1.7405548 1.5497758
0000a0 d4 c7 70 bf 11 1a f7 bf 27 6d e5 3f 33 1a c7 bf
       -0.94054914 -1.930483 1.7923936 -1.555487
0000b0 13 26 00 c0 0d 03 e5 bf 05 97 f0 bf 25 59 f4 bf
       -2.0023239 -1.7891556 -1.8796088 -1.9089705
0000c0 71 3f ca 3f 73 4c 95 bf 50 8e dc bf 88 83 ea 3f
       1.5800611 -1.1663955 -1.723093 1.832139
0000d0 8d a5 cc 3f d9 1a e8 bf da d8 46 3f 45 a4 cb 3f
       1.5988022 -1.8133193 0.7767464 1.5909506
0000e0 53 50 fa 3f 38 ad 92 3f 9a 1d a6 bf 94 1b bb 3f
       1.9555763 1.1459112 -1.2977784 1.4617791
0000f0 92 e1 ea 3f 84 1c a7 bf 3a fe 8b 3f 40 29 d5 3f
       1.8350089 -1.3055577 1.0936959 1.6653214
000100 fa b9 9b bf fe 3a ef 3f 95 05 10 40 f4 b1 ca bf
       -1.216613 1.8689878 2.2503407 -1.5835557
000110 b2 6d f2 bf a5 9e c2 bf 3f 68 24 3f 94 ba 9e bf
       -1.8939726 -1.5204664 0.64221567 -1.2400689
000120 eb 50 74 bf fa 2c f5 bf e5 f8 c0 bf e1 fd b4 3f
       -0.9543597 -1.9154351 -1.5075957 1.4139978
000130 b2 70 fc 3f 78 cf 0a c0 8d b7 cb 3f 35 67 c7 bf
       1.9721892 -2.168913 1.591539 -1.5578371
000140 92 d7 89 3f 7c d8 d8 3f 7e b3 e0 3f ee 37 ce 3f
       1.0768912 1.6941066 1.7554777 1.6110818
000150 39 7d b8 bf bb 53 8f bf ef 9d f3 bf 2e 58 a4 3f
       -1.4413215 -1.1197428 -1.9032573 1.283941
000160 64 c4 d1 bf ba 97 81 bf d3 48 e6 3f 16 b5 7f 3f
       -1.6388059 -1.0124428 1.7990974 0.9988569
000170 d4 a9 d1 bf 64 bb 88 bf 76 cc 08 c0 78 72 cb bf
       -1.6379952 -1.0682187 -2.1374793 -1.5894308
000180 17 49 b6 3f 15 b4 5f bf 0a 74 ef bf bb 62 88 3f
       1.4241055 -0.8738416 -1.8707287 1.065513
000190 30 44 73 3f 8c cf 03 40 b1 6d d8 3f 90 4e d6 3f
       0.9502592 2.0595427 1.6908475 1.6742725
0001a0 54 02 19 bf 8d 96 e4 bf 46 1d e0 3f bf d2 d6 bf
       -0.5976918 -1.7858444 1.7508934 -1.6783065
0001b0 c3 50 e6 bf ec f8 cd bf 64 cd e1 bf 03 fa 00 c0
       -1.7993397 -1.609159 -1.7640805 -2.0152595
0001c0 3a c3 bf 3f 1a be a2 bf af 5e dd bf b7 b0 e1 3f
       1.4981453 -1.2714264 -1.729452 1.7632054
0001d0 18 b5 c8 3f e2 06 fd bf 36 ad 4d 3f 57 98 be 3f
       1.5680265 -1.9767725 0.80342424 1.489024
0001e0 27 99 ec 3f 7b 3e 8f 3f 45 c0 79 bf b8 c1 ba 3f
       1.8484238 1.1190943 -0.97559005 1.4590368
0001f0 34 36 de 3f cb e6 96 bf a6 81 8b 3f eb 50 d7 3f
       1.7360291 -1.1789182 1.089894 1.6821569
000200 16 82 65 bf c6 fa fa 3f 30 33 1b 40 26 e6 c8 bf
       -0.8965162 1.960778 2.4249992 -1.5695236
000210 c9 42 05 c0 34 fa aa bf 71 fa 2a 3f 0e 72 8d bf
       -2.0822012 -1.3357606 0.66788393 -1.1050432
000220 c3 72 90 bf a1 e7 ee bf 5a ea b1 bf 63 34 b7 3f
       -1.1285022 -1.8664438 -1.3899643 1.4312862
000230 ac 37 09 40 20 76 06 c0 b4 a8 d8 3f 62 10 c0 bf
       2.144023 -2.1009598 1.6926484 -1.5005
000240 3e 1b 82 3f 4f 3a f3 3f b8 bb e9 3f ca d3 cf 3f
       1.0164564 1.9002169 1.8260412 1.6236508
000250 1a 6b c4 bf 1d f5 8f bf 97 bc ee bf c0 32 a0 3f
       -1.5345185 -1.1246678 -1.8651303 1.2515488
000260 e0 4e f1 bf 9f 0b 91 bf 04 4d f9 3f 6a dc 86 3f
       -1.8852196 -1.1331671 1.9476628 1.0536015
000270 f8 d1 c5 bf 3c 79 90 bf 8d 62 10 c0 17 2e d7 bf
       -1.5454702 -1.1286998 -2.256015 -1.681094
000280 c3 31 ae 3f c1 38 67 bf 97 17 ec bf 4e 6b ab 3f
       1.3608936 -0.90320975 -1.8444699 1.3392122
000290 65 50 7e 3f 9c 88 01 40 ff 88 d4 3f bf c3 b7 3f
       0.9934142 2.023963 1.6604308 1.4356612
0002a0 d3 7a 46 bf ab 40 0a c0 30 28 e3 3f c8 e8 dc bf
       -0.77531165 -2.160197 1.7746639 -1.7258539
0002b0 e5 c6 f3 bf 87 3e e5 bf 47 69 f9 bf c6 01 f8 bf
       -1.9045073 -1.7909707 -1.9485253 -1.9375541
0002c0 09 81 d5 3f c6 75 88 bf 37 96 f5 bf 6a 6b f1 3f
       1.6680003 -1.0660942 -1.9186467 1.8860905
0002d0 16 49 b4 3f 5e bc ea bf 3b 0e 49 3f 1c 2f d8 3f
       1.4084804 -1.8338735 0.7853734 1.6889377
0002e0 06 02 f1 3f 2c 73 91 3f e4 c4 89 bf dd 7b c7 3f
       1.8828743 1.1363273 -1.0763211 1.5584675
0002f0 5e eb ea 3f c8 b8 ad bf cf 08 99 3f 49 aa e3 3f
       1.8353078 -1.3572016 1.1955813 1.7786342
000300 ec 93 6d bf 36 19 ed 3f 0b 35 07 40 f3 41 ce bf
       -0.92803836 1.8523319 2.1126125 -1.6113876
000310 28 cd fa bf 37 86 b0 bf 97 bf 12 3f de 51 4f bf
       -1.9593859 -1.3790959 0.5732359 -0.80984294
000320 17 88 77 bf bf 68 e2 bf 01 05 8c bf 6b b0 cd 3f
       -0.9669203 -1.7688216 -1.0939027 1.6069463
000330 15 18 0e 40 45 22 02 c0 44 46 bf 3f 25 43 a7 bf
       2.2202199 -2.0333416 1.4943318 -1.3067366
000340 3e ed 80 3f 0e b5 e8 3f 2d 33 dc 3f 64 a7 af 3f
       1.00724 1.8180254 1.7203118 1.3722959
000350 ba 48 b6 bf 8a 33 4b bf 25 b1 e1 bf 16 23 9b 3f
       -1.4240944 -0.7937552 -1.7632185 1.2120082
000360 f1 be f1 bf 2c 02 92 bf a2 73 f7 3f 23 30 72 3f
       -1.8886396 -1.1406913 1.9332163 0.946047
000370 90 54 b3 bf a0 40 92 bf 1f 66 12 c0 45 d1 c0 bf
       -1.4010181 -1.1425972 -2.287483 -1.5063864
000380 82 c1 b1 3f 41 c3 33 bf ac b0 cc bf c9 c5 9e 3f
       1.3887179 -0.7021981 -1.5991416 1.2404109
000390 fe b5 76 3f 89 cb f8 3f 80 ae da 3f 99 88 ab 3f
       0.9637145 1.9437114 1.7084503 1.3401061
0003a0 cb fa 33 bf 22 cd eb bf 5c 4a d5 3f 3d 4f b9 bf
       -0.70304555 -1.8421977 1.6663318 -1.4477307
0003b0 29 75 f8 bf d6 25 d3 bf 69 04 e9 bf 37 f4 e7 bf
       -1.9410754 -1.6495922 -1.8204471 -1.8121403
0003c0 19 d8 b4 3f 64 d6 7b bf 4f 3d c9 bf 05 b9 dd 3f
       1.4128448 -0.9837401 -1.5721835 1.7322088
0003d0 ce 5a b2 3f b6 6d e3 bf 88 66 64 3f 2f 01 d6 3f
       1.3933961 -1.7767856 0.8921895 1.6719111
0003e0 da 44 ef 3f 3b a9 89 3f cc 1e 8e bf 28 78 ab 3f
       1.8692887 1.075477 -1.1103148 1.3396044
0003f0 fd 8e e9 3f e2 36 a4 bf 0f 2a 88 3f 50 fc da 3f
       1.8246762 -1.2829249 1.0637835 1.710825

decoder.fc1.bias f4 [64]
000000 7b 8a 78 40 9a 75 72 40 3b 17 7b 40 66 61 71 40
       3.8834522 3.7884278 3.9232929 3.7715697
000010 d3 b6 75 40 6e 96 74 40 62 15 78 40 e7 d5 7b 40
       3.8392837 3.8216815 3.876305 3.9349306
000020 fc d5 e8 bc 6a 89 b3 bd d2 4f df bd 7f 0f 79 40
       -0.028422348 -0.08766444 -0.109038964 3.8915708
000030 a7 dc 6c 40 2e 4b b0 bd 30 ce 79 40 41 32 3a 40
       3.7009676 -0.086080894 3.9032097 2.9093173
000040 1d 22 71 40 1a 4f 06 be 80 9d 77 40 d6 2b 77 40
       3.767707 -0.13116112 3.868988 3.8620505
000050 40 b0 6e 40 57 98 70 40 84 58 7a 40 0c e6 79 40
       3.7295074 3.759298 3.9116526 3.904666
000060 65 7e 77 40 c9 44 83 bd 4b 60 77 40 b5 a8 0b 3f
       3.8670895 -0.06409604 3.8652523 0.545543
000070 e3 fb c9 bd 1a 0c 76 40 db 89 ac bd c1 ec 73 40
       -0.09862497 3.8444886 -0.08424731 3.8113253
000080 59 4c 7c 40 83 fa d1 bd d2 5c 0d be 44 fd 2f bd
       3.94216 -0.102528594 -0.1380494 -0.042966142
000090 6b 94 0a 40 4d a2 70 40 5a 6b ae bd c0 41 7f 40
       2.1653087 3.759906 -0.085165694 3.988388
0000a0 f0 c0 7c 40 95 cc b0 bd ac 57 70 40 e9 e5 fd bd
       3.949276 -0.08632771 3.755351 -0.123973675
0000b0 e3 e9 a5 bf cd b6 77 40 bf 47 7b 40 40 f6 7d 40
       -1.2962002 3.8705323 3.926254 3.968155
0000c0 71 e5 79 40 c5 48 e9 bc cf 01 f2 bd 34 4f d5 bd
       3.904629 -0.028477082 -0.11816751 -0.104154974
0000d0 34 49 d0 bd be 9a 38 40 cf 41 78 40 fc da 73 40
       -0.101702124 2.8844447 3.8790166 3.8102407
0000e0 db fa 6e 40 6d f6 89 3f 96 8e 7d 40 6f 7c 39 40
       3.734061 1.0778328 3.9618278 2.8982198
0000f0 1c 41 73 40 05 96 37 40 64 17 f2 bd bb 05 97 3f
       3.800849 2.8685315 -0.11820868 1.1798624

decoder.fc2.weight f4 [54, 64]
000000 7d bc 3f bd 7d ea 1c bc 26 3f 80 bd 85 3a 98 3c
       -0.046810616 -0.009577391 -0.062620446 0.018582592
000010 9c aa 64 3b f7 fe 81 bd 3b 48 f1 3b ab 44 9f bd
       0.003489173 -0.06347459 0.007363347 -0.07776769
000020 1d fb af bb 70 03 5b bd 8a 7e 9d bd 50 14 5e bd
       -0.005370511 -0.053470075 -0.07690151 -0.05421859
000030 90 7e 07 bc df 91 3b bd 2c 57 e4 bd 25 2b 74 bc
       -0.008269921 -0.04579341 -0.11149439 -0.014902865
000040 f9 4c a3 3d f0 fe 35 bc e4 00 17 bd bb 83 d6 bb
       0.07973666 -0.011108145 -0.036866084 -0.006546465
000050 ea 99 30 3d 0f f4 cf 3d a3 83 cf 3b ab 02 1c 3d
       0.043115534 0.10153972 0.006332831 0.038088482
000060 e6 b9 a9 bb 70 1b 9a bd 68 e6 ba bc 25 32 9a bc
       -0.0051796315 -0.075247645 -0.022814944 -0.018822739
000070 4a b6 f5 3d 31 87 e0 3d da fb 37 3d e4 62 f7 bc
       0.119976595 0.10963286 0.04491792 -0.030198522
000080 b2 7d d6 3c bf ba cd bd 5a 71 d4 bd b0 83 b6 bd
       0.026182983 -0.100453846 -0.103731826 -0.08911836
000090 cf 5b 9d bb 10 16 5d bc 72 ff 9e 3d d3 69 19 3d
       -0.004802204 -0.01349403 0.07763566 0.037454437
0000a0 ca 80 80 bc 27 89 b6 3d 7f 0c e3 3d 2d 99 fd bc
       -0.015686411 0.089128785 0.11086368 -0.030956829
0000b0 47 29 4c bc 1c d0 ed 3d 89 a9 0b bd e9 e9 70 3c
       -0.012461013 0.11611959 -0.03409723 0.014704206
0000c0 4e e8 eb 3d c9 64 65 bd 50 1f bb 3d c6 be a4 3d
       0.11518918 -0.05600432 0.09136832 0.080442
0000d0 56 bc e9 3d 40 97 ac bd 94 38 eb 3c 4b 66 ea bd
       0.11412875 -0.08427286 0.028713502 -0.11445292
0000e0 36 08 d9 bc 0f 4b b8 bc 49 66 07 bb 2d 4b d4 3d
       -0.026493173 -0.022496728 -0.0020660332 0.10365901
0000f0 df 0c c0 bd bb 8c 0d 3b f4 e8 c1 bd ee 24 3c 3d
       -0.09377455 0.0021598774 -0.094682604 0.045933656
000100 e0 c6 b6 3c bc 42 77 bc 58 4b d1 bc 2c 77 e7 3d
       0.022311628 -0.015091594 -0.025548622 0.11302027
000110 b5 29 c9 3d 0e 5a f4 3b bb 22 11 3d df 9f e4 3d
       0.09822408 0.0074570244 0.035433512 0.111633055
000120 83 f2 8c 3d cb 14 09 bd 4d cf 36 bc 23 f3 a8 3d
       0.06882193 -0.033467095 -0.011157823 0.082495
000130 d2 5a bf 3d c2 d7 f6 bd 86 17 0a be 01 10 05 3d
       0.093434945 -0.12052871 -0.13485536 0.032485966
000140 7c cd e3 bd 32 a7 d3 3d 51 35 9b 3d e4 ac a0 bd
       -0.111231774 0.10334624 0.07578529 -0.07845476
000150 a5 3b 8d 3d 40 ac e3 bd 80 35 78 bd e2 de 2f bd
       0.06896142 -0.111168385 -0.060597897 -0.042937167
000160 ce 5d 9a 3d 85 99 de bd 4e b7 72 bd d7 65 13 bd
       0.07537423 -0.10869125 -0.059256844 -0.035985794
000170 93 12 ee 3c 50 b6 b9 bd 82 0b be 3c f8 ba 53 bc
       0.029061591 -0.090679765 0.023198847 -0.012922995
000180 b3 ca 9c 3d a6 c2 3f bd bf d9 c4 3d b5 25 fb bd
       0.07655849 -0.04681649 0.09611844 -0.122630514
000190 8e cd a9 3d 8f e1 4f 3b c8 dc ce bd d6 40 0a be
       0.082911596 0.0031720137 -0.101007044 -0.13501295
0001a0 cd 28 a8 bb 6b c1 7d 3d f8 2c b5 3d a9 f3 84 bc
       -0.005131817 0.061952036 0.08846468 -0.016229467
0001b0 07 7e a7 3d 04 60 c7 bd 56 cc 33 3d c6 06 50 3d
       0.08178335 -0.097351104 0.04389604 0.05078771
0001c0 9b 26 a1 bd d7 04 ec 3d fb be 9a 3a cd 60 0e 3b
       -0.078686915 0.115243606 0.0011806184 0.0021725178
0001d0 30 82 31 bd 6f ed eb bd 20 87 41 3c e1 06 f7 bd
       -0.043337047 -0.11519896 0.0118120015 -0.12061859
0001e0 da 60 45 3d e7 0b a8 3d 0c 28 c6 bd 0b 7e 44 3d
       0.048188068 0.08205395 -0.09675607 0.047971766
0001f0 48 a7 af 3d 92 52 d6 3d c5 d1 7c 3d 9e 96 f1 bd
       0.08576828 0.10464968 0.06172349 -0.11796306
000200 2b 00 b0 3d ef 8b 7e 3d 6f 85 9f 3d 80 1b ed 3c
       0.08593782 0.06214517 0.07789122 0.028943777
000210 2c 61 36 3d 8a 2a 75 bb 29 22 ab bd 61 2f c6 3d
       0.044526264 -0.0037409388 -0.08356125 0.096770056
000220 78 24 d0 bd ec 6f cf bd fb ca d4 3c 16 e7 cd 3d
       -0.10163206 -0.10128769 0.025975695 0.10053842
000230 88 70 ee bc 73 0e fa 3d 60 58 52 bb 6b 23 85 bd
       -0.029106393 0.12209787 -0.0032096133 -0.06500896
000240 b7 85 a5 3c ea e1 a8 bc 50 f1 e4 bd 02 c1 fd 3c
       0.020205362 -0.020615537 -0.11178839 0.030975822
000250 d1 f5 06 bc 8f e3 bb bc 7c ad 5b bc 30 c9 d5 3c
       -0.008237318 -0.022935657 -0.013408061 0.02609691
000260 0e 7e 49 3d e8 45 a1 3d 22 3d 0c bc c0 69 04 3d
       0.04919248 0.07874662 -0.008559497 0.032327414
000270 25 b3 c1 bd 18 3a 98 3d 67 74 f3 bc 15 19 8d bd
       -0.09457997 0.074329555 -0.02971859 -0.0688955
000280 8d 16 1d 3c c1 7b 1d bd cf 0e 56 3d e5 9d 5f bd
       0.009587896 -0.0384481 0.052260216 -0.05459394
000290 0d 7f 05 bd 3e 87 c9 bd 6b 9f bc bc ba 8d 99 3d
       -0.03259187 -0.098402485 -0.023025235 0.07497735
0002a0 51 67 4d bd ec 0a 51 3d 60 31 36 3d 97 57 84 3d
       -0.05014736 0.051035807 0.04448068 0.06462019
0002b0 58 34 8a bd 4e e6 d2 bc 64 46 fc bd bd c4 06 bd
       -0.06748265 -0.025744583 -0.123181134 -0.032902468
0002c0 a5 1a d8 3d 50 05 d0 bd 7c eb 87 3d b0 c9 8e bd
       0.10551957 -0.10157263 0.06636712 -0.069720626
0002d0 7f 41 a7 bd 9a 98 61 bd f4 b2 a5 bc 48 64 c6 3c
       -0.08166789 -0.055077173 -0.020226933 0.02421774
0002e0 38 23 19 3d 6d d3 b7 3d 3c 0a ac bd 4b fc 2f 3d
       0.037387103 0.08975873 -0.084003896 0.042965215
0002f0 e4 49 03 be 3c ce 68 bc 40 62 f3 bd 1a c1 d4 bb
       -0.12821156 -0.014209326 -0.11883974 -0.006492746
000300 ee 7d 66 3c ce a0 fe 3c d5 7e 9c 3c 1f b4 81 3d
       0.01406811 0.031082537 0.019103447 0.063331835
000310 32 14 59 3d df 24 aa bd fe d0 b3 bd 94 a7 b6 3d
       0.052997775 -0.08307814 -0.087800965 0.08918682
000320 00 1e ac 3d 76 0f e5 bd 29 79 49 3d 81 73 a9 bd
       0.084041595 -0.111845896 0.049187813 -0.08273984
000330 48 91 95 bc 2d db b7 bd 40 a5 31 3d c1 d9 00 3d
       -0.018257752 -0.08977351 0.043370485 0.031457666
000340 a0 5f 6c 3c b6 21 ae bd 68 68 21 bd fe 7f c0 bd
       0.014427096 -0.085025236 -0.03940621 -0.093994126
000350 3e 95 a2 bd 96 83 37 3d 54 1a 08 3e 3b 5e 12 3d
       -0.07938622 0.044803225 0.13291293 0.035734396
000360 a5 ae f5 bc f9 12 4d 3c 37 5c 88 3c 07 9f 5d bc
       -0.029990504 0.01251673 0.016645534 -0.013526685
000370 59 93 de 3d bf 01 94 bd 39 3e f4 3b 09 8d 8c bd
       0.10867948 -0.072268955 0.0074537066 -0.06862838
000380 23 c3 bb bb 53 39 b0 bd 9a cb de bd 63 af 86 bd
       -0.005730049 -0.08604684 -0.10878678 -0.06576421
000390 dd c6 5e 3a 71 0f f5 ba 9a cb e5 bd df 06 5e 3d
       0.0008498261 -0.0018696618 -0.112204745 0.05420577
0003a0 61 88 b4 3c fe 51 b8 3d be 62 91 bd 83 36 e2 3c
       0.022037687 0.09000014 -0.07098912 0.027613884
0003b0 fb fe 36 3c 00 54 1b bd 0f 72 02 3d 8d b9 6c bc
       0.0111691905 -0.037921906 0.031847056 -0.014448536
0003c0 d0 bf bf bd d6 f7 0d 3d 76 8f e1 bd 80 5f 4c 3d
       -0.09362757 0.034660183 -0.11013691 0.049895763
0003d0 1b cb d9 3d e4 6a 93 bd 51 3b 9e 3d f0 4e 0a 3e
       0.106344424 -0.07198122 0.077261575 0.13506675
0003e0 e4 9a 6f bc 6d 29 1c bd 13 b8 7d 3c 2f 59 8a 3d
       -0.014624331 -0.038125444 0.015485781 0.06755292
0003f0 b5 69 34 bc 10 a6 91 bc be 0b 2e 3d b6 80 f5 3c
       -0.011011531 -0.01777938 0.042491667 0.0299686

decoder.fc2.bias f4 [54]
000000 ae db 8e 3d fc a6 3c bc 49 f0 08 3e e0 a5 a6 3c
       0.06975494 -0.011514422 0.13372912 0.020342767
000010 f8 f2 07 bd ef 01 c6 3d 95 2c fe 3c be da a8 3d
       -0.033190697 0.096683376 0.031027118 0.08244847
000020 95 cf 8e 3d 2a 48 f7 3f b4 29 21 3e ca 75 82 bc
       0.06973187 1.9318898 0.15738565 -0.015925307
000030 2b 8c 3d 3e 7f 9f 87 3c 6c 66 8c 3b c2 20 91 bd
       0.18510501 0.016555546 0.0042846706 -0.07086326
000040 47 a0 01 3c 23 44 a2 3d 5f 87 bf 3d ca 8e cc 3c
       0.007911748 0.07923152 0.09351992 0.02497043
000050 c7 56 11 3e 46 b6 2e 40 bc 08 7a 3d ff 39 bf 3c
       0.14193259 2.729875 0.061043486 0.023343084
000060 8c 9f ae 3e 35 35 e6 3c 1c 07 04 3e 66 75 37 3e
       0.341061 0.028101543 0.12893337 0.17915878
000070 a1 d8 7d 3d 44 c5 0c 3d 9a 21 4c 3d fd c5 39 3e
       0.06197417 0.034367815 0.049836732 0.18141933
000080 48 0b a0 bc b1 f9 17 3e 44 a0 17 3d fd 37 4f 3d
       -0.01953663 0.14841343 0.037018076 0.050590504
000090 f2 51 fd 3d e9 81 0e 3d 5f 90 ff 3d a3 15 fa bc
       0.123691455 0.03479186 0.124787085 -0.030527895
0000a0 a9 8f 6c 3d e2 33 27 3e 4a 9d 87 3e 8e 26 0d 3e
       0.057754193 0.16328385 0.2648719 0.13784239
0000b0 6c 71 5a 3e d0 dd b7 bc dc aa 7f 3d 3f 52 af bc
       0.2133233 -0.022444636 0.062418804 -0.021401523
0000c0 a8 2b 12 bd f5 de ee bc 75 a6 15 3d 9c 31 52 3d
       -0.035686165 -0.029159049 0.0365357 0.051316842
0000d0 c4 be 2c 40 eb 9f 4b 40
       2.6991434 3.1816356
