randhie_model.pth (torch, 60680 bytes, 8 tensors)

encoder.fc1.weight f4 [128, 44]
000000 6e b0 0a be 73 73 73 3c a4 97 cb 3a 93 81 83 3d
       -0.13543865 0.014859068 0.0015532863 0.06421199
000010 67 2a b1 bd 72 ac 84 bd 5a 5c dc bd 44 ff b3 3d
       -0.08650666 -0.06478204 -0.10759802 0.087889224
000020 01 45 80 bc 00 4a a1 bb c2 92 89 bd d4 ef c0 bc
       -0.015657904 -0.0049221516 -0.06717445 -0.023551859
000030 e9 4b 8b 3c 33 83 35 be 52 fc 73 bc 19 8f 2e 3d
       0.01700397 -0.1772583 -0.014891701 0.042616937
000040 3a 42 18 3e 47 f4 a4 b8 85 e8 83 bc 4a 88 06 3e
       0.14869013 -7.8656296e-05 -0.016102085 0.13137928
000050 a1 92 89 3d 41 d4 0c 3c f6 a6 ff 3d e6 1f 99 3d
       0.0671742 0.008595527 0.12483017 0.07476787
000060 9c 72 6a bd 37 f5 50 bd f0 e4 48 bd 75 bc b4 3b
       -0.057238206 -0.051015105 -0.049046457 0.00551563
000070 5c e8 ac bd ca a8 30 3e de 2c 0e be d6 6e 46 3d
       -0.084427565 0.17251888 -0.13884303 0.048445545
000080 64 ae a4 3b 28 01 c4 bb d7 a2 c2 3c a8 d8 c5 3d
       0.005025672 -0.005981583 0.023759289 0.096604645
000090 8d c8 e7 3d bb fd a6 bb 58 d9 e0 3d 07 ee aa bc
       0.11317549 -0.005096165 0.10978955 -0.020865453
0000a0 88 45 b7 3c f5 e3 30 3e fc 0a 02 3d 09 31 21 be
       0.022372022 0.17274459 0.031748757 -0.15741362
0000b0 a9 64 6b 3d ba 86 1f bd 8c 04 c9 bd 14 d9 07 bd
       0.057469044 -0.038946845 -0.098153204 -0.033166006
0000c0 39 07 5d 3e 76 43 d8 bd f3 ca 3b be 40 eb 01 3e
       0.21584786 -0.10559742 -0.18339138 0.12687397
0000d0 c3 d8 51 bd ea a7 9b bd be 96 06 3b a9 12 89 bd
       -0.05123211 -0.076003864 0.0020536627 -0.06693012
0000e0 9f e6 c7 3c 37 0f 47 3e 8f 72 bb 3c f9 19 20 3e
       0.02440196 0.19439398 0.022881774 0.15634908
0000f0 6c a6 04 3d 9f 82 cd 3d 32 41 d8 3d c3 1c 09 3e
       0.032385275 0.100346796 0.1055931 0.13389878
000100 de 14 8f 3e c5 14 c9 3d 19 6f a7 bd 8e 67 83 3d
       0.27945608 0.098184146 -0.08175487 0.06416236
000110 9b 23 d6 bc 34 5c 10 bd 47 19 84 3d c3 5d 2a be
       -0.026140025 -0.03524418 0.06450134 -0.1663733
000120 22 39 31 bd fc cf 22 3d 7b 6a d9 3c 08 b4 a6 bd
       -0.043267377 0.03974913 0.026540032 -0.08139807
000130 b0 63 80 be 2a 85 ba 3c a0 10 09 bc a1 2e 59 bd
       -0.25076056 0.022768576 -0.00836578 -0.053022984
000140 23 ff 64 3d 30 a7 0d bc 50 e3 cc 3c 85 a0 50 bc
       0.05590738 -0.008645818 0.025010735 -0.012733583
000150 88 78 2b 3e 4c 85 b5 bd 0c f0 b2 3d ab ac 27 3e
       0.16745198 -0.08863315 0.087371916 0.16374461
000160 61 37 60 3c ec 52 f7 bd b9 9b c6 be 10 5c 31 be
       0.013685078 -0.12076363 -0.38790682 -0.17320275
000170 68 59 3a bd 92 8d 02 be 77 ba a8 3d eb 09 ff bd
       -0.04549542 -0.12749317 0.0823869 -0.124530636
000180 d1 02 f9 3c c2 80 36 be d0 25 39 be bf 6c 34 bd
       0.03039685 -0.17822555 -0.1808083 -0.04404902
000190 46 a9 17 3e f1 8a c5 ba 09 10 07 be ec 12 c0 bc
       0.14810666 -0.0015071315 -0.1318971 -0.023446523
0001a0 b3 e7 b8 3d 46 b0 f6 3d 39 da 98 bb 2a 05 ea bd
       0.09028568 0.1204534 -0.004664686 -0.11426766
0001b0 e3 0b 03 be ec 63 19 3e 4d fe 0c be 3f 44 19 be
       -0.12797503 0.14979523 -0.13768883 -0.1496744
0001c0 dc 14 c7 bd c9 d3 9b bd 5e cc 25 be 4e 11 42 3d
       -0.097207755 -0.07608754 -0.16191241 0.047379784
0001d0 fb 33 2a 3e 86 3d e0 3c a1 d7 f6 3d 2f 20 04 be
       0.16621391 0.027373087 0.12052847 -0.12902902
0001e0 60 07 12 3e 64 5e 8d bd e9 21 24 3d 37 6c 89 3b
       0.14260626 -0.06902769 0.0400714 0.0041938084
0001f0 50 ca 9d bd 1d 87 0a 3e 25 03 3b 3d cd a2 01 be
       -0.07704604 0.13528104 0.045657296 -0.1265976
000200 a1 17 09 be 09 a7 0a be 83 24 3d be c7 de 07 3e
       -0.1338792 -0.13540281 -0.1847096 0.13268577
000210 66 73 cc 3b 18 ed 18 be 28 61 83 3d c8 2d e4 bc
       0.0062393425 -0.14934194 0.064150155 -0.027853861
000220 5c 13 ae 3b 39 64 92 3e 1c 6f 58 3d b0 b8 1e 3e
       0.0053123664 0.2859209 0.052840337 0.1550014
000230 76 49 de bd c5 01 e8 3d f0 b3 95 3e 50 c2 3a be
       -0.10853855 0.113284625 0.29238844 -0.18238187
000240 23 2d 47 3d cc e6 58 3e d2 33 12 3d 02 29 17 3e
       0.04862703 0.21181792 0.03569395 0.14761737
000250 85 dd ca 3d d6 3c 87 3d e2 eb 16 3e 34 36 86 3d
       0.09905533 0.066034004 0.1473842 0.06553307
000260 bc 87 d6 3d 9a 01 b1 bd bd fd ee 3d 81 53 5a be
       0.10475108 -0.086428836 0.116694905 -0.21320917
000270 39 14 93 3d 47 b3 aa bd 98 df 9c be e0 1b 89 3d
       0.071815915 -0.08334976 -0.30639338 0.0669477
000280 44 b1 69 3e 69 89 0c bd f6 1e d9 bd 9d 2b a8 3c
       0.22821528 -0.034310732 -0.106016085 0.020528609
000290 8c c6 21 3d ec c7 8e 3d f7 08 fb bd 30 10 48 bd
       0.03949599 0.06971726 -0.12257569 -0.048843563
0002a0 fb f6 ea 3c ed b6 cb bd 64 28 e6 3b c7 85 82 bd
       0.028682223 -0.09947 0.007023858 -0.06373172
0002b0 52 d5 be 3d ef 61 7d 3d ba eb 49 3b b0 c6 d1 3d
       0.09318031 0.061860975 0.003081067 0.10242975
0002c0 13 a6 7b 3e ee c2 06 3e 60 22 06 3d ac 77 a5 bc
       0.24575071 0.13160297 0.032747626 -0.020198666
0002d0 8f 84 a0 bd 23 c0 a9 bd 0d cf 96 bd 75 00 fb bd
       -0.078377835 -0.082886 -0.073637106 -0.122559465
0002e0 50 85 9c bd bb 3a 6d bd 46 77 8c be a2 59 6c be
       -0.07642615 -0.057917338 -0.27434748 -0.23081067
0002f0 b9 72 f5 3d 2a 2a 7e 3d 18 3f 08 bd 9a 5f c8 3c
       0.11984772 0.06205193 -0.033263296 0.024459649
000300 cb e6 1a 3d 60 db b1 3d a6 4f 16 be 95 00 7a 3d
       0.037817758 0.086844206 -0.14678821 0.06103571
000310 18 43 e4 3d ae 99 a4 bc 88 ab 13 be 80 fc 05 be
       0.111456096 -0.020092811 -0.14420903 -0.13084602
000320 b6 f0 b0 3d 59 06 30 bd a5 1b 31 3d 68 61 bf bd
       0.08639662 -0.042974804 0.043239255 -0.09344751
000330 95 4e ef bd 44 ec 49 be e6 d7 ca bd 19 d3 a0 3d
       -0.1168491 -0.19719034 -0.099044606 0.07852764
000340 fb 11 38 bc 72 a8 4a bd 6a 74 2e 3d 04 88 83 3d
       -0.011234756 -0.04947705 0.04259149 0.06422427
000350 68 b6 0e be 91 a0 11 3d f6 0b 70 3c ff 18 59 be
       -0.1393677 0.03555352 0.014651289 -0.21200942
000360 2a 6a 05 be 38 75 b4 bd 28 dc f2 3d d8 a6 29 3d
       -0.1302878 -0.0881142 0.11858398 0.04141888
000370 e7 56 be bd b0 64 3c 3c 8b 19 7b bd 3c 4b 09 3e
       -0.09293919 0.011498615 -0.061303657 0.13407606
000380 02 0c 57 3e ff ce 0d 3d 72 2f 00 bd 6b 23 de bd
       0.21000674 0.034621235 -0.031295247 -0.10846599
000390 23 31 b4 bb 26 4e 14 be fb 23 0a be da ad 74 3c
       -0.0054990216 -0.14482936 -0.13490288 0.014934028
0003a0 71 56 91 bd ef 8c c8 3d 62 84 b7 3d e7 b7 bd 3d
       -0.070965655 0.09792506 0.08960797 0.09263592
0003b0 1e 87 c6 3d 0d 83 b0 bd 72 63 fe 3d ac b1 f8 3d
       0.0969374 -0.08618746 0.124213114 0.12143263
0003c0 9e 1d f5 bd 6e 4c 9a 3c a2 fa 92 3c 09 00 83 bc
       -0.1196854 0.018835273 0.017941777 -0.015991228
0003d0 6a 51 3f 3e bc 1c e0 bb 7d 3a 03 3d 3d 8d b9 bd
       0.18683401 -0.006839363 0.0320382 -0.09060142
0003e0 e8 3e f1 3c c7 75 be 3c 34 12 62 3d 56 53 7c bd
       0.029448941 0.02324952 0.05519314 -0.061602913
0003f0 cf fe 1d 3e f9 04 9b bd 92 b8 2f 3e 74 6e 5e bc
       0.15429233 -0.07569308 0.17160252 -0.013576139

encoder.fc1.bias f4 [128]
000000 75 ec ec 3d 8d 6a b5 bd 43 b3 18 be dd 1b ad bd
       0.11568538 -0.088582136 -0.14912133 -0.0845258
000010 0e 58 b0 3d ab 26 c7 bc 64 30 00 be c2 0d 14 3c
       0.08610545 -0.02431043 -0.1251846 0.009036483
000020 e0 e3 88 bd 6c 95 b3 3d 58 c3 22 3e f4 f3 89 3e
       -0.06684089 0.08768734 0.1589483 0.26943934
000030 dc ed 10 3e de ac c6 bd 1d 5d f2 bd 25 99 b5 bd
       0.14153236 -0.097009405 -0.11834166 -0.088671006
000040 d3 2d 22 3e 71 9f b2 3e 2d e8 5f bc c6 ee c0 3d
       0.15837793 0.3488727 -0.013666195 0.094205424
000050 c2 06 d1 bb a7 4e 5e 3d 11 f4 10 3e c9 c6 ef bd
       -0.0063789794 0.054274227 0.14155604 -0.11707837
000060 d7 aa 50 3d 83 aa fc 3d 3b 25 59 3d 37 7b 77 3b
       0.050944176 0.1233721 0.05301402 0.003776265
000070 6e 6a a0 3d 41 1e 11 3e 75 f7 e0 bd 54 42 e1 bc
       0.078328 0.14171697 -0.10984699 -0.027497448
000080 d3 46 e7 3b 11 cd 26 3e 48 d5 13 3b 12 2e d7 3d
       0.0070580035 0.16289164 0.0022557545 0.10506834
000090 c3 30 ef 3d b1 d2 8f 39 e0 4d 98 bd 28 4f 3d 3e
       0.116792224 0.00027432063 -0.074367285 0.18487227
0000a0 6a 9c 87 3e 57 55 0c be 06 ba 93 3e ca 34 b1 3c
       0.26486522 -0.1370443 0.28852862 0.021631617
0000b0 3d eb 01 3e 61 a5 25 bd 8c b8 4c 3e 99 72 c9 3d
       0.12687393 -0.04044092 0.19992274 0.09836311
0000c0 05 ed b6 3d 51 dc 07 3f a3 76 2a 3e 87 b8 aa 3e
       0.08931927 0.5307055 0.16646819 0.33343908
0000d0 fc b6 1f 3e 39 29 b4 3d ed b2 8d 3c 05 68 6d bd
       0.15597147 0.08796925 0.017297233 -0.05796053
0000e0 94 7a d3 3d 0d f7 dc bd ff 20 64 3e 80 96 10 bd
       0.10326114 -0.10789309 0.22278212 -0.035299778
0000f0 94 a6 4d 3d 70 1f b8 3e c2 a8 25 3e 34 0a 19 bd
       0.05020769 0.35961485 0.16177657 -0.037363246
000100 dc 91 a9 bd 48 0a 42 3e 77 5f 76 3c fa 34 3c 3d
       -0.082797736 0.18949234 0.015037409 0.04594896
000110 3f cd e5 bd 56 1e f2 3c 38 31 3a 3d ab fe 9c 3d
       -0.11220788 0.02955548 0.045457095 0.076657616
000120 63 02 8b 3d 98 6b 18 bd 8d 99 c4 3c 82 ba ea 3e
       0.067875646 -0.037211984 0.023999 0.4584542
000130 85 71 24 3e e5 c7 6b b8 93 6d 20 3e 6f 71 19 3d
       0.1605893 -5.6214532e-05 0.15666799 0.037461694
000140 b2 4d f9 3d 9e e8 db 3d 38 69 2c 3d 5d 84 76 bd
       0.12173022 0.107377276 0.042092532 -0.060184825
000150 78 e4 03 3e 8c 69 c8 bc fd 85 2e 3e 25 94 ac bc
       0.12880123 -0.024464391 0.170433 -0.021066735
000160 fc a0 ce 3d b2 d4 bb 3e da bf 00 3e 5a f6 24 3e
       0.10089299 0.3668571 0.12573186 0.161096
000170 3a 73 26 bd 3c 99 35 3e 41 34 0a bd de 62 3f 3d
       -0.040637232 0.17734236 -0.03374124 0.046725146
000180 91 59 95 3d 99 a4 ba bc c6 d6 b2 3d d0 19 d6 3d
       0.07292474 -0.022783564 0.08732371 0.10454142
000190 4b 90 55 3b 84 36 10 bd 05 26 dd 3d 2f 98 12 3e
       0.0032587226 -0.03520824 0.10798267 0.14315866
0001a0 be 2e ae 3e 1f a6 d5 3c 8a 9f 17 be fb a6 04 bc
       0.34020036 0.02608019 -0.14806953 -0.008096452
0001b0 c4 42 27 bd 03 a8 03 be a4 33 1c 3e 5b ef c7 3c
       -0.040835157 -0.1285706 0.15254074 0.024406126
0001c0 3a 94 e0 bd 35 46 1a 3e 51 35 0e 3d 66 42 a3 3e
       -0.10965772 0.15065844 0.034718815 0.31886595
0001d0 0f 4f f2 3e 69 1c 28 3b 8a 8b 53 bc 4f 18 2e 3e
       0.47325942 0.00256517 -0.012911687 0.1700146
0001e0 a0 a4 ac 3d 2e c9 97 bd 3b aa c4 3d 9a 4a 09 be
       0.08429837 -0.07411419 0.096027814 -0.13407364
0001f0 7f eb 39 3d 0b 9a d2 3d 91 24 43 3d ac bb 8b 3c
       0.045390602 0.102832876 0.047642294 0.017057262

encoder.fc2.weight f4 [40, 128]
000000 9e 5d d7 bd 78 05 17 b9 a8 9a ab bd ee 9a 84 bd
       -0.10515903 -0.0001440252 -0.08379108 -0.06474863
000010 28 07 6c 3d 5a ef 04 3d 2d 21 e7 3a 84 0c 2b bd
       0.057624012 0.032454826 0.0017633789 -0.041759983
000020 a9 df 29 bd a6 3f a6 3c df 60 ef 3c 9c f3 3e 3d
       -0.041473065 0.020294022 0.029220996 0.046619043
000030 ad 6b a6 bc 59 bb 86 bd da 57 ca bd 3b ea c2 bc
       -0.020315016 -0.065787025 -0.098800376 -0.02379333
000040 4f b7 76 be 9b 48 ab bd a5 b9 8e 3d e4 ce 3e bd
       -0.24093364 -0.08363458 0.06969003 -0.046584025
000050 cf 6d 4a bb 9b 76 76 be 3e a9 ca 3e 3c 32 e4 3c
       -0.0030888205 -0.24068682 0.39582247 0.027855985
000060 51 ca 7c bd 66 a0 e3 ba e1 fc 88 bd f8 6c d1 3d
       -0.06171638 -0.0017366528 -0.06688858 0.10225862
000070 e3 83 d6 bd 3a 9c 80 bd 1a f1 00 bd cb 16 a5 bd
       -0.10474374 -0.06279798 -0.031479932 -0.08060988
000080 7f b3 19 bc 8e a5 d1 bb 5d c4 aa bd 83 bd dc 3d
       -0.009381174 -0.0063979095 -0.083382346 0.10778334
000090 c9 42 d4 bd eb 38 16 3c 1a 08 95 3b c1 ac 3c be
       -0.10364301 0.009168844 0.004548085 -0.18425275
0000a0 c7 a7 86 3e 8a 79 93 bd d9 6f 49 bd 28 3c 36 bc
       0.2629988 -0.07200916 -0.04917893 -0.011122741
0000b0 c0 90 00 3d f5 b4 5d 3c d1 76 35 3e 1d 62 87 3d
       0.031388044 0.013531913 0.17721106 0.066105105
0000c0 10 2e 6b bd 10 1b cc 3c 8a 00 18 bc a7 cd 1b 3e
       -0.057416975 0.024915248 -0.009277472 0.15215169
0000d0 82 4f 62 bd 7b 1f ae be 49 d6 4c bd 4a b8 7e bd
       -0.055251606 -0.34008393 -0.050009046 -0.06218747
0000e0 32 b9 6a 3d de 07 45 bd 6b 87 08 3e 1e 68 53 bd
       0.057305522 -0.048103206 0.13332908 -0.051612966
0000f0 01 b3 88 bd c6 c1 a8 3c 09 41 13 3d 3b 94 b4 be
       -0.06674767 0.02060021 0.035950694 -0.3526934
000100 41 8c fc 3a 3c 03 db bd f0 ae 2d 3e 12 c6 00 bd
       0.0019267873 -0.10693976 0.16961265 -0.031438895
000110 a0 2c b0 bd de 96 2e 3e bc dc d9 bd c5 9f a3 bd
       -0.086022615 0.17049739 -0.10637805 -0.07989458
000120 e6 40 8a bd 0c 9b b8 3c c4 4a df bc 57 02 3e 3e
       -0.0675066 0.02253487 -0.02725733 0.1855558
000130 bb db 04 bd 16 e6 58 bd b9 b6 1c 3d b9 31 db 3e
       -0.032436114 -0.052953802 0.038260195 0.42811373
000140 90 4d 89 bc b5 34 a6 bb be 0a 3f bd 6b fd 77 3b
       -0.016760617 -0.005072201 -0.046641104 0.0037840258
000150 3f 82 1a 3d ae 7c ff bd 86 0f 8f bd 43 6f 5f bd
       0.03772187 -0.12474953 -0.06985383 -0.054549467
000160 74 1e 9a bd 59 38 97 3c e5 61 38 be e1 44 ee 3c
       -0.0752534 0.018459486 -0.18006094 0.029085578
000170 03 9c 07 bd fd 6e 75 bd 98 4a bd bd cc 3e 3e bd
       -0.03310777 -0.0599203 -0.09242743 -0.046446607
000180 be 46 33 3d 71 5b 29 3d 19 52 92 bd d1 8a b6 bd
       0.043768637 0.04134697 -0.07144565 -0.08913196
000190 c0 a0 0c bc 53 18 83 3d 5d cc 94 bd 88 33 37 be
       -0.008583248 0.06401124 -0.07265542 -0.17890751
0001a0 b7 79 ee 3e 4b 62 35 3d 02 22 a7 3d cc 63 5f 3d
       0.46577236 0.044283193 0.08160783 0.054538533
0001b0 30 82 0a 3d 42 e4 33 bd 52 7b 8e 3b c0 33 1e 3d
       0.033815563 -0.043918855 0.004348197 0.03862357
0001c0 d4 e2 a1 bd af e7 bd bc 2d 34 9c bd 42 40 92 3e
       -0.07904592 -0.023181764 -0.07627139 0.2856465
0001d0 26 bc 3b 3e 5c a6 91 3d 07 30 42 bd 9c d9 cd bd
       0.18333492 0.07111809 -0.047409084 -0.10051271
0001e0 28 b5 91 3c 64 80 01 be 73 e9 88 bd cf b0 ed 3c
       0.017786577 -0.12646633 -0.06685152 0.029014973
0001f0 41 b7 7c 3d d3 54 83 be c9 ba f0 bd 7e f3 ff bc
       0.061698202 -0.25650653 -0.117543764 -0.031244036
000200 1d 24 79 bb 86 18 13 3d 3b fe 49 bd 87 a1 0a 3d
       -0.003801591 0.03591206 -0.04931472 0.03384545
000210 a6 30 af bc a2 00 dc bc 80 7f 95 3d 59 27 3d bd
       -0.021385502 -0.02685577 0.07299709 -0.046180103
000220 d9 33 9a 3d 71 11 0f bd 10 48 41 bd 01 96 e9 bd
       0.075294204 -0.034928743 -0.047187865 -0.11405564
000230 e0 d0 b8 3d 26 71 12 bd f2 db e9 bb 1a 87 ee bc
       0.09024215 -0.035752438 -0.007136815 -0.029117156
000240 11 e9 36 3d e8 e1 22 3e 58 9b 27 bd 1b dd b0 bd
       0.044655863 0.15906489 -0.04091963 -0.086359225
000250 81 19 01 be eb 1c 40 3d 77 28 ce 3c 76 73 bf bb
       -0.12607385 0.04690258 0.02516578 -0.0058426214
000260 16 68 93 bd 8c 82 84 3d 41 35 45 bc ac cb 2b 3d
       -0.07197587 0.06470212 -0.0120366225 0.041942284
000270 0f 16 66 3d b5 6d 39 3d 24 90 b2 3d 40 89 3e bd
       0.05617338 0.04527064 0.08718899 -0.04651761
000280 29 03 02 3e e7 b6 da 3c bf 1b 63 bd 42 7d 9d 3e
       0.12696518 0.026698543 -0.055446383 0.30759627
000290 75 22 a8 3c de 7a e3 3c 9b d9 d7 3d 67 6c 4c be
       0.020524243 0.027768549 0.10539552 -0.19963227
0002a0 43 f1 55 3e 90 05 c1 3c 1e 7f 79 3e 2c bd 10 be
       0.20892815 0.023562223 0.24364898 -0.14134663
0002b0 ca 79 95 3d a1 25 b5 3d 55 1f ec bd 37 73 f8 3d
       0.0729862 0.08845068 -0.115294136 0.121313505
0002c0 58 d7 87 3e e0 5e 9d 3d a8 57 07 3d bc de c2 be
       0.26531482 0.076841116 0.03304258 -0.38060558
0002d0 ea de 1c be cb 10 10 be 3b 0d 52 bc 06 55 72 3d
       -0.1531941 -0.14068906 -0.012820537 0.059163116
0002e0 2a 02 00 3d a4 d6 04 bd 36 d9 29 bc 1d b7 91 bc
       0.031252064 -0.03243126 -0.0103667285 -0.01778751
0002f0 13 56 35 3c 09 8a b4 3e f8 d4 85 bd 86 f3 32 bd
       0.011067885 0.35261562 -0.06534761 -0.043689273
000300 b7 2d f2 3d 1d 11 80 3d 74 e1 88 bd 47 22 20 be
       0.11825126 0.06253264 -0.06683627 -0.15638076
000310 af 7a d6 3d ab ef 3e 3d b9 be 13 bd c7 e7 41 bd
       0.10472619 0.046615284 -0.03607056 -0.04734018
000320 0a 68 aa 3d 7e 37 b9 bd dd f5 1a be f9 6c cb 3e
       0.08320625 -0.090437874 -0.15132852 0.39731577
000330 d6 00 b6 bc 18 38 46 bc 9e ba 0c be a4 ad e3 bd
       -0.022217195 -0.012098335 -0.13743064 -0.11117104
000340 ba a3 a1 3d dc 15 f6 3d 73 ff 4a 3d 93 ed e9 3c
       0.078925565 0.12015888 0.04956002 0.028555667
000350 6d 77 3b 3d 03 3e 3e 3d a4 2a 15 3b 7f 33 3a bd
       0.04576819 0.046445858 0.0022761011 -0.045459267
000360 b7 98 d9 3c eb 73 5b bd 20 eb 3e be 73 cf 53 be
       0.026562078 -0.053577345 -0.1864438 -0.20684604
000370 e3 23 a8 3d 31 96 6f 3d 90 01 6d bc 73 cc 17 3d
       0.0820997 0.058492843 -0.014465705 0.037060212
000380 23 d2 2f bc 47 1d 92 3d f4 df 42 be b3 c3 f7 3d
       -0.010731253 0.071344905 -0.19030744 0.120978735
000390 92 f2 eb bc 5e 24 66 3d 50 ae 6c 3d ed 7b 0e be
       -0.02880219 0.056187026 0.057783425 -0.13914461
0003a0 5d ed 0a be 8c 11 8d 3d b3 2d 7a bd 27 84 f0 3d
       -0.1356711 0.068881124 -0.06107874 0.11743956
0003b0 ad 31 7a 3c d7 80 e9 bc 46 ed 79 bd 00 b7 94 3d
       0.015270633 -0.028503818 -0.061017297 0.07261467
0003c0 0a 17 ae 3d b1 be 23 3d c4 8b a9 3d 96 e3 5b 3e
       0.08500488 0.03997678 0.08278611 0.21473536
0003d0 d0 8f 26 bd a2 90 15 bd 1b 7d db 3d eb 7d b8 3d
       -0.040664494 -0.036514886 0.10717221 0.09008392
0003e0 32 e0 78 3d 5a 73 f4 3c 7f b4 b1 bd b2 fd da 3c
       0.060760684 0.02984016 -0.08677005 0.0267323
0003f0 6f 49 10 bd 8e 1f 16 3e cf 29 38 3d 23 f6 21 3d
       -0.03522628 0.14660475 0.044961747 0.039541375

encoder.fc2.bias f4 [40]
000000 c1 f9 01 3d bf 3e b1 3d e3 fc d4 bb 14 77 d9 bc
       0.031732325 0.08654546 -0.006499873 -0.026546039
000010 02 92 a0 3b e2 1f a4 3b a2 15 71 3c be 51 87 3d
       0.004900218 0.0050086835 0.01471463 0.06607388
000020 60 3e 10 bc c4 69 91 3d 74 d9 a1 bc 6f 48 4f bd
       -0.008803934 0.07100251 -0.01975701 -0.050606187
000030 35 0d 92 3d 0a e2 51 bd 44 00 bd 3d f0 a5 6e 3d
       0.07131425 -0.05124096 0.09228566 0.05826372
000040 3b 3d 68 bd 36 36 cb 3d dd 3b 86 3d f5 4b ad bd
       -0.05669902 0.09922449 0.06554387 -0.08461753
000050 4a 4d 43 3b 05 09 a3 bd b3 e8 9b bd 75 82 00 bc
       0.0029800707 -0.07960705 -0.07612743 -0.007843603
000060 04 6d 4d 3d 74 74 50 3d 7d 3b 5a 3d 2b 04 fb 3c
       0.050152794 0.05089231 0.05327939 0.030641636
000070 b9 1f b8 bd d8 82 27 3c c1 71 c8 bd 27 50 a7 3d
       -0.089904256 0.010224067 -0.09787322 0.08169585
000080 99 50 0d bb 28 fa 0a bd 18 eb 3c 3d 8d 5c 8a 3d
       -0.0021562933 -0.033929974 0.04612264 0.06755934
000090 66 1c fa bc b5 55 2d 3b 0e 70 62 ba 21 bf 06 3d
       -0.03053112 0.002644879 -0.0008637913 0.03289712

decoder.fc1.weight f4 [40, 40]
000000 ef 3a 06 be 2f 61 a7 bd 1f 62 50 3d d1 45 ba bd
       -0.13108419 -0.08172833 0.050874826 -0.09095348
000010 57 98 94 bc 50 81 d3 3c fe 9d 28 be b2 40 a3 bc
       -0.018139048 0.025818497 -0.16466519 -0.01992831
000020 90 ca 59 3d 8b 07 f1 3d ae 58 b1 3d d7 3d 82 bd
       0.053171694 0.11769017 0.086594924 -0.06359451
000030 33 08 9b 3d 8f 2c ec bb fa a2 0a be 8e c2 ab bd
       0.07569923 -0.0072074602 -0.13538733 -0.08386718
000040 15 a1 b5 3d 1e 80 50 bd d1 bf 9f 3d aa 99 59 bc
       0.088686146 -0.050903432 0.07800258 -0.013281265
000050 4a 52 03 3d ce 42 00 3d 8e ce d6 3d d0 c9 09 be
       0.0320609 0.03131371 0.10488616 -0.13455892
000060 b0 5e e5 bd a9 d9 54 3d 3d 1d 8e 3c 7a 24 ae 3d
       -0.11199701 0.05196539 0.017347926 0.08503051
000070 b1 fc d2 bb af ad a4 bd 04 8d 40 3a d2 59 60 bd
       -0.0064388146 -0.0804094 0.0007345232 -0.05477316
000080 ff 0a 0f be e7 21 c0 3d 5f e1 8b bd 31 31 9b bd
       -0.13969038 0.09381466 -0.068300955 -0.07577742
000090 57 0d 06 be 2d 0e 28 be 09 39 fa 3d 02 40 ac 3c
       -0.13091026 -0.16411658 0.1221791 0.021026615
0000a0 52 5f c1 bd 2f 54 ff bd 1c c6 05 be 5c 01 d0 3d
       -0.09442009 -0.124672286 -0.13063854 0.10156509
0000b0 ca 2d 39 bd e7 94 0c be 52 d1 a8 3c 27 5d 2f bd
       -0.045209683 -0.13728677 0.020607624 -0.042813446
0000c0 28 e7 4b 3d 48 54 06 3e 28 40 df bc 57 d4 d6 bd
       0.049780995 0.13118088 -0.027252272 -0.10489719
0000d0 2f b9 8e 3d 67 90 79 bd f2 7c 18 3d 86 c4 d6 bd
       0.06968915 -0.06092873 0.037228532 -0.104867026
0000e0 16 75 a0 3d d0 d2 bc 3d 8e 8a e5 bc f4 75 71 bc
       0.07834832 0.09219897 -0.02802017 -0.014737595
0000f0 54 be 1b 3e 2a f4 de 3c 64 35 b9 3d bf 43 68 bb
       0.15209323 0.027216036 0.090433866 -0.003544077
000100 7d c1 e1 3d 13 3a 2c be 22 f8 88 3d a3 5e f5 3c
       0.11023233 -0.16819029 0.066879526 0.029952353
000110 a0 b8 5e 3d e8 44 25 bd 8e e0 ca bd 8e 0d b5 bb
       0.05437529 -0.040348917 -0.09906112 -0.0055252975
000120 a3 b5 70 bd d6 14 2f be 98 be a1 bc 95 f6 ee 3c
       -0.058766972 -0.17097792 -0.019744202 0.029170314
000130 7a 99 bf bc 4a a7 a5 bd 84 26 f1 bd aa 24 aa 3c
       -0.023388613 -0.080885485 -0.117749244 0.020769436
000140 0b fb a9 3d 9e fb d1 3d 24 e3 b6 bd a5 81 15 3e
       0.08299836 0.1025307 -0.089300424 0.14600237
000150 21 fe 51 bc b6 3a 0b be 40 19 b0 bb 35 3c c3 bd
       -0.012816937 -0.13596615 -0.005374104 -0.09532968
000160 51 2a 6f be ce 95 11 3e e4 ab dc 3d 0c 0b 0f 3e
       -0.23355986 0.14217302 0.10774973 0.13969058
000170 ef 89 43 be 03 77 28 be c7 c4 c0 bd 56 77 03 be
       -0.19095586 -0.1645165 -0.09412532 -0.12838492
000180 6a 14 12 bd 37 94 a3 bd 22 d7 89 bd 65 a3 7d 3e
       -0.035664 -0.07987254 -0.067304865 0.24769361
000190 ba 41 1e bb c7 c0 b2 bd b3 22 8d bd 19 99 3c 3d
       -0.0024148063 -0.087281756 -0.06891384 0.046044443
0001a0 0d 49 c5 3d 1e ea cd bc f9 dc a7 3d 2f 48 f8 3d
       0.09633074 -0.02513605 0.08196444 0.12123143
0001b0 ca 1d 4b be d2 0d 50 3e 4c a5 20 3d 22 0b 86 3d
       -0.19835582 0.20317772 0.03922014 0.06545092
0001c0 df 17 4e bd 23 fd 6d 3d e8 26 a2 3c e8 a0 35 bd
       -0.050315734 0.058102738 0.019793943 -0.044342905
0001d0 6a 6c f2 bd bb 77 8d 3c f9 75 17 be 65 3d 3b 3c
       -0.118370846 0.017269006 -0.14791097 0.011428212
0001e0 4d b3 f4 3c 1f b8 b3 3d 36 48 ef 3d 2f 27 c7 bd
       0.029870654 0.08775353 0.11683695 -0.097242706
0001f0 0c a8 d1 bd c0 06 97 3d bd b6 25 3d 9b 8e 49 bd
       -0.102371305 0.07374334 0.040457476 -0.049208265
000200 4a 74 ac 3b a2 29 39 bd de 7e ed bd ac 70 ec bc
       0.005262886 -0.04520572 -0.115964636 -0.02886232
000210 a2 18 c3 3d 34 af f9 3d 0f 0e bd bd 1b 1e 30 3d
       0.09526183 0.121916205 -0.09231197 0.04299746
000220 40 cb 04 be e8 8a 19 bc e7 bb 1b 3e 05 a8 21 3e
       -0.12968159 -0.009371497 0.15208398 0.1578675
000230 e0 98 b2 3c 13 7d 86 bc f5 50 c4 bd 59 8c 73 3b
       0.021801412 -0.016417062 -0.09585754 0.003716251
000240 24 21 bd bd 7e 3a ff bd 51 7b c4 3d 44 18 83 3c
       -0.09234837 -0.124623284 0.09593833 0.016002782
000250 70 fe 0a 3e ee ee 48 bd fc 8c 3e 3c b9 70 a3 3d
       0.13573623 -0.049055986 0.011630293 0.079804845
000260 ac fe fc 3b 5b c4 b2 3d a3 fa b5 bd bd d9 de bd
       0.007720789 0.08728858 -0.08885696 -0.10881374
000270 d1 95 12 3d b0 a1 87 3d b1 4d ee bd a6 4c d0 bd
       0.035787407 0.06622636 -0.11635912 -0.101708695
000280 ef 64 f5 bd 92 8f a2 bd 36 c1 a6 3d 89 7e 90 3d
       -0.11982142 -0.0793754 0.08142321 0.07055385
000290 87 93 05 3e c0 7f f4 3d fa 36 c0 3d 00 97 83 3d
       0.13044558 0.11938429 0.09385486 0.06425285
0002a0 c3 0c ee bd 52 02 e2 3d 3f 69 b9 3c f7 79 7a 3c
       -0.11623528 0.11035599 0.022633193 0.015287868
0002b0 86 0c 13 3e d8 f3 8e 3c 79 54 d7 bd 31 c9 03 be
       0.14360246 0.017450258 -0.10514159 -0.12869717
0002c0 cf d8 fd 3d 72 36 82 bd c1 fd 79 3c 53 31 cb bd
       0.123948686 -0.06358041 0.015258254 -0.09921517
0002d0 1f b5 d9 bd af 5a 08 3e f8 b5 b9 3a cb 02 ed bd
       -0.10630249 0.13315843 0.0014168611 -0.11572798
0002e0 30 78 34 3d 91 1f 05 be 5d 0f af bc 20 81 07 be
       0.044059932 -0.13000323 -0.02136963 -0.13232851
0002f0 84 87 fb 3d 9b 12 16 3d 5e 2e 92 bd 9f 06 13 be
       0.12281707 0.036638837 -0.0713775 -0.14357994
000300 63 60 4c bd 64 7e 83 3c b5 6e 8c 3d 32 e1 85 bc
       -0.04989661 0.016051479 0.06857053 -0.016342733
000310 26 d4 18 be fb 36 03 3e ea fb 07 3e 21 77 e5 3d
       -0.14924678 0.12813942 0.13279691 0.11204363
000320 5d 21 0e bd 0b eb a7 3d b6 d8 bd 3d 58 50 ef 3d
       -0.034699786 0.08199128 0.0926985 0.11685246
000330 03 43 e0 3d a7 04 09 3e af 3a b1 3d fc 0c 5f bd
       0.109502815 0.13380681 0.08653771 -0.054455742
000340 d1 27 f1 bd 0b 73 08 3e 9a 5c d1 bd 43 51 1a be
       -0.117751725 0.13325135 -0.102227405 -0.15070061
000350 0d 4b b0 3c 00 a8 21 be f5 8e 25 3e e2 24 cd bd
       0.021520162 -0.15786743 0.16167815 -0.100168005
000360 76 11 e3 3d ed 48 28 3e f0 98 0f 3e 1a 18 f3 bd
       0.11087315 0.16434069 0.14023185 -0.118698314
000370 b6 3d 81 3c d9 72 07 be ea 89 cc bd f1 20 bf 3c
       0.015776496 -0.13227405 -0.099872425 0.023331137
000380 de 02 ce bd c1 c6 0c 3e 5b f5 99 bd 4e 00 1b 3e
       -0.100591406 0.13747694 -0.07517501 0.15136835
000390 a1 95 90 bc 19 6a 09 be 84 f5 3a 3d 02 13 1a 3e
       -0.017649474 -0.1341938 0.0456443 0.15046313
0003a0 99 44 0a be 85 46 fc bc f0 9a c9 bd d5 33 df 3d
       -0.1350273 -0.030795345 -0.09844005 0.10898558
0003b0 23 31 d5 bc 5f 8a 09 bd cf 9b 62 bd 16 ab a6 bd
       -0.026024407 -0.033579227 -0.055324372 -0.08138101
0003c0 1c 5b 9b bb 94 4e 40 be e8 5e 4b 3d 2c f8 49 3c
       -0.0047410857 -0.18779975 0.049651057 0.012327235
0003d0 78 fe 74 3c fa fd b0 3b 54 2c dc 3d c5 57 80 3e
       0.014953248 0.00540137 0.107506424 0.25066963
0003e0 08 f3 09 be 65 92 16 be 0d 9f 2c be 33 69 cf bd
       -0.13471615 -0.14704283 -0.16857548 -0.10127487
0003f0 56 c5 63 3b b1 89 41 be d6 c2 d3 bd ad 49 a9 bc
       0.0034755073 -0.18900181 -0.103398964 -0.020665014

decoder.fc1.bias f4 [40]
000000 1f aa 0a bc d8 c9 3d bd 3b 19 3c bd 5e 1d a1 3d
       -0.008463412 -0.04633507 -0.0459225 0.078669295
000010 a7 c4 c4 3d 43 ab f2 3d 71 e5 a1 bd 82 df f7 bd
       0.09607821 0.11849072 -0.079050906 -0.121031776
000020 0f 40 85 3d 88 f3 f9 3c b8 10 2e 3e 19 d9 f6 ba
       0.06506359 0.030511633 0.16998565 -0.0018833011
000030 c3 92 9d 3d c5 03 c6 3d 6b 83 0c be 55 cb 9f 3c
       0.07694008 0.09668688 -0.13722007 0.019506136
000040 70 03 25 3d 8f cf a0 3d 56 cd e7 bc ab 03 05 bf
       0.04028648 0.07852089 -0.028296154 -0.5195872
000050 fe 28 96 bc 71 63 b1 3c bd 10 75 bd 38 00 ac bd
       -0.018330093 0.021653863 -0.059830416 -0.08398479
000060 23 83 f8 3d 32 53 a8 bd 6d 3d a8 3c 86 93 f9 bd
       0.12134387 -0.08218993 0.020537103 -0.12186341
000070 34 c7 48 3d 9a dc d5 3c fe 7d 50 3d 45 27 5d 3d
       0.0490181 0.026106168 0.050901406 0.05399253
000080 ef 57 11 be 33 18 6d bd 88 60 1f 3e d1 13 3a 3e
       -0.141937 -0.057884406 0.15564167 0.18171622
000090 e3 37 47 bd a6 e8 71 3d 14 41 12 3e 3e 69 29 3e
       -0.048637282 0.05905976 0.14282638 0.16544053

decoder.fc2.weight f4 [44, 40]
000000 4a 56 00 3e b8 ee 91 bd 8a 58 c8 3d 2e 2d 40 be
       0.12532917 -0.0712561 0.097825125 -0.18767235
000010 10 e8 d0 3c f5 65 f5 3c 22 dd 6e be ac 35 e1 3c
       0.025501281 0.029955843 -0.23326543 0.027491413
000020 93 42 b5 3d 4c df 87 3e 9c 92 d8 3c b4 2a 80 3d
       0.08850589 0.2653755 0.026437096 0.06258145
000030 7e 2b 17 be 68 dc 3e bd 64 21 2a bd 76 77 17 3e
       -0.14762685 -0.046596915 -0.04153575 0.14791664
000040 ff b9 e7 3d 92 f1 16 be 3c 0c 92 3d 41 13 ec bd
       0.11314773 -0.1474059 0.0713124 -0.1152711
000050 12 dc 68 bd 57 bc 81 3d 83 ee a5 3d 47 f9 13 be
       -0.0568505 0.06334751 0.08102133 -0.1445056
000060 79 e3 ea bb 1b 31 b4 3d f9 1c 63 3d da 43 a3 bc
       -0.00716823 0.087984286 0.055447552 -0.019929815
000070 91 f0 9b bd 4d 5f 06 bd c3 7d eb bc 0b ad 03 3e
       -0.07614244 -0.03280573 -0.028746491 0.1285898
000080 aa df 20 be e5 a8 39 3e 17 2d a3 3d 75 2a 9d 3d
       -0.15710321 0.18130834 0.079675846 0.07674114
000090 2a 07 d8 3d 46 ac 22 bd c1 8f e6 3d ca 95 17 be
       0.105482414 -0.039715074 0.11257888 -0.14803234
0000a0 1c ee c1 3d f7 a4 33 3d 4f d4 19 3e 9d 29 1d 3e
       0.09469244 0.043858495 0.15022396 0.15347905
0000b0 91 3f 75 bd ba cc 0d be 10 c7 cd 3b 85 51 17 3e
       -0.059875075 -0.13847628 0.0062798336 0.14777191
0000c0 8f 1d d5 bc d6 92 5d 3e 81 91 04 3e c0 06 04 be
       -0.026015071 0.21638045 0.1294613 -0.128932
0000d0 ec 59 41 3e 03 f2 8e bd 28 65 00 bd 66 be 16 3d
       0.18881959 -0.06979754 -0.03134647 0.03680267
0000e0 38 45 9d bd 75 1e 44 3d 2f 03 6e be 5e 6d 32 bd
       -0.07679218 0.04788061 -0.23243402 -0.043561332
0000f0 83 64 1c 3d 58 61 d5 3d ec 4f 75 3d 4d fd d1 3d
       0.038181793 0.104189575 0.059890673 0.102533914
000100 8d e1 1f bd 06 31 13 3d b1 e1 16 be d2 cd 0e bd
       -0.03903346 0.035935424 -0.14734532 -0.034864254
000110 12 52 e5 3c 43 e3 b5 bd a1 dc 11 3e 1a 4a 9b 3d
       0.027993236 -0.08881237 0.1424432 0.07582493
000120 3a 6f 08 3e b5 85 95 3d 74 50 7f bd e4 3f 70 3c
       0.1332368 0.07300893 -0.062332585 0.01466367
000130 5a 3d 38 bd a5 4b c0 bd b6 6d 06 bd 3c 20 06 be
       -0.044980384 -0.09389428 -0.032819472 -0.13098234
000140 8e 34 10 3e 69 64 fb bd fc cc 41 3e 44 64 fa bd
       0.14082548 -0.12275011 0.18925852 -0.122261554
000150 b7 a4 aa bd 4f 74 bc bc 26 90 ea 3c 1f 96 94 bc
       -0.08332198 -0.023004679 0.028633188 -0.01813799
000160 cc b3 ef bd 8c f8 7c bd ba ec c4 3d 3c 19 29 3d
       -0.117042154 -0.06176047 0.096154645 0.04128383
000170 c5 8b 6d 3c a2 61 0a be ae d8 cd bd 59 bf 98 3d
       0.014498656 -0.13513806 -0.10051094 0.07458372
000180 1a d3 c4 3d e2 87 07 bc 1c 68 dc bd e7 cd 91 bd
       0.09610577 -0.008272143 -0.10762045 -0.07119351
000190 e7 aa 01 3e d0 a1 a9 bd d9 3c 6d bc 28 dd 82 bc
       0.1266285 -0.082828164 -0.014479839 -0.015974596
0001a0 63 e4 0d be 96 45 8c 3d a7 b5 5b bd 88 84 d0 3d
       -0.13856654 0.0684921 -0.053640034 0.10181528
0001b0 47 a8 da 3d 9f 15 5c be ae aa 0a 3c c3 f2 07 3e
       0.106766276 -0.21492623 0.008463545 0.132762
0001c0 22 94 d9 3d f5 ea 8d be 32 de 09 3e 09 c9 32 3e
       0.10623957 -0.2771832 0.13463667 0.17459501
0001d0 57 e5 36 3d 63 71 f7 bd e6 a0 8a 3c 0f c0 07 3e
       0.04465231 -0.12082174 0.016922425 0.13256858
0001e0 f6 45 e7 3d c1 7f 29 be 79 84 4f bc 35 a5 b5 3d
       0.11292641 -0.1655264 -0.012665861 0.08869401
0001f0 46 76 15 3d 6e cb e1 3d ac 51 c4 bd 63 ba f3 bc
       0.036489747 0.11025129 -0.0958589 -0.029751962
000200 4a 32 9f 3c 90 08 3c 3d 97 14 8e 3d 47 7c 41 bd
       0.01943316 0.045906603 0.06937521 -0.04723766
000210 4d bd e1 3d 53 10 0d 3e c1 ab 2f 3c 60 7c a1 3d
       0.110224344 0.13775758 0.010722102 0.07885051
000220 b7 16 80 bd 9e a1 4d 3d 78 e1 51 bc 3d 7f c1 be
       -0.062543325 0.05020296 -0.012810104 -0.37792388
000230 0f dc b9 bd 98 30 86 bd a9 3a c5 bc e0 94 cf bd
       -0.09075176 -0.06552237 -0.024075823 -0.101358175
000240 32 e7 b3 3a 22 b0 99 ba 4e 9d e8 3d c8 ab f5 bc
       0.0013725518 -0.0011725465 0.113581285 -0.029989138
000250 a4 2e ab bb 78 fe d3 bd 76 bf 5a b9 4e 90 d8 bc
       -0.005224066 -0.103512704 -0.00020861425 -0.026435997
000260 f7 a0 28 be a3 37 06 3d 81 96 0a be 82 9e 1c 3d
       -0.16467653 0.032767903 -0.13533975 0.038237102
000270 a6 ac bd 3d ef c5 16 bd 61 59 86 bd 1a 4d 8c bc
       0.09261446 -0.036809858 -0.065600164 -0.017126609
000280 df 14 fa 3d 4f ad 64 3d ca fe ce 3d 6a da 42 be
       0.12211012 0.055829342 0.10107191 -0.19028631
000290 a2 f1 8a bc 5c 90 64 bd 9b 00 ee bd 8b a4 6e 3c
       -0.016960923 -0.055801734 -0.11621209 0.014565597
0002a0 b8 80 bc 3b 58 21 90 bd 7e fa 9b 3d 75 37 db bc
       0.005752649 -0.0703761 0.07616137 -0.026759842
0002b0 09 d3 e4 bd cb cb d3 3d 05 a0 8c 3e fb a7 18 3d
       -0.11173064 0.10341605 0.27465835 0.037269574
0002c0 28 3d ab bd 14 e2 3e 3d a2 60 0a bd bf 02 7c bd
       -0.08361274 0.046602324 -0.033783562 -0.061526056
0002d0 5e 39 25 3e 8e 0a e9 bd c4 a5 04 be b3 46 01 be
       0.16135165 -0.11378966 -0.1295386 -0.12624626
0002e0 3d 7b 83 bd 19 6a a0 3b c2 f3 85 3d da cf 46 be
       -0.0641999 0.0048954603 0.06540634 -0.19415227
0002f0 83 c0 aa 3d 13 92 da 3d da e7 61 3e 85 c3 8b 3c
       0.083375 0.10672393 0.220611 0.017061004
000300 b3 7e 8d bb de 96 00 3e d3 42 2a 3e 45 75 1b be
       -0.0043180822 0.12557551 0.16627054 -0.15181454
000310 05 a0 05 be d1 e2 8d 3b 26 77 72 3d aa b3 1e 3e
       -0.13049324 0.004330017 0.05919566 0.15498224
000320 7f 65 19 be 75 07 d0 bd a8 72 86 bd 94 1b 26 be
       -0.14980124 -0.10157672 -0.06564838 -0.16221458
000330 08 f8 28 be 2b fe 58 3d 00 bd 8d 3e 1b 06 1c be
       -0.16500866 0.05297677 0.27683258 -0.15236704
000340 16 3a 84 be 69 d1 a7 3e 58 6b 96 bd ba 7f 03 3e
       -0.25825566 0.32776955 -0.07344693 0.12841693
000350 cc 90 11 bd 7c 44 21 3d 91 2b 07 3e 79 ec e6 bd
       -0.03553848 0.039371952 0.13200213 -0.11275572
000360 15 ca 47 3d c9 6b 86 3d 28 70 75 3d 62 f9 94 3d
       0.048776705 0.06563527 0.059921414 0.072741285
000370 ca d1 e8 3c 57 9f 4d 3b ce ca b7 3d 23 3e 81 bc
       0.028420348 0.0031375492 0.08974229 -0.0157767
000380 50 c7 48 be 56 5a 35 bd 5d d9 13 be 98 2d 8b bc
       -0.19607282 -0.044275604 -0.14438386 -0.016989514
000390 07 85 fb bd ad 87 11 3d 52 f4 89 3e 24 dc 0b bc
       -0.12281232 0.03552978 0.26944214 -0.008536372
0003a0 36 7e 60 bd 10 d0 02 be ee 08 c8 bd 99 e2 34 be
       -0.054807864 -0.12774682 -0.09767328 -0.17664565
0003b0 2b 92 b1 3d 8f 1a 5b 3b 1b 4a 40 3d 4c 98 f6 3c
       0.086704575 0.0033432578 0.046945672 0.030101918
0003c0 03 2f 22 be 34 1c 02 be 73 38 b6 bd e7 1c 30 3e
       -0.15838246 -0.12706071 -0.088974856 0.17198525
0003d0 c1 2c 81 3d db de 9d 3c 20 c0 d9 bd ca 3b 0b 3d
       0.06307364 0.019271305 -0.10632348 0.033992566
0003e0 28 d7 dc 3e b8 3b 21 3e 36 eb 4f 3e 7e 62 ce bd
       0.431329 0.15745437 0.2030457 -0.1007738
0003f0 18 6f f1 bd 89 60 4f be cf 24 a9 3a fd e5 51 3d
       -0.117887676 -0.20251669 0.0012904647 0.051244725

decoder.fc2.bias f4 [44]
000000 04 60 0b 3d 81 c6 92 bc 61 58 80 bd b9 a2 cb 3d
       0.034027115 -0.01791692 -0.06266857 0.09943146
000010 96 1c 0f bd 24 58 98 bc da 9e ec 3d 42 49 71 3c
       -0.03493937 -0.018596716 0.11553736 0.014726939
000020 28 f9 ac bd 44 3a 05 be 58 da 55 bd 13 b2 46 bd
       -0.0844596 -0.13010508 -0.052210182 -0.04850967
000030 28 7d 0f 3d 89 38 b6 3d b6 c2 a1 3c a2 b8 cc 3d
       0.035031468 0.08897502 0.019746166 0.099961534
000040 0e 5d a1 3d 31 f9 8c bd b9 19 a6 bd 23 f2 02 be
       0.07879077 -0.06883467 -0.08110375 -0.1278768
000050 e2 98 29 3d fa 6a d9 bd bd 4a c6 bc 70 9d 9a 3c
       0.041405566 -0.10616107 -0.02420556 0.0188739
000060 fe 92 97 3d 74 70 a9 bc 71 69 7a bd bd e3 e1 3d
       0.074010834 -0.020683505 -0.061135713 0.11029766
000070 81 ae f3 bb a9 21 c3 3c a3 64 40 3c 13 06 47 3d
       -0.007436574 0.023819761 0.011742744 0.048589777
000080 08 37 0a 3e b0 bc df bd e9 06 b6 bc e6 41 38 3e
       0.13497555 -0.10924661 -0.022220092 0.17993888
000090 3e de be bd 1c 4b 07 bc 6d a1 62 3d 54 ec a3 3d
       -0.09319733 -0.008257654 0.05532973 0.080040604
0000a0 45 9e a3 3d a9 8a ba 3d 9d 16 8d bd f9 fa 46 3d
       0.07989172 0.091084786 -0.06889079 0.04857919
