randhie_model.pth (torch, 43656 bytes, 8 tensors)

encoder.fc1.weight f4 [128, 31]
000000 0d f5 7d bd a2 a2 ba bc db 36 f8 bb 85 82 f7 bd
       -0.062001277 -0.022782627 -0.0075748987 -0.120854415
000010 1c 57 cd 3d 94 0f b0 3e 3c 3d cc 3e db c2 a9 3c
       0.100263804 0.34386885 0.39890468 0.020722797
000020 5c 43 58 bd 0f 74 9e bd c3 9c 04 3e 67 62 cd 3e
       -0.052798614 -0.0773698 0.12950425 0.40114138
000030 25 e3 cc bd 58 a0 83 bd d9 98 c1 be 66 31 ab bc
       -0.10004262 -0.064270675 -0.37811926 -0.020897578
000040 e5 4b 6d 3d 3b 33 01 bd 0a 2f db 3d 6c a4 04 be
       0.057933707 -0.031542998 0.10702331 -0.12953347
000050 f1 f2 c9 be 42 c0 d8 3e 4e 04 7c 3e 95 b9 1c be
       -0.39443162 0.4233418 0.24611017 -0.15305169
000060 37 19 ca 3e f0 01 bf be 8c 28 5b 3e 7c ad e9 bb
       0.39472362 -0.37306166 0.21402186 -0.0071312767
000070 4a e6 ba 3e f2 31 06 3e 9a af 96 3e 45 a6 ef 3d
       0.36503822 0.1310499 0.29430848 0.11701635
000080 64 27 17 3e aa fd 45 3e 2d b5 35 be 57 a1 04 3d
       0.1476112 0.19335046 -0.17744894 0.03238043
000090 c3 61 02 bd f5 a3 f3 3d 83 e5 4b 3e 0a 89 51 3e
       -0.031831514 0.11896507 0.1991177 0.20462433
0000a0 02 37 31 3e 6c 67 17 bd 59 d5 21 3e 04 8c fc bd
       0.1730614 -0.036963865 0.15804042 -0.12331393
0000b0 82 50 00 3d 31 9c 00 bd a2 e2 24 be 5a 93 20 3d
       0.03132678 -0.031398956 -0.16102079 0.039203025
0000c0 6b 07 8a 3c 94 df 86 3d 4c 49 4a 3e a5 1f b1 3e
       0.01684924 0.06585613 0.19754523 0.34594455
0000d0 5d cd 86 3e 57 53 71 bd 4f f3 13 be 0d 53 ee bd
       0.26328555 -0.05891737 -0.14448284 -0.116369344
0000e0 41 a6 8a 3d 35 6c 6d 3d c7 c5 8f 3e 04 92 c5 3e
       0.06769992 0.057964522 0.2808058 0.38587964
0000f0 70 41 12 3b ed 05 20 3e 3d 07 c4 3e d3 ea ec 3d
       0.0022316836 0.1562726 0.38286772 0.11568227
000100 9d 48 e4 3d 8b 72 a1 be 41 77 a6 3d 37 f1 d3 bd
       0.111466624 -0.31532702 0.08128215 -0.103487425
000110 f0 c8 a2 3d 49 2a a7 bd 51 a6 2a be d4 08 4d be
       0.07948482 -0.08162362 -0.16665007 -0.20022899
000120 70 2b e1 3e be 64 1b 3e 22 50 ce 3c 0c cc 5d bd
       0.43978453 0.15175149 0.025184695 -0.054149672
000130 55 44 cf 3d 75 6f f2 bd 33 bb a4 be ab 39 d3 bd
       0.10120455 -0.11837665 -0.32174072 -0.10313734
000140 42 4c 17 3e c7 5f a4 be 76 4f 3f 3c c5 4c d9 bd
       0.14775184 -0.32104322 0.01167666 -0.10610346
000150 87 13 1b 3f a9 6e 35 3e 23 eb 89 3e 7c 30 c3 3e
       0.6057667 0.17717995 0.26937208 0.38122928
000160 e8 7a 15 3e 18 8b 8b be f5 90 f9 3e 70 a7 90 bd
       0.14597666 -0.27254558 0.48743406 -0.07063186
000170 2a 85 5d 3e c1 02 46 bb fc 70 50 3d 1a 75 6a 3e
       0.2163283 -0.0030214044 0.050889 0.22896233
000180 37 0a 0c be 43 a8 c6 3d 1b 67 10 3c 1f 97 e8 bc
       -0.13675772 0.09700062 0.008813645 -0.028392373
000190 10 23 0b be bd 1a b0 3c 59 97 c4 bd 3a 77 22 be
       -0.13587594 0.021497125 -0.0959918 -0.15865794
0001a0 bb b5 30 3e 38 4b c8 3c 2d 34 43 bd 2f a9 6f bd
       0.17256825 0.02444993 -0.04765718 -0.058510955
0001b0 bd 0a 24 be 36 da 3c be 2e 53 14 3c 09 59 9e 3d
       -0.16019721 -0.18442616 0.009053035 0.07731826
0001c0 12 88 d3 3d 1d 6d 01 3d e7 bc a2 bd 43 4e 0d be
       0.10328688 0.0315982 -0.079461865 -0.13799386
0001d0 6c 13 99 3c 00 30 e8 3d 18 48 2e 3e 45 7e 9c bd
       0.018686019 0.1133728 0.17019689 -0.076412715
0001e0 ad 48 55 3e 02 f5 85 3d 65 d3 67 bd 37 30 c9 3d
       0.20828505 0.06540872 -0.056598086 0.098236494
0001f0 78 56 16 3e c4 a9 2d 3d d0 4e a7 be af eb 66 be
       0.14681423 0.04239823 -0.32677317 -0.22550844
000200 b3 55 99 be ce c4 d3 3e 51 08 35 bd e8 78 4f bb
       -0.29948196 0.41361088 -0.044197384 -0.003165776
000210 31 56 bc bd 5e f7 58 3e c5 11 17 3d c1 30 63 3e
       -0.09196127 0.21188113 0.03688218 0.22186567
000220 70 39 1a be ae 9c 4b 3c 3a ea d2 3d c6 60 be be
       -0.15060973 0.012427492 0.102985814 -0.37183207
000230 1b b8 17 3e 5d 97 78 bd f5 f0 01 3e c7 34 27 3f
       0.14816324 -0.060691226 0.12689574 0.65314907
000240 1d 07 a4 3e 92 8f 87 3e ea f6 a8 bd ea 08 1d bd
       0.32036677 0.26476723 -0.0825022 -0.03833858
000250 03 e9 0c 3f 2a 51 89 be ed 91 4d 3e 44 02 da 3e
       0.5504305 -0.26819736 0.20075198 0.42579854
000260 0d fe fe 3e 49 b2 ca bd ec 02 8a 3d 46 11 cd 3e
       0.498032 -0.098972864 0.067388386 0.4005224
000270 dc f6 4c be a5 78 3d 3e 28 a6 f0 bd 9f 16 60 3d
       -0.20016044 0.18503053 -0.11750442 0.054709073
000280 75 94 b2 3e 7d 4f 9b bd d9 45 d3 bd 5e 7e 84 bd
       0.3487889 -0.075835206 -0.10316057 -0.06469415
000290 91 5c 87 3e 32 67 a9 3e 03 be ae be bc d3 54 3e
       0.2643781 0.33086544 -0.34129342 0.20783895
0002a0 b9 5a ef 3d fd 37 87 3c 28 2a ad 3d 33 09 76 be
       0.11687226 0.01650619 0.08455306 -0.24026947
0002b0 e1 aa f4 3d 44 46 14 3e 1a 54 4d be ba f4 01 3e
       0.11946655 0.14479929 -0.20051613 0.12691012
0002c0 d3 a9 8b bc 94 c9 d0 3e 09 b5 31 bd 07 65 e9 3e
       -0.017048752 0.40778792 -0.04338554 0.4558489
0002d0 0b 7b 30 3c fd 1b d2 3c ab bb 95 3e 7c a2 d3 bd
       0.010771523 0.025648111 0.29244742 -0.10333726
0002e0 e9 ee 81 3d 4e c2 89 3e e5 7a 90 3e 7a 8f 66 3e
       0.063443966 0.26906055 0.2821876 0.2251567
0002f0 c4 93 80 3e 1e 81 b6 bd cb ca 98 be cf 06 85 3e
       0.25112736 -0.08911346 -0.2984222 0.25981757
000300 cd 86 95 bd 5d 8f 52 be c1 8f b7 bd 04 4b 71 bd
       -0.07301102 -0.20562501 -0.08962966 -0.05890943
000310 3d 18 e5 bd 96 a9 b0 bd c7 2d a1 be dd bb 8f bd
       -0.11186264 -0.08626096 -0.31480238 -0.07018254
000320 be ef 8e be da 69 ae bc 82 0d 48 3e 39 14 ac bd
       -0.27917284 -0.021290708 0.19536403 -0.08402295
000330 8f d6 37 3e 4d ce 43 3d d6 58 86 3e 7f 43 db bd
       0.17952941 0.047804166 0.2623965 -0.10706233
000340 96 04 2d be 60 b0 d8 bc 0f a1 a8 3e a6 0f 70 bc
       -0.1689628 -0.02645129 0.32935378 -0.014652168
000350 71 c6 3a bd 34 07 11 3f b3 e4 67 bc ca 8d 6d 3e
       -0.045599405 0.56651616 -0.014153647 0.2319862
000360 3e 2f 1d bc 2c cc 8a be 8d 3e 1b be e2 6e 98 3e
       -0.009593783 -0.27108896 -0.1516058 0.29772097
000370 97 8f da 3d 68 ed 2e 3d 71 33 0e 3d 08 2a ce bd
       0.10671919 0.042706877 0.034717027 -0.100666106
000380 2d c3 ff 3c 7e 83 98 bc 33 5c 5b 3e 08 b0 d2 3d
       0.031220997 -0.018617388 0.2142189 0.102874815
000390 60 48 9d 3d f4 63 f1 bc d6 28 33 3e da e9 03 3d
       0.0767982 -0.029466607 0.17496046 0.03220544
0003a0 83 f1 19 bc 87 d9 6c bd 8e 32 05 3e 06 6b 0e 3e
       -0.00939596 -0.057824638 0.13007566 0.13908014
0003b0 1f ab 97 3c 28 16 94 3d 11 92 db 3d 13 d5 2f be
       0.018514214 0.072307885 0.10721219 -0.17171125
0003c0 80 5d 82 bd 79 bb 32 3e c1 fa 72 3c 4d a3 4b 3d
       -0.0636549 0.17454328 0.014830292 0.049716283
0003d0 e7 a6 f8 bc d0 b1 1c 3e 76 8f 91 3d 34 a8 a4 bc
       -0.030353023 0.15302205 0.07107441 -0.020099737
0003e0 5d a6 55 bd 69 d5 d2 bd 85 4a 13 be ed c8 37 be
       -0.05216061 -0.10294611 -0.14383896 -0.17947741
0003f0 56 ed a9 be 81 96 31 bd a6 ed 01 be 42 ba aa 3e
       -0.33188885 -0.043356422 -0.12688312 0.33345228

encoder.fc1.bias f4 [128]
000000 3a 26 8a 3e 22 98 b9 3d 06 e9 71 3e aa dc 96 bd
       0.2698229 0.0906222 0.23624048 -0.07366307
000010 2e db 02 3e 82 57 9b 3e ef dc af 3c 8a 55 12 3d
       0.12778923 0.303402 0.021467654 0.035726108
000020 12 54 98 3e 22 1d 0b 3e aa 75 dc 3c ec 0e 4c 3e
       0.2975164 0.13585332 0.026911575 0.19927567
000030 85 5c 3c 3e 6c f9 96 bd 3a 11 4d 3d 47 f3 de 3e
       0.18394668 -0.07371792 0.050065257 0.4354498
000040 ea 34 2b bc 5a 70 05 bd c2 6e 21 3c 99 21 39 3d
       -0.010449627 -0.03257785 0.009853067 0.045198057
000050 0b 65 f0 bb 26 11 03 be da 3a 2f 3e 75 dc 08 3e
       -0.007336264 -0.1279951 0.17112294 0.13365348
000060 68 8d 50 3e 4e 47 34 3d b3 ca 4c 3e 69 2e f7 3d
       0.20366442 0.044013314 0.19999199 0.12069399
000070 76 88 0e bd a0 f3 ab 3d 06 fc 5d 3e cd bb 25 bc
       -0.034798108 0.08396077 0.2167817 -0.010115576
000080 21 f1 b5 3d 6b d7 69 3c 64 be e8 3d 63 65 5f 3e
       0.08883882 0.014272551 0.11364439 0.2181602
000090 3d cb ab 3d 85 c6 35 3e 03 4a f7 3d ee ef fc 3e
       0.08388374 0.1775151 0.120746635 0.49401802
0000a0 96 e3 07 be 51 36 b6 bd 33 c4 6c 3d 77 0f 0f 3e
       -0.13270411 -0.08897079 0.057804298 0.13970743
0000b0 2e 3a e3 3d 1f b1 a6 3d d5 0b 10 3d 46 55 6b 3d
       0.11095081 0.08139252 0.035167534 0.05745437
0000c0 57 9d 9f 3d e1 2b 07 3e a0 43 a3 3d 2e 16 be 3c
       0.07793682 0.13200332 0.07971883 0.023203935
0000d0 85 36 24 be 2e fd 13 be c7 5e 1d bd 95 55 b0 3d
       -0.16036423 -0.14452049 -0.038420465 0.086100735
0000e0 a1 9e cc 3d 8f 6f 2c 3c 0f d6 77 3e e9 cc 96 bd
       0.099911936 0.0105246445 0.2420275 -0.07363302
0000f0 19 c5 23 3d d3 2e b5 3d f0 4d 18 3e 5d 34 a1 3d
       0.03998289 0.08846822 0.14873481 0.07871316
000100 8c 60 09 3f 18 09 60 bc b2 f7 e1 3d bd d9 04 bd
       0.53662944 -0.013674043 0.11033572 -0.032434214
000110 61 2e 1c 3e f9 45 d3 bd a1 19 03 be 69 e8 ce 3e
       0.15252067 -0.103160806 -0.12802745 0.4041169
000120 a1 34 8b 3e e9 86 4b 3e 62 85 59 3e 10 0f f1 3e
       0.2718859 0.19875683 0.21242288 0.47081804
000130 fd d4 15 bd 67 99 15 3e b1 39 5c 3e a1 aa e3 3d
       -0.036580075 0.146093 0.21506383 0.11116529
000140 c4 c7 2c 3e b5 b9 bf 3d be a7 a3 3e 3b ed 4b 3e
       0.1687308 0.09361593 0.31963915 0.19914715
000150 c7 3e d7 3e 90 63 dc 3d a3 32 a7 3e 9c 99 24 3e
       0.42040083 0.107611775 0.3265582 0.16074222
000160 6f cb 5c 3e e6 2d aa bd b4 a6 0e 3e 44 98 51 3d
       0.21561979 -0.08309536 0.1393078 0.051170602
000170 a5 ad f4 bc db 15 02 3e c6 8e d0 bc cb 79 6f 3d
       -0.029867956 0.1270365 -0.025458705 0.05846576
000180 e9 94 4f 3d 27 f8 04 be e1 c6 3d 3e 2c c8 03 3e
       0.05067912 -0.12985288 0.18532898 0.12869328
000190 02 61 d9 3e 87 c7 2d 3e 94 60 9b bd 3c 2a 02 3f
       0.42456824 0.16970645 -0.0758678 0.50845695
0001a0 13 c7 5c 3e fd 72 43 3d d4 32 80 3e 2f e3 01 be
       0.21560316 0.047717083 0.2503878 -0.1268432
0001b0 6c e5 d3 ba 23 a6 dd 3d f5 f4 1a 3c 3d 69 5a 3e
       -0.0016166396 0.10822704 0.009457816 0.21329208
0001c0 17 29 4c 3e 1b 94 34 be 11 f5 48 3e b4 b3 b3 bd
       0.1993755 -0.17634623 0.19624735 -0.0877451
0001d0 21 aa 38 3e c8 3c 63 3d 04 88 a3 3d e7 52 ba 3e
       0.18033649 0.055477887 0.07984927 0.36391374
0001e0 70 cc 0d 3d 2e d3 e3 3d f4 87 0a be f2 71 28 3e
       0.034618795 0.11124264 -0.13528425 0.16449717
0001f0 99 1e cc bd be 69 00 3f 10 2a 8d 3d d9 ae 03 bd
       -0.099667735 0.5016135 0.068927884 -0.03214917

encoder.fc2.weight f4 [31, 128]
000000 96 d3 0e 3e 17 08 3f 3c ba 97 17 bd 1e cd 6e 3d
       0.13947901 0.011659644 -0.037009932 0.058301084
000010 6f 45 38 bb f0 5f 80 3e 73 5d 72 bd 86 64 19 3e
       -0.0028117558 0.25073195 -0.05917115 0.14979753
000020 26 96 49 be 0e fc 50 bd 84 bb c7 3d ff ce 24 3e
       -0.19686183 -0.051021628 0.09752563 0.16094588
000030 5f 95 9e bc c5 b9 f0 3c b9 e5 f2 3d 0b 63 ad be
       -0.019358335 0.029385457 0.11860222 -0.33864626
000040 c0 77 dc 3d c6 01 83 3d 41 e8 ff 3d 7a 68 38 be
       0.10765028 0.06396823 0.12495471 -0.18008605
000050 84 1e a2 3d d5 f7 58 3d 17 23 0b 3e fe 46 35 be
       0.07915977 0.052970726 0.13587604 -0.17702863
000060 91 cc be 3c a3 bf d3 3b 26 a3 6c 3d e3 ec 6b bd
       0.023290904 0.006462054 0.057772778 -0.05759896
000070 c1 e7 d6 bc 0d 3a 3b 3d 3f 0c 3e 3d 4f bd 1c 3e
       -0.026233556 0.04570966 0.046398398 0.1530659
000080 eb 3f c1 be 2c 24 b4 3d ec dd 87 3e 9c 43 70 3d
       -0.37744078 0.08795962 0.265365 0.058658227
000090 40 04 56 be 35 2e 2c 3d 93 8b 1e 3d 83 71 3b be
       -0.20900059 0.042036254 0.038707327 -0.1830502
0000a0 ff 4f 07 3c 3b 52 d1 3c b6 5a 2f 3e 10 f3 11 be
       0.008258819 0.025551906 0.17124447 -0.14252877
0000b0 56 74 87 3d 87 cc 05 3e a0 fb 54 3d 3b d0 e7 3c
       0.06613986 0.13066302 0.05199778 0.028297534
0000c0 39 99 97 bd 29 1a b0 3e fa aa 12 3e 4b 22 a3 bc
       -0.07402272 0.3439496 0.14323035 -0.019913813
0000d0 06 bb a5 3b 4c 32 ec 3d 58 7c f7 3d fb 71 10 3e
       0.0050576953 0.11533031 0.120842636 0.1410598
0000e0 b4 9f b3 3d 65 ce 92 3d 0d 53 24 3d 5f 00 2b 3e
       0.08770695 0.07168273 0.040118266 0.1669936
0000f0 66 80 be bb e0 09 3f 3c f3 19 88 3c 50 59 d2 bc
       -0.005813646 0.011660069 0.016613936 -0.025677353
000100 a8 a6 7f be 98 a9 43 3c 9d eb 13 3e 51 ea 05 3e
       -0.24965918 0.01194229 0.14445348 0.13077666
000110 0f 4c fd 3d 30 d7 60 3d c8 53 a1 bd a5 ef 42 bc
       0.12368023 0.05489272 -0.07877308 -0.011897956
000120 b2 9d 87 3e 6b 3c 27 be ea fc 07 3e b0 4e 94 be
       0.264875 -0.16331641 0.13280073 -0.28966284
000130 b3 26 af bd 77 63 ff 3c dc fc cd bd 0a 82 92 bc
       -0.08552303 0.031175358 -0.10057995 -0.017884273
000140 d1 30 30 bd 1e 89 68 3e 09 c6 3f 3d 2a b4 36 3d
       -0.043015305 0.22708556 0.04681972 0.04460541
000150 43 44 9f 3d 70 a2 be bd 1e b3 b2 be 43 b0 6d 3c
       0.07776692 -0.09308326 -0.3490228 0.014507356
000160 87 04 6f bd 91 7c 7e 3d 0f 65 e1 3c 4e 2b 68 3d
       -0.058353927 0.062130515 0.027514009 0.056681924
000170 4c c8 49 3d 0d 19 29 bd 9f 0e cb 3c a9 31 c9 3d
       0.049263284 -0.041283656 0.024787245 0.09823925
000180 dd 54 a4 3d d3 39 fe 3d b2 62 7e 3d d3 0b 89 3e
       0.08023999 0.12413373 0.062105842 0.26766834
000190 e0 a5 e1 bd af 38 94 3d ea ed f0 3d 3b f4 04 3e
       -0.11017966 0.07237374 0.117641285 0.12983792
0001a0 58 e7 0e bd d1 b5 24 bd 78 1f 6b be c3 45 52 bd
       -0.034888595 -0.040212456 -0.22961223 -0.05133606
0001b0 bc e6 06 3e 46 df 9d 3b 41 99 b3 3d 15 85 ee 3d
       0.13173956 0.004817876 0.08769465 0.11646477
0001c0 1a 55 8e 3d e9 a4 84 bd 42 55 8a 3d 8a bf 70 bc
       0.069498256 -0.064767666 0.06754543 -0.014694104
0001d0 72 e6 22 3e 3c 78 75 be 19 39 ef 3d a5 6e d6 3d
       0.1590822 -0.23971647 0.116808124 0.104703225
0001e0 50 65 86 3d aa 09 41 3d 70 55 98 bb 30 c2 03 be
       0.065622926 0.047128357 -0.004648857 -0.12867045
0001f0 ca 9f ac 3b 05 f6 55 3d ed f3 7f 3d 26 f8 c3 bd
       0.005268072 0.052236576 0.062488485 -0.09568815
000200 2d 68 a0 3e e9 c6 4c 3e bc 20 e2 3d d2 bc 16 3d
       0.3132948 0.19997753 0.110414 0.036801167
000210 75 b6 9a 3e bd df 22 3c cf 4f 32 3e 07 54 7b 3d
       0.3021733 0.009941039 0.17413257 0.06135943
000220 8e 0d a9 3e 23 cc e6 3d 6d 9f d3 3d 88 27 75 bc
       0.33018154 0.11269405 0.103331424 -0.014963038
000230 9d 22 86 3d be 55 22 3c c5 9f 1a bd 17 cf 3b be
       0.06549571 0.009908138 -0.037750024 -0.18340717
000240 c7 cd 3e bd 81 bb e8 3d 7d d0 ed 3d 83 ac b2 3d
       -0.046582963 0.113638885 0.116120316 0.0872431
000250 2c 03 48 3d dd 62 19 3d 00 43 47 3d fa f1 87 be
       0.04883115 0.0374478 0.04864788 -0.265518
000260 4d 24 12 3d 95 e3 e3 3d 18 f2 1d 3e 20 df 37 3e
       0.03567915 0.11127392 0.15424383 0.17956209
000270 f9 e5 c5 bb 34 c2 e8 3d de 31 3c be 16 0a 05 3e
       -0.006039378 0.11365166 -0.18378398 0.12992129
000280 f1 20 94 3e 33 85 33 3d e6 ea 7d bd b7 5e 34 3b
       0.28931382 0.0438282 -0.061991595 0.0027522275
000290 b1 5a 87 3e c8 41 76 bc 8d e4 04 bc 37 f9 b6 be
       0.2643638 -0.015030332 -0.008111131 -0.3573701
0002a0 37 5f d4 3c 29 69 a7 3d fd 16 08 3e 74 77 03 3d
       0.025924308 0.081743546 0.1329002 0.03209634
0002b0 00 ca 2a bd cf b3 b7 3d 60 7a 61 bd 54 ad e1 3d
       -0.04169655 0.08969843 -0.055048347 0.11019388
0002c0 67 c3 b9 bd 8f fb 44 be 90 1f b1 bc 50 71 af 3d
       -0.09070473 -0.19236587 -0.021621495 0.085665345
0002d0 0b cd 9e bd 99 44 94 3d e2 73 aa bb ee 7d 10 3e
       -0.077539526 0.072396465 -0.0052018026 0.14110538
0002e0 14 dd b4 3d 90 02 87 3c c6 08 98 3d 15 bc ec bb
       0.0883123 0.016480714 0.074235484 -0.0072245696
0002f0 8b c2 14 be 02 23 c0 bc 10 56 6c 3d 38 f9 b9 3d
       -0.14527337 -0.023454193 0.057699263 0.09080738
000300 2f ac b5 be 47 37 63 3e c0 8f 99 3d ba c8 78 3d
       -0.35482928 0.22189055 0.07498121 0.060738303
000310 16 5d c6 3d 0b 70 62 bd e1 e8 76 bd 3f e5 a6 3d
       0.096857235 -0.055282634 -0.060280684 0.08149194
000320 05 61 04 3e e7 7e b8 be 1a 98 03 3e b3 ef 0d bb
       0.12927635 -0.3603432 0.12850991 -0.0021657764
000330 81 6a 0a 3d bd 23 cb 3d 27 a2 26 3e f2 ce db 3b
       0.033792976 0.09918926 0.16272794 0.0067080194
000340 92 f5 24 3d ca 78 11 bd 29 09 1c be b9 33 b6 3d
       0.040273257 -0.035515584 -0.1523787 0.08896584
000350 68 27 a6 bd b9 17 3b be e7 52 e6 bd 60 33 e2 3d
       -0.08112985 -0.18270768 -0.11246281 0.11044955
000360 36 f4 06 3d 24 7e 4a bc 9c e8 cb 3b 92 b8 c5 3d
       0.03294774 -0.012359176 0.0062227976 0.096543446
000370 7c ba 9a 3d d3 cc 86 3d 0f 4e bb 3c 51 be fc 3d
       0.075551 0.06582036 0.02286437 0.123409875
000380 0e 3e 56 3d 0a 45 5c 3d 21 13 62 3d 9b f6 7e be
       0.052305274 0.05377678 0.055194024 -0.2489876
000390 23 ff da be 76 13 88 bd 75 24 9d 3e 36 a6 98 3e
       -0.4277278 -0.06644337 0.30691877 0.2981431
0003a0 7c 24 1f bd a2 b3 a1 be 5a 8b 0d be 3a ec 55 3d
       -0.038853154 -0.3158236 -0.1382269 0.052227236
0003b0 4d 89 17 3d b0 25 e3 bb 46 a1 bb 3b 60 ba 21 3c
       0.036996175 -0.006931983 0.0057260124 0.009871095
0003c0 00 b0 e3 3d bf c3 82 bd ee 9d 70 3c 59 e1 bc bd
       0.11117554 -0.06384992 0.014686091 -0.09222669
0003d0 7e 5d f4 bd 81 33 cf 3e 7f 12 00 3e 1b 56 9a 3d
       -0.11931895 0.40468982 0.12507056 0.075359546
0003e0 12 f0 d4 3d d8 f7 cc bc cc 6f fd bc 67 9b f8 bc
       0.10397352 -0.025020525 -0.030937098 -0.03034754
0003f0 19 31 db bb 70 0a 61 3e 54 b3 88 bd e3 b2 31 3c
       -0.0066892025 0.21976638 -0.06674829 0.010845873

encoder.fc2.bias f4 [31]
000000 55 f4 11 3c 0e 71 a1 3c 35 8b 36 bd b8 91 51 bd
       0.008908351 0.019707229 -0.044566352 -0.05116436
000010 2d fb e9 3d e6 fa f2 bd e9 fe b3 3c dd e6 b1 bd
       0.11424861 -0.11864261 0.021972137 -0.08686612
000020 ec 61 75 3d a2 fb 34 3d 37 76 5f bd 9a 97 17 bb
       0.05990784 0.04418529 -0.054556098 -0.0023131133
000030 4c 9b b6 3d 1c f1 c1 3d f3 45 1e bd dd 8a 3d bd
       0.08916339 0.09469816 -0.038640928 -0.04627501
000040 26 d1 83 bd c7 41 8b 3d c4 8d 67 3d 04 f7 b9 bc
       -0.06436376 0.067996554 0.056531683 -0.022700794
000050 61 da 54 3d 8e b9 48 3d b4 14 bf bc de bc 9f 3d
       0.051966075 0.049005084 -0.023325302 0.077996954
000060 61 92 d1 3d e9 c1 1c 3d 76 6c 96 bd 2b 05 66 3c
       0.10232998 0.038270865 -0.07344906 0.014039318
000070 8a 4b db bd dd 51 f5 bd e5 10 90 3d
       -0.10707767 -0.11978505 0.070344724

decoder.fc1.weight f4 [31, 31]
000000 6f d8 bd 3d a2 dc 39 3e fe 15 55 be 7f c7 56 be
       0.09269797 0.18150571 -0.2080917 -0.20974539
000010 db e9 b1 3d 71 29 d5 3c 87 15 e1 3c f9 c5 15 3e
       0.086871825 0.026020737 0.027476085 0.14626302
000020 3d 14 ad bd 64 cb f3 bc f0 89 37 3e 81 2a 24 3e
       -0.08451126 -0.02976007 0.17923713 0.16031839
000030 df 22 12 be ab 8e e0 bc 5e b4 c7 3d f9 cc b2 bd
       -0.14271115 -0.02741178 0.09751199 -0.08730502
000040 ea 3f 9a be 70 93 d3 3d 1e 2d 2e 3e 68 06 ab bd
       -0.30126888 0.10330856 0.17009398 -0.08350831
000050 a4 45 3f 3d 4e 4d 35 be cd c5 70 be d2 f1 aa bd
       0.046697274 -0.1770527 -0.23512955 -0.08346905
000060 e5 f4 c3 bd 80 1c b7 3d a1 b0 33 3e 6c 18 6e bc
       -0.09568194 0.08940983 0.17547847 -0.01453219
000070 9a da a2 bd 1b f1 25 be dd fd 54 be 8f 06 03 bd
       -0.07951851 -0.16205256 -0.20799966 -0.031988677
000080 c5 45 1b be 1e 66 94 3d 36 bb 01 3e 7e a3 27 be
       -0.15163334 0.0724604 0.12669072 -0.16370961
000090 5f 0f 7b bd 80 46 1c be 91 c0 05 3e ba 95 ce bd
       -0.061293956 -0.15261269 0.1306174 -0.10087152
0000a0 93 06 57 3d 30 a4 e1 3d 21 7b 9b bc 9a 17 c0 bd
       0.052496504 0.110176444 -0.01897961 -0.09379502
0000b0 be a9 1c 3e d7 a4 8d bd 1c 6c 2f 3c af c6 00 3e
       0.15299127 -0.06916206 0.010706928 0.12575792
0000c0 6e d5 53 bc 2f b6 c4 3c 88 4e 3c be 09 62 bf 3c
       -0.012929304 0.024012653 -0.18389332 0.023362176
0000d0 70 e5 80 bd 43 d4 0e be 7d 70 95 3d 52 b8 9c bd
       -0.06293762 -0.13948159 0.07296846 -0.07652344
0000e0 40 74 fb 3d 7f 1c 17 3e db 51 a0 3d 5d 75 e5 3d
       0.12278032 0.14756964 0.07828113 0.11204026
0000f0 27 39 25 bd 5c eb 27 3e 97 81 38 bd fc 93 03 3e
       -0.040337708 0.16398376 -0.04504546 0.1284942
000100 9a 65 df 3d eb 9e 09 be 92 ee 05 3e 19 d4 8e 3d
       0.10908051 -0.13439529 0.13079289 0.06974048
000110 76 ec 8f 3c 6c fb 82 3d 30 ff 9d 3d 76 ea 0b bc
       0.017568808 0.06395611 0.07714689 -0.008539787
000120 8d 05 1a bd 50 af bb 3d fb 0b 0f be 64 fa b8 3c
       -0.03760295 0.091642976 -0.13969414 0.022580333
000130 e1 92 b0 bd f6 00 59 be 81 e2 db bd 5a e0 9d 3b
       -0.08621765 -0.21191773 -0.107365616 0.0048180046
000140 5b 92 2e 3d 2c f8 a6 3e 6d e8 9c 3c 00 1d 54 3e
       0.042620044 0.32611215 0.019153798 0.20714188
000150 7c 9f 2a 3e 96 b9 ee bd c5 7f ce 3d ff 2d 75 3e
       0.16662401 -0.116564915 0.10082964 0.23943327
000160 ca f1 26 3e f8 a3 6b 3e f6 e9 a3 bd 05 53 33 be
       0.16303173 0.23011768 -0.08003609 -0.17512138
000170 0a 2e 84 3e 1a 2f 6f 3e c4 d1 4d 3e 1b bb f8 bd
       0.25816375 0.23357812 0.2009955 -0.121450625
000180 9c a9 ff 3d 63 21 fc 3d fc ce 2c be 86 34 86 3e
       0.12483522 0.123110555 -0.16875833 0.26211947
000190 aa 8c 9f bd d7 0d 5b 3d 72 bc 5a 3e 3c 65 47 be
       -0.077905014 0.053479996 0.21360949 -0.19472212
0001a0 c2 f9 03 3e e6 7f 74 3d 6f 7a 36 3c fa 73 cb bd
       0.12888244 0.059692286 0.011137589 -0.0993423
0001b0 b3 d0 0a 3e ce 9b cb bd d7 ac 7e 3c cd 32 74 3e
       0.13556175 -0.09941827 0.015544138 0.23847504
0001c0 61 79 95 3d cf fc 9d 3c ca 4c 60 3c 7a 3d 23 3e
       0.07298542 0.019285588 0.013690183 0.1594142
0001d0 9a 13 e9 3d 58 b5 62 3e 5f 97 82 3d 43 52 27 be
       0.11380692 0.2213949 0.06376528 -0.16339974
0001e0 38 71 9a 3c b8 1a fb 3d 09 ee 4c be c2 74 55 3e
       0.018852815 0.122609556 -0.20012678 0.20845321
0001f0 c7 c5 09 3e 1e f3 3f 3e f6 77 18 bd 26 a6 da bd
       0.13454352 0.18745086 -0.03722378 -0.106762215
000200 b4 21 5a 3d 0b de d9 3c 65 62 ba bc cd 44 c9 3d
       0.053254798 0.026595136 -0.022751996 0.09827576
000210 27 9b 5f bc 37 cc f7 bd 2e ee a9 bd 13 57 0e 3d
       -0.013647831 -0.12099498 -0.08297382 0.03475101
000220 33 5e ad 3d 9a a2 63 3d 83 af 95 3e 71 24 16 3d
       0.08465233 0.05557499 0.29235467 0.036655847
000230 3b a8 a9 3d b7 8b a9 bb 5f b2 40 bd a8 1a a5 3d
       0.082840405 -0.005174126 -0.047045108 0.08061725
000240 62 06 29 be a9 91 8c 3d 95 75 89 bd f8 33 f0 3d
       -0.16506341 0.0686372 -0.0671188 0.11728662
000250 26 7d 66 3e 18 a2 3e 3e 50 02 76 bd ab 59 25 be
       0.22508678 0.18616521 -0.0600608 -0.16147487
000260 44 0c 73 3e f1 ca e7 3d 28 6c 3d be b7 87 9f bc
       0.23735148 0.11318005 -0.1849829 -0.019473894
000270 78 13 19 3e 92 22 56 bd 7a 06 0d 3e 60 24 a2 bc
       0.14948833 -0.052279063 0.13772002 -0.019792736
000280 c4 d4 c3 bd 0e 75 37 3d 36 56 71 3b ca 1a 2e 3d
       -0.09562066 0.044789366 0.0036825067 0.042506017
000290 8a 78 dc bd 31 92 45 3d 08 de 0a be b3 65 25 3e
       -0.107651785 0.048235122 -0.1356126 0.16152076
0002a0 b3 68 c4 3d 6a 2c 35 bc 81 8d d5 bd f1 15 99 be
       0.09590282 -0.011057952 -0.1042738 -0.29899552
0002b0 a8 5a fb 3c 03 7f 62 3d 9a 4a e5 bd fd 99 c1 bd
       0.030682877 0.05529691 -0.1119587 -0.09453199
0002c0 11 7b 13 3d 8c b3 f0 bd f0 3f 2d 3d 13 45 47 bd
       0.036006037 -0.11752996 0.042297304 -0.04864986
0002d0 2a b4 2a 3e 11 88 af 3d d2 0a 22 3e 63 76 d8 3d
       0.1667029 0.085708745 0.1582444 0.105694555
0002e0 33 b6 31 3e 8a 40 c7 bc 64 be 11 be 44 09 57 bd
       0.1735466 -0.024322767 -0.14232785 -0.05249907
0002f0 58 37 28 3e 2c 26 2d 3e fd a8 b2 3d fb d6 f7 3d
       0.16427362 0.16909093 0.08723638 0.12101551
000300 87 b4 b5 3d 0a f9 01 3d 8a b3 c3 3c d4 ba b7 bd
       0.088723235 0.031731643 0.023889322 -0.089711815
000310 c7 40 78 bc a4 d3 25 bd 55 0a dc 3c ff 59 23 be
       -0.015152163 -0.04048504 0.026860395 -0.159523
000320 78 10 09 3e f4 d3 0e 3e 09 6c 95 3d 32 3e b6 bd
       0.13385189 0.13948041 0.07295997 -0.088985816
000330 18 b1 bf 3d cc 85 60 bd 83 d5 a4 bd 3a d9 21 be
       0.0935995 -0.0548151 -0.08048537 -0.15805522
000340 8f 0f bc 3c 0f ae 2b bc f9 26 16 3d cc 25 1c bd
       0.022956638 -0.0104785105 0.03665826 -0.038121983
000350 49 50 f3 bc 0a bc b4 bc 76 0d 1b bd d1 1b f6 3d
       -0.029701369 -0.02206232 -0.037854634 0.12017024
000360 c4 6c b0 bd f5 c8 0a be de 7c 4f 3e 5f 95 21 be
       -0.086144954 -0.13553222 0.20262477 -0.15779637
000370 bd 3f 36 be 24 a4 29 3d e1 a6 af bd cc a4 88 3c
       -0.17797752 0.041416302 -0.085767515 0.016680144
000380 0f 73 e5 bd f1 1e 06 3a dc 48 59 3e 51 4d 22 3e
       -0.11203586 0.0005116305 0.212192 0.15849806
000390 23 5d e1 bd fa 2b 2a 3e f1 1a 5d 3e be 70 aa 3e
       -0.110040925 0.16618338 0.21592309 0.3328914
0003a0 f1 a2 00 3e cf fd 9b bc b7 35 60 3d a0 de 3d 3e
       0.12562157 -0.019041924 0.054738726 0.18541956
0003b0 d6 37 b9 3d d0 b6 b7 3d 75 5b 39 3e b6 ff 79 3e
       0.09043853 0.089704156 0.18101294 0.24413952
0003c0 68 a0 de bd 74 ae 58 3e 82 15 8e 3d a3 d7 81 3d
       -0.10870439 0.21160299 0.06937696 0.063399576
0003d0 79 0d b0 bd 84 ee 1e be 95 1f 1a be 39 97 8d 3e
       -0.0859632 -0.15520674 -0.1505111 0.27654436
0003e0 06 6f 81 bd 25 ac 37 be 32 b1 0e 3e 51 8e 83 bc
       -0.06320004 -0.17936762 0.13934782 -0.016059073
0003f0 43 2a 1d 3e 9e 0d a3 bd 39 31 df bd 68 f9 1b 3e
       0.15348153 -0.07961582 -0.1089806 0.1523186

decoder.fc1.bias f4 [31]
000000 5e b7 95 3d 03 1c ea bd 18 76 12 bd d2 06 6a 3d
       0.07310365 -0.11431124 -0.035757154 0.05713541
000010 34 e4 47 bd 57 bf 25 bd aa f0 2c 3c 7f ee ff 3d
       -0.048801616 -0.04046568 0.010555426 0.124966614
000020 75 73 4b 3d 32 ba fb 3d c4 2a bb 39 78 dd 64 3d
       0.049670655 0.12291373 0.00035699282 0.05587527
000030 2a 13 29 3e 95 21 77 bd 52 64 7a 3d be 9a cf 3c
       0.16511217 -0.06033476 0.06113083 0.025342342
000040 c9 f0 80 bd a3 82 a7 bd 64 ff f8 bd 96 ab b5 bd
       -0.06295926 -0.08179214 -0.12158087 -0.08870618
000050 78 22 06 bd 5c 6f 1d 3e 43 bf 1a 3e 5f e3 07 3e
       -0.032747716 0.15374511 0.15112023 0.13270329
000060 36 65 08 bd c0 3a 3f be 09 c3 91 bd ad 2a 33 3c
       -0.033299647 -0.18674755 -0.07117278 0.010935468
000070 d6 f8 dd 3d e6 61 a5 3d bd 2f 15 3e
       0.10838477 0.08075313 0.14568992

decoder.fc2.weight f4 [31, 31]
000000 20 ce fd bd 43 79 9c be bd 1f 8a 3e 01 8b 53 be
       -0.12392831 -0.30561265 0.2697734 -0.20658495
000010 62 d6 ba bd ca 27 7b 3c 1f 52 d0 bd 0a ca 57 bd
       -0.091229215 0.015329311 -0.10171913 -0.052682914
000020 43 57 c1 3d 25 28 38 3d a2 1c db 3d 8a a4 4c be
       0.09440472 0.04496016 0.10698821 -0.19984642
000030 58 52 87 3d 4e 66 cf 3c 9d 85 03 bc 6e b2 07 3e
       0.06607503 0.025317337 -0.008027461 0.1325166
000040 07 d1 94 3d 99 9a fe bd 2f 83 ee 3d 0f 63 98 3e
       0.07266431 -0.12431831 0.11646115 0.29763076
000050 50 0d 76 3e d0 0d 75 3d 1d 8f cb bc e7 fd c9 ba
       0.24028516 0.059827626 -0.024848515 -0.0015410752
000060 1c eb 1d be 91 c3 11 3d a9 f3 ac 3d a8 1d 91 bd
       -0.15421718 0.035586897 0.08444912 -0.070857346
000070 e7 c0 6a be 23 f7 62 3e ed f9 81 3e aa f0 2f bd
       -0.22925149 0.22164588 0.2538599 -0.042954125
000080 88 bc 34 3e c0 bd 02 bf a2 46 52 be 2b 7f 45 bd
       0.17650044 -0.51070786 -0.20534757 -0.04821698
000090 0c f5 3b be 75 cd 2b 3e 2d 6f 6b 3d 8e 2f e2 3c
       -0.18355197 0.16777594 0.057479072 0.027610566
0000a0 35 89 79 bd 21 41 de 3d 4e d2 c2 3d 47 da 66 bc
       -0.060921866 0.10852266 0.09512769 -0.014090127
0000b0 cd fb 3e 3d 26 78 8c bd 11 11 37 3e 76 ed 1b be
       0.046626855 -0.06858854 0.17877604 -0.15227303
0000c0 f1 bd 1b 3e b0 48 27 3e ff 6c 16 be ce 7c 95 3d
       0.15209176 0.16336322 -0.14690016 0.07299195
0000d0 bf 26 cf 3d 30 bd aa 3c 63 8d 05 3e e3 9e ca bb
       0.10114812 0.020842165 0.13042216 -0.0061834916
0000e0 a0 2c f4 3d b4 57 f6 bd 9e be b8 3d 41 25 8d 3d
       0.11922574 -0.12028447 0.09020732 0.06891871
0000f0 7c 46 08 bc 69 0c 01 3e 82 42 90 3e b5 69 58 3d
       -0.008317586 0.1260239 0.2817574 0.052835185
000100 ea 45 2a 3c 4c f0 2d be d9 dd 20 bd 1f 91 82 3d
       0.010392645 -0.16986197 -0.03927407 0.06375336
000110 ab 66 0e 3d 02 8e 0f be fb df ca 3b fb d7 60 bd
       0.03476588 -0.14019015 0.0061912513 -0.054893475
000120 17 47 2f 3e 3e 6c 3c be cf 82 23 3e 11 74 c5 3d
       0.17116962 -0.18400666 0.15967868 0.096412785
000130 d6 35 e7 3d d8 86 bc 3d a8 48 d3 bd 78 c3 e2 3d
       0.11289565 0.09205407 -0.103165925 0.11072439
000140 14 ac 92 bd 03 e0 06 be 9a dd 3b be 76 82 2e 3e
       -0.071617275 -0.13171391 -0.18346253 0.17041954
000150 bb e0 8d 3c 9f 43 1e be ef 4e ee 3d 36 b2 0e 3e
       0.017319074 -0.15455483 0.11636149 0.1393517
000160 65 a7 0d 3d fd 5b e8 3c ae 21 18 be fc df 86 3d
       0.034583468 0.028364176 -0.14856598 0.065856904
000170 40 b4 60 be 60 a2 97 be 6a 76 f2 3d e3 ff 84 be
       -0.2194376 -0.2961607 0.11838992 -0.25976476
000180 64 e0 04 bd 7a cb 9a be 23 36 62 bd 20 01 9f 3d
       -0.032440558 -0.30233365 -0.05522741 0.077638865
000190 19 d6 52 be d9 7f 88 3c 75 88 29 3d 13 23 89 bd
       -0.20589484 0.016662525 0.0413899 -0.06696143
0001a0 a4 eb f1 3c 36 b8 38 3e 3f e8 ed 3d 3d a9 43 3e
       0.029531308 0.18039021 0.11616563 0.19107528
0001b0 5f b5 91 3a 26 ff 37 3e cd 8e 65 3a b7 d4 02 3c
       0.0011116675 0.17968425 0.0008756936 0.0079852855
0001c0 dc a5 72 3d 55 b1 77 bd 5a b8 8a 3d 16 39 e1 39
       0.059240207 -0.06047185 0.067734435 0.00042957877
0001d0 33 c6 b7 3d 58 24 b3 3d 2b 8c a8 bd 99 71 90 3c
       0.089733504 0.087471664 -0.0822986 0.017632293
0001e0 83 e0 38 be 65 69 d9 bd 3b b7 1a 3d 28 3f e2 3d
       -0.18054394 -0.106158055 0.0377724 0.11047202
0001f0 c8 ff 56 3d d9 2e 8e 3c 70 27 0b bd 34 f4 34 3e
       0.052490026 0.017356323 -0.033973157 0.17671281
000200 2a 3f 2a be 3d d7 ad bd b7 c2 07 be 3b dd 9f 3d
       -0.16625658 -0.08488319 -0.13257872 0.07805868
000210 48 1e 63 3e a5 db 62 3d 15 9b 01 3e 75 f9 cb 3c
       0.2217952 0.05538525 0.12656815 0.024899224
000220 32 b8 76 3d bd 73 86 bd c9 c3 2c bd 61 33 3b 3e
       0.060234256 -0.06565044 -0.042178903 0.18281318
000230 e9 60 d9 3d 68 a9 f4 3c f8 6c 9f bd 01 d6 b2 be
       0.10614187 0.029865935 -0.07784456 -0.34928897
000240 7b 21 4e bd 7c 7d 26 bd 8e 99 1c 3d 38 8c 66 bd
       -0.0503249 -0.040647015 0.03823238 -0.056286067
000250 5d 6c d3 bd 8e ac 10 be 99 31 92 3d 44 dd 71 bd
       -0.10323403 -0.14128324 0.07138366 -0.059048906
000260 21 3c b1 bc 1b 3e d9 bd e6 64 4f be 8f 67 0a bc
       -0.021635117 -0.10607549 -0.20253333 -0.008447542
000270 33 ca 53 3d f7 16 45 be 18 86 9e bd 72 e6 ad 3d
       0.051706504 -0.19247042 -0.0774042 0.084912196
000280 ad 67 b8 3e 7e e1 e8 bd 8b 99 5c 3d f9 cd 0b 3d
       0.36016598 -0.11371134 0.053857367 0.034131978
000290 76 ea 09 3c 2c c4 4f 3e 02 a4 09 3e a2 d0 db bc
       0.008417716 0.20289677 0.1344147 -0.026832882
0002a0 91 03 01 bd 4b 19 17 3d 14 5e 83 bd f3 40 f4 3c
       -0.03149754 0.036889356 -0.06414428 0.029816126
0002b0 31 54 ea b9 09 10 21 be b3 6f f1 bd 22 05 62 bd
       -0.00044694685 -0.15728773 -0.11788883 -0.055180676
0002c0 38 d4 92 bc a7 bc 0a 3d 09 d8 0e 3e e6 f4 ca bd
       -0.01792346 0.03387132 0.13949598 -0.09909992
0002d0 e4 62 1e 3d 0b c0 58 be 40 ab db be c2 3a 52 3c
       0.03866853 -0.21167009 -0.4290409 0.012831392
0002e0 f0 3a 99 3e 59 68 df 3d be 20 c6 be 6b c5 31 bc
       0.29927778 0.109085746 -0.38696855 -0.010850291
0002f0 a8 21 17 3e 71 82 6f 3d ee 98 00 be 51 6e f2 3d
       0.14758933 0.058474008 -0.12558338 0.118374474
000300 13 f9 14 3e 74 3c 58 be fe 30 ca bc c2 de 25 3d
       0.1454814 -0.21116811 -0.024681564 0.04049564
000310 77 9e b6 bc 49 30 ad 3b 09 34 13 3e 48 ef 17 3e
       -0.022292359 0.005285297 0.14375319 0.14837372
000320 63 fb 60 3e 07 77 29 3e 53 0a 51 be f7 b4 f3 bd
       0.21970896 0.16549312 -0.20414095 -0.11899751
000330 06 1b 7b 3c be ac 88 3c 9b d1 57 3e 67 48 88 3d
       0.015326267 0.016683932 0.21076052 0.06654435
000340 3e ba 89 3b d8 1f 97 be a9 95 8e be 21 09 2f bd
       0.00420311 -0.29516482 -0.27848557 -0.042733315
000350 01 71 c8 bd a0 ec f0 3d 31 3c 31 3e 74 86 e1 3c
       -0.09787179 0.11763883 0.17308117 0.027529933
000360 66 43 d1 bc a7 ac 57 3e 3a 8f c1 3c 68 65 4e be
       -0.025544833 0.21061955 0.023627866 -0.20155871
000370 e5 79 06 3e b8 1e 91 be 33 40 a2 3d 80 5b 2a be
       0.13132437 -0.2834375 0.07922401 -0.16636467
000380 ca 2c 21 be 54 a1 ba bc 19 f4 c0 3d 4f 5d 23 3e
       -0.15739742 -0.022782005 0.09421558 0.15953563
000390 f5 12 4c bd b9 1b 06 be 7b 52 7a 3d 16 02 d9 3d
       -0.049822766 -0.13096513 0.061113816 0.10596101
0003a0 86 52 6b 3c c3 56 2e bd b0 ff cf bd 63 e0 46 be
       0.014362937 -0.04256321 -0.101561904 -0.19421534
0003b0 b3 59 1d 3e ea 61 58 3e 9e 7a 0d be 0e 47 93 3d
       0.15366249 0.21131101 -0.13816306 0.07191287
0003c0 a3 38 21 3e 88 e5 e2 3d 53 81 ec bd b3 c1 5c 3b
       0.15744261 0.11078936 -0.11548104 0.003368479
0003d0 1e 98 9e 3d a4 d0 8e bd f8 80 52 be da 74 89 3e
       0.07743858 -0.06973389 -0.2055701 0.26846963
0003e0 ee 2e c2 3d a6 c6 5a bc 7e 36 1d be 95 72 c0 bd
       0.094816074 -0.013353026 -0.15352818 -0.09396855
0003f0 22 14 21 3e 0b 68 0d be e4 47 ef 3d ce 87 9c 3c
       0.15730336 -0.1380922 0.11683634 0.019107725

decoder.fc2.bias f4 [31]
000000 a0 c0 81 bd 39 4e 12 bc 5b 9d 2b 3d d5 80 f0 3c
       -0.063355684 -0.008929783 0.041898113 0.029358307
000010 a5 26 4f 3e db 5d 0e bd 7e 54 17 bd 7c 1b 61 be
       0.20229585 -0.034757476 -0.036945812 -0.2198314
000020 5a 95 2b bd df 80 f8 3b d3 02 77 bd 56 1f 46 be
       -0.04189048 0.007583722 -0.060305428 -0.19347891
000030 8d 0a 97 3d d0 99 af 3c 63 10 da bd 24 62 3b 3e
       0.07375059 0.021435648 -0.10647657 0.18299156
000040 4c 7d 4f 3d 66 da 18 3d fe fd cb bd 4f 5a 92 3d
       0.0506566 0.037317656 -0.099605545 0.07146131
000050 e8 5d d2 3d 5e e8 a0 3d ce de 0e 3e a1 ec 6b 3e
       0.102718174 0.078568205 0.1395218 0.23039486
000060 e9 0e 13 be d7 bd 7d bd 99 87 3a 3d e0 d4 2a bd
       -0.14361157 -0.061948624 0.045539472 -0.04170692
000070 ef 25 03 3d 8c 56 8e bd 23 8f 78 3e
       0.0320186 -0.06950101 0.24273352
