randhie_model.pth (torch, 214986 bytes, 9 tensors)

encoder.fc1.weight f4 [128, 39]
0.040562466 0.20520252 -0.08801686 -0.22264966 0.18058987 0.04599306 -0.22069071 -0.16655996
-0.092654854 0.19726786 0.32933232 0.12586002 -0.09486044 0.13496976 0.11839734 0.012636898
0.14397222 0.06931269 -0.0208486 0.20470393 0.04293738 0.11808443 -0.0018602072 0.3665526
0.098106265 0.20346975 0.1789748 0.25117376 0.09534991 -0.020989824 0.27690664 -0.030115904
-0.02298571 0.1311269 0.2039789 0.29703793 0.008576691 0.2414682 0.098800845 -0.08701455
-0.014287501 -0.08305602 -0.0199745 -0.083165176 0.0854766 0.018884083 0.03925528 -0.1309342
-0.03292174 0.27890772 0.042921305 -0.25380424 -0.24236405 -0.2484091 0.0038740688 -0.16403264
-0.052074157 -0.023724778 0.23776472 -0.008396573 0.14672436 0.08832221 0.16083401 0.3382675
0.08850255 0.10572575 0.1875895 0.2431501 0.121551685 0.18564901 0.1657439 0.13498476
0.20123897 0.12817068 0.09413247 0.1893403 0.25024495 0.16757959 -0.13426164 0.09777135
0.08594255 0.022133954 0.12625752 -0.026827997 0.02374392 0.112497866 0.06353603 0.11520053
0.054398354 -0.03703516 0.0074392343 0.03154731 -0.08781568 0.0055758273 -0.12781724 0.1250627
-0.14222714 -0.0332058 -0.15113513 -0.085047215 -0.01582781 -0.012518334 -0.03534584 0.037702367
-0.13334851 0.062987804 -0.14016561 0.03298733 -0.06736684 -0.0014437021 -0.15754727 -0.050936513
0.07440139 -0.011210544 -0.06838918 -0.0087828925 -0.013521658 -0.39596453 -0.12795329 -0.24053113
0.11922433 -0.21907389 -0.054603487 0.13456915 -0.17322975 0.47993642 0.055639967 -0.102823116
-0.017650865 -0.16276515 0.015872061 0.04222304 -0.19124809 0.019704461 -0.033198774 -0.0969151
-0.15784116 -0.26357588 -0.1988037 -0.56225973 -0.011029994 -0.22571519 0.022168849 -0.20355578
-0.14441411 0.0626302 -0.3572059 -0.26168463 -0.4508544 -0.14597745 -0.16177787 0.20035891
-0.5694087 -0.05128562 -0.5844761 -1.3503349 0.04188754 0.09313358 0.2836572 0.1931063
-0.04287544 0.042899918 0.13353541 -0.302905 0.008452047 -0.05436268 -0.1149467 0.18997753
-0.013186637 -0.08575504 0.0380191 -0.10330604 -0.29105622 0.17748037 0.17639741 -0.10710687
0.04254181 -0.029440172 -0.21005931 0.07701563 0.022490144 -0.20955688 0.05517573 -0.032065723
-0.0631681 -0.051163025 0.09883854 -0.09529781 -0.10609401 -0.13817722 -0.11332654 -0.16134027
-0.07476874 -0.063037805 -0.3111897 -0.24246448 0.016099637 -0.05881757 0.025885232 -0.0008695065
0.07806201 0.32417804 -0.086126044 -0.093946695 -0.10750354 -0.17884602 -0.14439853 -0.036288247
0.092040524 0.22057262 -0.042200785 0.18169257 -0.059528887 -0.028927041 0.15676811 0.10352766
0.08488631 0.14498708 0.26934245 0.2642345 0.010008841 0.12132233 0.35051078 0.040293902
-0.07811252 0.10280718 -0.12056457 0.0030593083 0.16788603 -0.08757656 0.5842133 0.16469301
-0.17422183 -0.049706582 0.0168432 -0.113753006 0.12766822 -0.42607245 0.08703964 0.11172209
-0.21509576 0.16695245 0.024233257 0.14484806 -0.04920697 -0.083410874 -0.022832112 0.10064753
-0.095273696 0.09964432 -0.11984758 0.0642387 0.19980773 -0.08167199 -0.115441054 -0.004842457
00000000: d424 263d 9c20 523e 2f42 b4bd 46fe 63be
00000010: 8dec 383e 3863 3c3d bffc 61be b28e 2abe
00000020: d4c1 bdbd 9600 4a3e 3f9e a83e 73e1 003e
00000030: 3146 c2bd 8335 0a3e 4e7a f23d fe0a 4f3c
00000040: 746d 133e d0f3 8d3d afca aabc e89d 513e
00000050: 1bdf 2f3d 40d6 f13d 32d2 f3ba c8ac bb3e
00000060: f0eb c83d 605a 503e 2c45 373e d999 803e
00000070: d046 c33d daf2 abbc b5c6 8d3e a1b5 f6bc
00000080: 874c bcbc 2146 063e d8df 503e 5b15 983e
00000090: 4085 0c3c 7143 773e 1958 ca3d af34 b2bd
000000a0: 1f16 6abc 4619 aabd 90a1 a3bc 8152 aabd
000000b0: 5b0e af3d cbb2 9a3c 25ca 203d 9d13 06be
000000c0: f2d8 06bd fecc 8e3e 40ce 2f3d a1f2 81be
000000d0: 482e 78be f55e 7ebe 17e4 7d3b 2cf8 27be
000000e0: b64b 55bd 775a c2bc 9878 733e c891 09bc
000000f0: e93e 163e 46e2 b43d acb1 243e 6631 ad3e
00000100: d340 b53d be86 d83d 7617 403e 57fc 783e
00000110: 17f0 f83d c61a 3e3e c5b8 293e 7239 0a3e
00000120: 9711 4e3e 2d3f 033e 86c8 c03d 6ce2 413e
00000130: 1b20 803e fc99 2b3e e27b 09be 583c c83d
00000140: a602 b03d 4452 b53c a749 013e 63c6 dbbc
00000150: 9c82 c23c 4865 e63d 2e1f 823d 41ee eb3d
00000160: cfd0 5e3d 2eb2 17bd d2c4 f33b c137 013d
00000170: b5d8 b3bd 6eb5 b63b 86e2 02be 7010 003e
00000180: fea3 11be ce02 08bd 2bc3 1abe 3c2d aebd
00000190: 53a9 81bc b319 4dbc cdc6 10bd cc6d 1a3d
000001a0: 838c 08be c0ff 803d 9387 0fbe b91d 073d
000001b0: a0f7 89bd 9b3a bdba 1254 21be cea2 50bd
000001c0: c25f 983d 6eac 37bc a00f 8cbd 1fe6 0fbc
000001d0: f289 5dbc ddbb cabe 3006 03be cb4d 76be
000001e0: e32b f43d e854 60be e8a7 5fbd 7fcc 093e
000001f0: 2463 31be 3aba f53e bce6 633d ed94 d2bd
00000200: 8c98 90bc e8ab 26be 2006 823c 11f2 2c3d
00000210: 8ad6 43be 406b a13c 70fb 07bd 6d7b c6bd
00000220: 1da1 21be 6bf3 86be 3293 4bbe 41f0 0fbf
00000230: 26b7 34bc e221 67be 729b b53c ed70 50be
00000240: 4be1 13be 4344 803d b1e3 b6be 87fb 85be
00000250: 63d6 e6be 1d7b 15be 19a9 25be e32a 4d3e
00000260: c5c4 11bf df10 52bd 3aa0 15bf c6d7 acbf
00000270: 4592 2b3d d2bc be3d 843b 913e a8bd 453e
00000280: 289e 2fbd d3b7 2f3d 82bd 083e 5d16 9bbe
00000290: 747a 0a3c 67ab 5ebd 2d69 ebbd 7889 423e
000002a0: c40c 58bc 57a0 afbd eab9 1b3d 1e92 d3bd
000002b0: 5205 95be 6abd 353e 86a1 343e d95a dbbd
000002c0: 5240 2e3d 842c f1bc ca19 57be 5fba 9d3d
000002d0: 403d b83c 1496 56be f2ff 613d 5957 03bd
000002e0: 475e 81bd 5290 51bd dc6b ca3d 802b c3bd
000002f0: d147 d9bd 547e 0dbe bf17 e8bd 6236 25be
00000300: 5a20 99bd f719 81bd 4254 9fbe 9c48 78be
00000310: 63e3 833c b1ea 70bd 440d d43c 98ef 63ba
00000320: fade 9f3d aafa a53e da62 b0bd 2067 c0bd
00000330: d12a dcbd 6923 37be 35dd 13be fca2 14bd
00000340: be7f bc3d cadd 613e bbda 2cbd 9e0d 3a3e
00000350: 90d4 73bd 67f8 ecbc d287 203e 4f06 d43d
00000360: e0d8 ad3d 7e77 143e 41e7 893e bf49 873e
00000370: 1ffc 233c d777 f83d 2676 b33e 380b 253d
00000380: 75f9 9fbd 928c d23d 8fea f6bd ad7e 483b
00000390: 51ea 2b3e 575b b3bd 018f 153f 49a5 283e
000003a0: 3567 32be 2199 4bbd c0fa 893c 56f7 e8bd
000003b0: 75bb 023e 2b26 dabe d741 b23d 8dce e43d
000003c0: 1042 5cbe 95f5 2a3e d384 c63c 0d53 143e
000003d0: 3f8d 49bd 52d3 aabd 690a bbbc 4b20 ce3d
000003e0: db1e c3bd 5212 cc3d a672 f5bd 948f 833d
000003f0: 669a 4c3e a543 a7bd 5c6c ecbd 79ad 9ebb

encoder.fc1.bias f4 [128]
0.12564608 0.1511523 -0.03162821 -0.098786704 0.003745418 0.08577515 -0.10796917 -0.048867464
-0.33733684 -0.10742917 0.037213102 -0.07789295 0.3350028 -0.030773126 -0.16872564 -0.0742237
-0.43571952 -0.057088707 -0.16557406 -0.47835878 -0.2805549 -0.014284735 -0.3264162 0.22754622
0.27666014 -0.57358694 0.0139892455 -0.00236432 -0.11161418 -0.18648769 0.1129331 0.26376095
0.30170247 -0.4421259 0.24800782 -0.22000247 -0.46945804 -0.121534884 0.07385963 0.43353593
0.11954477 0.076439336 -0.12548192 0.025280172 -0.1371138 0.19393846 -0.27190062 0.05876508
0.0029174378 0.09971465 -0.16559204 -0.2342434 0.2712895 -0.08527582 -0.019411637 0.14737953
0.24971293 0.16137248 0.16548358 0.12999593 -0.050081734 -0.040738154 0.15009156 -0.25016218
-0.13412938 -0.27981266 0.051585842 -0.067816235 -0.20292811 -0.25971085 -0.2746325 0.31010225
-0.011506368 -0.43797436 0.2038923 0.016027603 0.01989926 -0.007120054 -0.10671919 0.018240975
-0.058271065 -0.18669069 -0.023200987 0.10433878 0.041840736 0.015855921 0.41449434 -0.044729993
0.042050384 0.17241974 -0.18081683 0.064028144 -0.20258261 -0.21585771 0.22573522 0.053223055
0.1404579 -0.14093436 -0.0049205194 -0.32601705 0.19500552 0.0063419025 0.4838746 -0.32551333
-0.08403977 -0.05314772 0.19271229 -0.0694101 -0.19814657 -0.026847713 0.1211622 0.030480718
0.071344644 -0.3165332 0.103219755 0.08194324 0.39739206 -0.26549858 -0.014319302 -0.066393994
-0.03912629 0.17290832 -0.1390031 -0.01658207 -0.100602165 -0.24688953 0.060238384 -0.059810605
00000000: 5ea9 003e abc7 1a3e 958c 01bd af50 cabd
00000010: b075 753b e2aa af3d f11e ddbd 4029 48bd
00000020: 6ab7 acbe d303 dcbd c46c 183d 5786 9fbd
00000030: 7d85 ab3e ec17 fcbc 6ac6 2cbe 9802 98bd
00000040: a116 dfbe d9d5 69bd 3f8c 29be 71eb f4be
00000050: e4a4 8fbe 850a 6abc 0620 a7be e001 693e
00000060: 66a6 8d3e 98d6 12bf 2633 653c b5f2 1abb
00000070: fa95 e4bd a1f6 3ebe 7849 e73d ad0b 873e
00000080: bf78 9a3e 535e e2be c3f5 7d3e 5448 61be
00000090: ce5c f0be 48e7 f8bd b843 973d 6cf8 dd3e
000000a0: e3d3 f43d 3a8c 9c3d 557e 00be 5d18 cf3c
000000b0: 8f67 0cbe ce97 463e 8f36 8bbe a7b3 703d
000000c0: 7c32 3f3b 3237 cc3d f690 29be 80dd 6fbe
000000d0: 75e6 8a3e 17a5 aebd 2705 9fbc a9ea 163e
000000e0: bfb4 7f3e d43e 253e 8774 293e a71d 053e
000000f0: 8122 4dbd 0ddd 26bd 9ab1 193e 4215 80be
00000100: 3659 09be 9b43 8fbe ad4b 533d 3de3 8abd
00000110: 63cc 4fbe d2f8 84be a29c 8cbe b9c5 9e3e
00000120: 3585 3cbc 2d3e e0be 25c9 503e 524c 833c
00000130: c603 a33c 584f e9bb 978f dabd 196e 953c
00000140: a4ad 6ebd d82b 3fbe ff0f bebc 92af d53d
00000150: 3161 2b3d 47e4 813c 9a38 d43e cc36 37bd
00000160: 063d 2c3d cd8e 303e 0c28 39be 3021 833d
00000170: d171 4fbe ce09 5dbe 2227 673e 6b00 5a3d
00000180: 32d4 0f3e 1951 10be 4f3c a1bb b5eb a6be
00000190: 87af 473e bccf cf3b 69be f73e afa9 a6be
000001a0: 0b1d acbd 6cb1 59bd 5f56 453e e226 8ebd
000001b0: efe6 4abe bcef dbbc e323 f83d b3b2 f93c
000001c0: 241d 923d a410 a2be e164 d33d dbd1 a73d
000001d0: f976 cb3e 6eef 87be 819b 6abc 93f9 87bd
000001e0: e342 20bd e10e 313e d456 0ebe 1fd7 87bc
000001f0: 8208 cebd 9cd0 7cbe 86bc 763d f7fb 74bd

encoder.fc2.weight f4 [64, 128]
0.22435626 -0.07778481 0.06305685 -0.07028544 -0.113658085 0.13523275 -0.17705736 0.06292907
0.14148416 0.01137879 -0.14499973 0.52130306 -0.31540778 -0.0335956 0.099436656 0.10204705
0.35786322 -0.007929185 0.07137142 0.098788954 -0.30021918 -0.09328089 0.21073101 0.040630903
0.31373408 -0.67256916 -0.02254127 0.024201434 -0.08446967 0.10351822 0.079141855 0.14894867
0.036080305 0.02326821 -0.038857695 0.5761545 -0.112869 -0.43162742 0.023747826 -0.28803694
-0.16687375 0.15560052 -0.028019806 -0.0324933 -0.08002845 0.16673188 0.16672163 0.22258909
0.034297023 0.11088278 -0.17853738 -0.21590649 0.012933683 0.34827077 0.09251917 0.20343347
0.18079124 0.15666977 0.028390933 -0.04014371 -0.16450563 -0.17187653 0.36993027 -0.22470118
-0.090136856 -0.03319115 0.12066117 -0.06754152 -0.043539234 0.09159099 0.031697907 0.06180959
-0.01674371 1.0257614 -0.009553104 0.045257185 -0.009864661 -0.059753418 -0.17866302 -0.041450992
-0.07041531 -0.33910668 0.19383809 0.083339244 0.0029554078 -0.2659915 -0.28903422 0.22506538
0.13937233 -0.035384733 0.092804484 -0.09531454 0.1738483 -0.3451862 0.09736027 0.07849193
0.019954199 0.24281065 -0.12814133 -0.92890644 0.03593059 -0.030474033 -0.34083295 0.17926258
-0.13658349 -0.02359818 0.07754913 -0.117798045 -0.04157534 -0.14602368 -0.0022548588 0.016669868
0.08090142 0.13059925 0.18320683 0.099956445 -0.3126092 0.07281303 -0.01268576 -0.07015116
-0.101403326 0.22778264 -0.16957377 0.079763524 0.029234828 -0.020446425 -0.009192046 -0.27906007
-0.026897274 -0.045301802 -0.031819973 0.047322392 -0.15164123 -0.017642783 -0.03271858 -0.13607667
0.07560505 -0.0032421276 0.21851982 -0.24307434 0.397274 0.19088675 -0.20299064 -0.112779014
0.09028422 -0.13069071 -0.094978616 0.49845833 -0.023842698 -0.01857315 -0.0041656964 -0.14910877
-0.15105477 0.260557 -0.045364667 -0.047841143 -0.036165483 -0.075075515 -0.06589662 -0.1622474
-0.03553566 0.532574 0.09282475 -0.06029065 0.19705048 0.32281342 -0.009778124 0.37105516
0.12124841 -0.080997765 0.009469508 0.028951338 0.01568553 -0.35621092 -0.0077815247 -0.17741385
-0.058976684 -0.04020226 0.102133416 -0.124606036 0.013130889 0.45671102 0.05077058 -0.11727623
-0.03847724 -0.14448734 -0.034951728 0.07806948 0.24174553 0.09675667 0.02544035 0.1923347
-0.07771068 -0.0009610667 -0.09254808 -0.059603594 -0.14750434 0.091520905 -0.19397408 0.012930684
-0.03515632 -0.4958148 -0.06665813 0.0020221036 -0.15072544 -0.04224944 0.17028268 0.04227339
-0.004522952 0.019458469 -0.17441712 0.0010122128 -0.05056254 0.0019441516 0.3486727 -0.056358565
-0.08328364 -0.109522276 0.061935265 0.0025445446 0.4090075 0.10985377 -0.05331648 -0.15630113
0.10303846 0.0049831765 0.0992165 0.5661965 -0.030513747 -0.035924215 0.599064 -0.1894126
0.18625572 -0.31617346 -0.1463033 0.06654481 0.05463767 -0.17752084 0.13724343 -0.1567156
0.14064844 0.0529131 0.044434216 -0.121263966 0.31324288 0.174606 -0.10253867 0.07832372
0.051469866 -0.14880477 0.14454839 -0.026997851 0.075158216 0.037446186 0.0017845278 0.12649538
00000000: a6bd 653e a44d 9fbd f323 813d d0f1 8fbd
00000010: 92c5 e8bd 747a 0a3e 864e 35be f5e0 803d
00000020: 39e1 103e 1b6e 3a3c cf7a 14be 1e74 053f
00000030: 217d a1be 8a9b 09bd 72a5 cb3d 0bfe d03d
00000040: d939 b73e 6ae9 01bc 2e2b 923d dd51 ca3d
00000050: 54b6 99be 0d0a bfbd dfc9 573e 976c 263d
00000060: c1a1 a03e 7e2d 2cbf 78a8 b8bc 1642 c63c
00000070: 6ffe acbd 5c01 d43d 2015 a23d 0086 183e
00000080: f1c8 133d f99c be3c 3f29 1fbd dc7e 133f
00000090: dd27 e7bd 45fe dcbe cd8a c23c 9479 93be
000000a0: f4e0 2abe be55 1f3e cb89 e5bc b217 05bd
000000b0: f5e5 a3bd c3bb 2a3e 13b9 2a3e 65ee 633e
000000c0: 097b 0c3d 8316 e33d 81d2 36be 9716 5dbe
000000d0: cce7 533c 8c50 b23e b17a bd3d dd50 503e
000000e0: 5721 393e 0a6e 203e 1a94 e83c bb6d 24bd
000000f0: 2a74 28be 6700 30be 8067 bd3e 1118 66be
00000100: ac99 b8bd 71f3 07bd 341d f73d 3553 8abd
00000110: 3256 32bd 0f94 bb3d aad5 013d 0d2c 7d3d
00000120: 1b2a 89bc 264c 833f 9f84 1cbc 995f 393d
00000130: 639f 21bc 00c0 74bd 70f3 36be 84c8 29bd
00000140: e735 90bd 649f adbe 7e7d 463e c4ad aa3d
00000150: 84af 413b 0a30 88be 4bfc 93be 8a77 663e
00000160: 9fb7 0e3e 95ef 10bd 4710 be3d 4534 c3bd
00000170: 4a05 323e 3fbc b0be d264 c73d 61c0 a03d
00000180: fd76 a33c 5ba3 783e 7b37 03be d0cc 6dbf
00000190: f42b 133d aea4 f9bc a881 aebe 9c90 373e
000001a0: 8bdc 0bbe f850 c1bc 14d2 9e3d 1a40 f1bd
000001b0: e74a 2abd 3b87 15be 41c6 13bb 3f8f 883c
000001c0: a5af a53d cfbb 053e 929a 3b3e f7b5 cc3d
000001d0: 500e a0be ff1e 953d efd7 4fbc 69ab 8fbd
000001e0: 8cac cfbd da3f 693e bfa4 2dbe 0f5b a33d
000001f0: e17d ef3c 437f a7bc 3c9a 16bc f6e0 8ebe
00000200: ac57 dcbc 628e 39bd a955 02bd 20d5 413d
00000210: d747 1bbe 9987 90bc eb03 06bd af57 0bbe
00000220: d2d6 9a3d e079 54bb a9c3 5f3e 7be8 78be
00000230: 7f67 cb3e d177 433e c7dc 4fbe aff8 e6bd
00000240: efe6 b83d c9d3 05be 2684 c2bd ee35 ff3e
00000250: c351 c3bc b826 98bc 6580 88bb f8af 18be
00000260: 1aae 1abe ba67 853e 4dd0 39bd 13f5 43bd
00000270: 4222 14bd 31c1 99bd cff4 86bd 2f24 26be
00000280: d78d 11bd c556 083f e71a be3d 54f3 76bd
00000290: 9ac7 493e cd47 a53e 6d34 20bc f1fa bd3e
000002a0: 1651 f83d 28e2 a5bd ff25 1b3c 5b2b ed3c
000002b0: f17e 803c 4761 b6be 29fc febb faab 35be
000002c0: 8991 71bd 20ab 24bd 532b d13d 7331 ffbd
000002d0: f122 573c 07d6 e93e d0f4 4f3d 852e f0bd
000002e0: 4f9a 1dbd 7df4 13be 8b29 0fbd e4e2 9f3d
000002f0: 248c 773e 5c28 c63d 4868 d03c 63f3 443e
00000300: c726 9fbd 18f0 7bba d989 bdbd e622 74bd
00000310: 610b 17be 506f bb3d 24a1 46be 38db 533c
00000320: 1300 10bd 70db fdbe 0f84 88bd 4585 043b
00000330: c557 1abe c00d 2dbd 955e 2e3e dd26 2d3d
00000340: 4535 94bb 5e67 9f3c 679a 32be 3aac 843a
00000350: aa1a 4fbd e7d2 fe3a 3a85 b23e 3dd8 66bd
00000360: 9d90 aabd 374d e0bd d5af 7d3d 60c2 263b
00000370: 6e69 d13e 03fb e03d 6262 5abd 670d 20be
00000380: d405 d33d ea49 a33b 0532 cb3d 41f2 103f
00000390: f7f7 f9bc 4525 13bd 425c 193f 60f5 41be
000003a0: d2b9 3e3e 7de1 a1be 88d0 15be a548 883d
000003b0: c0cb 5f3d 06c8 35be 8b89 0c3e 0e7a 20be
000003c0: 2506 103e 68bb 583d a700 363d 3e59 f8bd
000003d0: 5f61 a03e eacb 323e cbff d1bd 3068 a03d
000003e0: 11d2 523d 4760 18be 7e04 143e 992a ddbc
000003f0: 8dec 993d 2c61 193d d1e6 e93a 0188 013e

encoder.fc2.bias f4 [64]
-0.08479108 0.076595746 -0.0635669 0.020039009 0.03510133 0.003553018 0.061620627 0.04595784
0.10571116 -0.074495375 -0.0043743625 0.08518625 -0.09473907 0.015226699 -0.060375188 -0.027036829
0.0070574316 0.08365918 0.05274332 0.0022067276 -0.056614358 0.13706203 -0.01591432 0.11059679
0.025759665 -0.07698833 0.014348965 0.022434177 0.0058470257 -0.052186213 0.08077808 -0.03198068
0.051005766 0.113037296 0.038078815 -0.07183803 0.019086827 0.060739003 -0.05469649 0.06914659
0.078442916 -0.0228143 0.10203549 7.581938e-05 0.036733285 -0.06655524 -0.1880985 0.0648615
-0.04964212 0.078534536 -0.009491595 -0.061361343 -0.088935815 -0.048385512 -0.112752035 0.08154805
0.03982371 0.045156173 -0.095089525 -0.042806398 0.0666744 -0.05442521 -0.014287834 -0.08948522
00000000: f2a6 adbd 3bde 9c3d 5d2f 82bd d928 a43c
00000010: 6ac6 0f3d c0d9 683b e965 7c3d 4a3e 3c3d
00000020: 187f d83d 0891 98bd d056 8fbb 2176 ae3d
00000030: 8f06 c2bd 6879 793c f94b 77bd 577c ddbc
00000040: 0742 e73b 8155 ab3d 6109 583d bf9e 103b
00000050: 75e4 67bd fd59 0c3e bf5e 82bc 9280 e23d
00000060: ef05 d33c 0fac 9dbd ec17 6b3c e1c7 b73c
00000070: 6898 bf3b 36c1 55bd fa6e a53d 2cfe 02bd
00000080: 6ceb 503d 1980 e73d 88f8 1b3d d11f 93bd
00000090: fa5b 9c3c 76c9 783d 6d09 60bd ba9c 8d3d
000000a0: aea6 a03d 0ee5 babc fcf7 d03d 3801 9f38
000000b0: a475 163d 1d4e 88bd e59c 40be 1bd6 843d
000000c0: 8955 4bbd b7d6 a03d a382 1bbc 0856 7bbd
000000d0: fb23 b6bd e32f 46bd 8aea e6bd aa02 a73d
000000e0: 301e 233d aef5 383d 4cbe c2bd c355 2fbd
000000f0: 968c 883d f8ec 5ebd 8517 6abc 0744 b7bd

vq_vae.embedding.weight f4 [512, 64]
-0.0010429213 -0.00046917633 -0.0017886411 -0.0012299812 0.00025123707 -0.0010938845 -0.00063388003 0.0013492175
-0.0006969017 -0.0011292216 -0.0008450793 0.0009808352 -0.00095591345 -0.0009376828 -0.00079542235 0.0015935097
-0.0017238837 0.0012460437 -0.0015183873 -0.00056612445 -0.0011920994 -0.0016105946 0.0012601479 0.0014452289
5.100295e-05 0.0018348396 -0.0005525437 0.00033507636 0.0007560544 0.0008896829 -0.0013307 -0.00041054888
0.0016483029 -0.0002634169 0.00023393775 0.00025146548 -0.00103919 2.70796e-05 -0.0017481847 -0.0017852166
0.001716665 0.0013703145 -0.0002967273 -6.856932e-05 -0.0019126106 -0.00023540366 0.0012334709 -0.00043402752
0.0017736612 0.0006939797 -0.0016099871 -7.742387e-05 0.000758443 -0.0018798828 -5.065836e-05 0.0017917664
-9.332388e-05 -0.00034050806 0.0018620882 -0.0009429718 0.0019221196 -0.001832397 -0.0010921857 -0.0009015545
0.000576474 0.0017254835 -0.0013343969 0.0019097026 0.0005563062 -0.00041500782 5.260273e-05 -0.0016662301
0.00055567385 -0.0011248717 -0.00044323038 0.0014865114 0.0009218836 0.0014391902 0.00062820944 0.0019411019
0.00026690797 0.0016718281 0.0006922262 0.0010562388 0.0004896673 0.001823107 -0.0016725934 0.0017563538
0.0015296221 0.0005054639 0.00023749378 2.5551999e-05 0.00090847886 0.00082964334 -0.001212517 0.00047529303
0.00020693801 0.00044634915 -0.00061382935 0.00084914383 0.0009028029 0.00021769665 -0.0014175803 -4.212442e-05
-4.9397582e-05 -0.00026954478 0.00063688797 -0.00046864245 -0.0008803082 0.00028460124 0.0016598678 0.0017940376
-7.771957e-05 -0.00081967865 -0.0009152207 -0.0017325308 -0.0016836596 -0.0012627263 -0.0010218702 0.0012175757
3.6062207e-05 0.000701115 0.00044582062 0.0014909036 0.0013526415 -0.0015732569 0.0013158894 -0.001751092
-0.001809286 0.0013286835 0.001922955 -0.0015088508 0.0011488863 0.00029819203 -0.0014844402 0.00046795723
-0.0018044666 -0.0017983152 0.00065392605 -0.0011559522 0.0017405883 -0.00040599937 0.0012418311 -0.0011879078
-0.0017623166 -0.0014129537 0.0005726409 0.0009778393 -0.0014548576 -0.00027693948 0.0015265185 -0.00046881218
-8.3806925e-05 -0.0005179185 -0.0014721381 0.00026737247 -0.0013299834 0.0014643066 -0.0005789923 0.0016934613
0.0011650834 -0.00035159267 0.00042857486 0.001612917 0.0013189339 -0.001450443 0.0016185902 -0.00024199882
0.0013025214 0.00039555575 -0.0005865188 0.0012477816 -0.00090759736 0.00029843114 -0.0005712812 0.001648756
0.0016738027 0.0007477561 -0.00027945824 -0.00055774744 0.00088968873 -0.0016499499 0.0014079141 0.000444856
0.0003160711 -0.000419843 -0.0015565073 0.00076866243 0.0003298109 0.0010645762 0.0012048355 -0.0014053895
-0.0015427663 -0.0006567086 0.0015989887 -0.0019202449 0.0019100045 0.00038779993 -0.00035306346 -0.0003674773
-0.00046432763 -0.0013230639 -0.0009787113 0.0015600857 0.0004036345 0.001435294 0.0003100254 -0.00094140833
9.195949e-05 -0.00081541133 -0.0014296526 -0.00082228915 0.001005816 0.0013248317 0.0015649784 -0.0013090025
-0.0016555772 0.0016501122 0.0015164618 -0.0008847681 7.269904e-06 -0.00034102914 0.00065757055 0.0014780764
-0.0014732708 -0.000436116 -0.00014677108 0.0013675035 0.0012665151 0.0012187576 -0.0016609612 -0.00082030613
-0.00023706001 -0.0005703911 -4.044408e-05 -0.00096163293 -0.00041397545 -2.4059322e-05 -1.1811499e-05 0.00051760813
-0.0010273482 0.0011228067 0.0015222891 0.0010078051 0.0018756851 0.00084776944 0.0011096173 -0.00038459175
-0.0017155469 -0.0018398447 -0.00046816096 -0.0013495963 0.0008923458 -0.0007136646 0.0010850849 3.740331e-05
00000000: a2b2 88ba c8fb f5b9 d670 eaba 5237 a1ba
00000010: 78b8 8339 ac60 8fba f82a 26ba 3ad8 b03a
00000020: 48b0 36ba 6402 94ba 5088 5dba 5e8f 803a
00000030: 4496 7aba d4ce 75ba e483 50ba 50dd d03a
00000040: f0f3 e1ba 4a52 a33a a004 c7ba f867 14ba
00000050: 3840 9cba 961a d3ba 8c2b a53a d66d bd3a
00000060: 00ec 5538 007f f03a 94d8 10ba 30ad af39
00000070: f431 463a 9c39 693a e26a aeba f03e d7b9
00000080: de0b d83a 381b 8ab9 304d 7539 20d7 8339
00000090: 6e35 88ba 0029 e337 5823 e5ba eefd e9ba
000000a0: b801 e13a 209c b33a 1092 9bb9 e0cc 8fb8
000000b0: 90b0 faba b0d6 76b9 6aac a13a 308e e3b9
000000c0: 327a e83a 30ec 353a 3406 d3ba a05e a2b8
000000d0: 40d2 463a 6666 f6ba 007a 54b8 b4d9 ea3a
000000e0: e0b6 c3b8 3886 b2b9 5011 f43a c431 77ba
000000f0: a2ef fb3a 0a2d f0ba ac27 8fba 4c56 6cba
00000100: 841e 173a 9e29 e23a eee6 aeba fc4e fa3a
00000110: 14d5 113a 6895 d9b9 c0a1 5c38 6865 daba
00000120: a4aa 113a 6e70 93ba 6061 e8b9 0cd7 c23a
00000130: 90aa 713a 36a3 bc3a 6cae 243a 926c fe3a
00000140: c8ef 8b39 3e21 db3a 8476 353a 7e71 8a3a
00000150: 045d 003a 52f5 ee3a ec3a dbba 7435 e63a
00000160: 9a7d c83a 1c81 043a c007 7939 8058 d637
00000170: fc26 6e3a 6c7c 593a 52ed 9eba c030 f939
00000180: 80fd 5839 f803 ea39 64e9 20ba 1499 5e3a
00000190: 14aa 6c3a 8045 6439 1ace b9ba c0ae 30b8
000001a0: 4030 4fb8 b051 8db9 d4f4 263a 20b4 f5b9
000001b0: 7cc4 66ba 8836 9539 ec8f d93a ea25 eb3a
000001c0: 60fd a2b8 b4df 56ba 6ceb 6fba 1616 e3ba
000001d0: 3eae dcba 1082 a5ba 46f0 85ba 1097 9f3a
000001e0: 8041 1738 08cb 373a 08bd e939 6c6a c33a
000001f0: 1e4b b13a be35 ceba ec79 ac3a e684 e5ba
00000200: 9025 edba 3827 ae3a aa0b fc3a a2c4 c5ba
00000210: 3a96 963a a856 9c39 8c91 c2ba 2858 f539
00000220: da83 ecba 72b5 ebba 3c6c 2b3a 5283 97ba
00000230: 7424 e43a 50dc d4b9 f0c4 a23a 92b3 9bba
00000240: 88fd e6ba dc32 b9ba 481d 163a d82a 803a
00000250: ecb0 beba 3032 91b9 7615 c83a e8ca f5b9
00000260: 80c1 afb8 ecc4 07ba c2f4 c0ba 202e 8c39
00000270: d652 aeba faed bf3a 84c7 17ba 22f7 dd3a
00000280: b6b5 983a f855 b8b9 58b2 e039 8468 d33a
00000290: 14e0 ac3a ca1c beba e026 d43a 10c1 7db9
000002a0: 5eb9 aa3a 9862 cf39 9cc0 19ba 9a8c a33a
000002b0: d4eb 6dba c076 9c39 08c2 15ba 121b d83a
000002c0: 8063 db3a 1005 443a 4084 92b9 cc35 12ba
000002d0: 003a 693a 2243 d8ba c289 b83a 903b e939
000002e0: 58b6 a539 601e dcb9 b803 ccba 1080 493a
000002f0: 78ea ac39 4089 8b3a 92eb 9d3a 0c35 b8ba
00000300: a636 caba f826 2cba 2895 d13a bab0 fbba
00000310: 1e59 fa3a a051 cb39 601b b9b9 f8a9 c0b9
00000320: 0071 f3b9 a86a adba 1a48 80ba ca7b cc3a
00000330: e89e d339 7a20 bc3a e88a a239 d8c8 76ba
00000340: 60da c038 54c1 55ba 2e63 bbba e48e 57ba
00000350: 96d5 833a faa5 ad3a f61f cd3a d692 abba
00000360: f4ff d8ba 9448 d83a 04c4 c63a c8ef 67ba
00000370: 00f0 f336 28cc b2b9 d060 2c3a 04bc c13a
00000380: c41a c1ba 80a6 e4b9 90e6 19b9 ce3d b33a
00000390: 3201 a63a b8be 9f3a 9cb4 d9ba d009 57ba
000003a0: 5093 78b9 4c86 15ba 80a2 29b8 1816 7cba
000003b0: d80a d9b9 00d3 c9b7 002a 46b7 18b0 073a
000003c0: 16a8 86ba 242b 933a 8c87 c73a 5418 843a
000003d0: 8cd9 f53a d83c 5e3a 9470 913a 08a3 c9b9
000003e0: 34dc e0ba f226 f1ba 8073 f5b9 f0e4 b0ba
000003f0: 50ec 693a 3815 3bba 6839 8e3a 80e1 1c38

decoder.fc1.weight f4 [64, 64]
-0.16363129 0.39779925 -0.10225303 0.12664291 -0.3370104 -0.1672085 -0.052328795 -0.30897552
-0.12764609 -0.04974306 0.25832564 -0.20969659 0.13102724 0.32419664 0.018287612 0.0770215
-0.0071023866 0.05822709 -0.22597107 -0.285973 -0.20252162 0.0471455 0.056482296 -0.12173471
-0.40181568 0.18785591 0.074896336 -0.12740812 -0.14414358 0.17515774 0.32668054 0.08159685
0.049162064 -0.48197216 -0.14003329 0.08810189 -0.009189251 -0.28517157 0.113095924 0.10799425
0.24880147 0.24323377 0.077551074 0.1894005 0.17745635 0.21041678 0.06265455 -0.058378793
0.12688093 0.022924986 0.017683603 0.14599372 0.037723795 0.3045303 0.08034183 0.3109892
-0.046599858 -0.11217389 0.051645268 -0.09300699 -0.1991655 -0.049096074 -0.15648705 0.020454811
0.20206563 0.12935969 0.2336243 -0.21836925 -0.11575468 0.054756295 0.031033576 -0.016203457
-0.07873074 -0.07770106 -0.013553635 0.0019407104 0.19751191 0.030173369 -0.116035156 0.095563486
-0.29105967 -0.06371433 -0.211406 -0.1975782 -0.10433796 0.031551063 0.12905121 -0.16766918
0.024676548 0.009950456 0.16135536 -0.1371378 0.012398734 -0.018488383 0.0057554543 0.020018378
0.11000622 0.02645426 -0.21858558 0.2827238 -0.20983602 0.03887906 0.24233718 0.17975728
0.20831381 0.10630877 0.04582145 0.25496608 0.14546613 0.21466728 0.034183465 -0.12883723
0.21775492 -0.042959053 0.041196544 0.07635055 -0.005547965 -0.0366562 -0.06289256 0.1803745
-0.26248294 -0.24487583 0.2507618 0.0044072117 -0.24105966 0.16120803 -0.061086375 0.04479001
-0.08225114 0.06364034 0.0759948 0.03848131 -0.06275152 -0.08368099 -0.04527077 -0.061622776
-0.2323424 -0.26577097 0.3131816 -0.22689696 0.13407655 0.13769741 0.072751105 0.08125364
-0.21223271 -0.20469528 -0.31169054 -0.1087988 -0.10425084 0.17941275 0.18352741 -0.33560893
-0.12761226 0.011559885 -0.08018789 -0.10254234 0.017683137 -0.13061582 0.09598098 0.049309492
0.12680422 -0.16204439 0.15897425 -0.04112465 -0.18633759 0.034454405 0.16502643 -0.10523084
-0.0023560515 0.42639363 0.10597336 0.0963967 0.07654996 -0.046675928 -0.21640371 -0.04625404
0.016135463 0.19336729 -0.17676783 0.20384064 0.18031277 0.009045557 -0.08132367 -0.14036101
-0.27962503 0.08425914 -0.27450797 0.29495665 -0.075138904 0.28948975 -0.078153506 0.36592874
0.00705435 0.1875346 -0.15357089 0.0011272385 0.051549815 -0.21698613 -0.18067706 -0.036570203
-0.21173944 -0.05650584 0.0737693 -0.21923727 -0.052408483 0.21150307 -0.09943425 -0.27141318
0.1272896 -0.027793577 -0.44909 -0.2545242 -0.0145461345 -0.032199595 0.05761377 -0.301635
-0.23864865 0.22192676 0.071859404 -0.18703626 -0.06564186 0.059743453 -0.05667664 0.010378928
0.046005942 -0.1917069 -0.036513362 0.17666538 -0.20913082 -0.16316575 0.155028 0.03757326
0.20481361 0.15545353 0.083579294 0.18983439 -0.012988067 0.13738817 -0.00016939393 0.06842665
-0.010142849 0.057184394 0.010957513 -0.08335379 0.1173948 0.1419523 -0.006868659 -0.171119
-0.10754218 -0.035320528 -0.046952646 -0.010500648 -0.1440208 0.123964965 -0.0777741 0.08484004
00000000: f68e 27be 58ac cb3e 096a d1bd aeae 013e
00000010: a18c acbe b438 2bbe b856 56bd 0a32 9ebe
00000020: a8b5 02be 61bf 4bbd 4243 843e b4ba 56be
00000030: 012c 063e 1afd a53e e7cf 953c 73bd 9d3d
00000040: 23bb e8bb 877f 6e3d f664 67be 0e6b 92be
00000050: d461 4fbe a41b 413d fb59 673d 0c50 f9bd
00000060: c9ba cdbe 4d5d 403e 4063 993d 4677 02be
00000070: 609a 13be 8d5c 333e ac42 a73e 401c a73d
00000080: 295e 493d 0ec5 f6be e364 0fbe c46e b43d
00000090: 838e 16bc 0202 92be d69e e73d 172c dd3d
000000a0: d0c5 7e3e 4612 793e 19d3 9e3d 34f2 413e
000000b0: 1eb7 353e 7f77 573e 0751 803d 9a1e 6fbd
000000c0: 13ed 013e 2ecd bb3c 34dd 903c 617f 153e
000000d0: 4484 1a3d 65eb 9b3e 428a a43d fa39 9f3e
000000e0: 7edf 3ebd 6dbb e5bd fd89 533d 737a bebd
000000f0: 0af2 4bbe f718 49bd 243e 20be d990 a73c
00000100: 4bea 4e3e de76 043e 353b 6f3e 309c 5fbe
00000110: ca10 edbd 2348 603d 203a fe3c 1dbd 84bc
00000120: 953d a1bd bc21 9fbd 1110 5ebc 6f5f fe3a
00000130: 9040 4a3e 242e f73c d7a3 edbd cab6 c33d
00000140: c605 95be a97c 82bd d17a 58be f151 4abe
00000150: 24af d5bd b03b 013d 0026 043e 78b1 2bbe
00000160: 7926 ca3c 3d07 233c 573a 253e da6d 0cbe
00000170: 0f24 4b3c f374 97bc 4098 bc3b 95fd a33c
00000180: f14a e13d 9bb6 d83c e6d4 5fbe 2dc1 903e
00000190: 41df 56be a63f 1f3d 3d27 783e 4b12 383e
000001a0: 3750 553e 6ab8 d93d 46af 3b3d ea8a 823e
000001b0: 13f5 143e bdd1 5b3e f603 0c3d e8ed 03be
000001c0: 25fb 5e3e d5f5 2fbd b5bd 283d ad5d 9c3d
000001d0: b4cb b5bb d024 16bd d1cd 80bd 18b4 383e
000001e0: 2a64 86be bbc0 7abe da63 803e 5f6a 903b
000001f0: 58d8 76be b813 253e b535 7abd bb75 373d
00000200: 4973 a8bd de55 823d 29a3 9b3d 949e 1d3d
00000210: de83 80bd f060 abbd d86d 39bd 2a68 7cbd
00000220: 2beb 6dbe 2213 88be 5759 a03e ad57 68be
00000230: 5d4b 093e 8d00 0d3e 88fe 943d 4f68 a63d
00000240: 8853 59be a49b 51be e795 9fbe e8d1 debd
00000250: 7781 d5bd fab7 373e 9cee 3b3e efd4 abbe
00000260: caac 02be ac65 3d3c 8c39 a4bd b801 d2bd
00000270: 3adc 903c 27c0 05be ad91 c43d c0f8 493d
00000280: f7d8 013e f7ee 25be 25ca 223e 5272 28bd
00000290: 48cf 3ebe 1020 0d3d b0fc 283e 4483 d7bd
000002a0: fc67 1abb 4450 da3e 9008 d93d a26b c53d
000002b0: 3ac6 9c3d 422f 3fbd ef98 5dbe e074 3dbd
000002c0: 852e 843c 1302 463e a002 35be 9abb 503e
000002d0: e9a3 383e d133 143c 068d a6bd ccba 0fbe
000002e0: 032b 8fbe 0e90 ac3d 4f8c 8cbe 8f04 973e
000002f0: 6de2 99bd 0038 943e f20e a0bd 035b bb3e
00000300: 2d28 e73b 1209 403e b041 1dbe d9bf 933a
00000310: e625 533d 9d31 5ebe 6803 39be a3ca 15bd
00000320: 39d2 58be ab72 67bd 5c14 973d bc7f 60be
00000330: 47aa 56bd 4394 583e 2fa4 cbbd abf6 8abe
00000340: 3458 023e 5baf e3bc 20ef e5be ff50 82be
00000350: e952 6ebc b9e3 03bd 6bfc 6b3d e76f 9abe
00000360: 5060 74be c540 633e 062b 933d 6f86 3fbe
00000370: 3d6f 86bd 8db5 743d c425 68bd 610c 2a3c
00000380: ba70 3c3d d04e 44be 098f 15bd c5e7 343e
00000390: 6426 56be ec14 27be a9bf 1e3e 6be6 193d
000003a0: a9ba 513e 362f 1f3e 9f2b ab3d f263 423e
000003b0: e7cb 54bc 7caf 0c3e 569f 31b9 4523 8c3d
000003c0: 312e 26bc 2f3a 6a3d 2487 333c 64b5 aabd
000003d0: af6c f03d f25b 113e 7d12 e1bb d239 2fbe
000003e0: 133f dcbd 42ac 10bd 6b51 40bd e90a 2cbc
000003f0: 307a 13be 58e1 fd3d 0748 9fbd 9dc0 ad3d

decoder.fc1.bias f4 [64]
0.5302645 0.38806015 0.33682483 0.39157698 1.2147001 -0.21412909 0.42451426 0.17094472
-0.37542126 0.34705156 -0.4056479 0.584351 0.43828306 -0.52627903 1.0994788 0.23264204
0.76168215 0.75435215 0.92930436 0.390486 -0.056994434 1.0363239 0.47906613 0.6062306
0.2586798 0.7611661 0.23303829 -0.78691137 0.41638753 0.6848701 0.14404722 -0.19328971
-0.18647432 -0.20236364 0.46157908 1.0306743 1.1964974 1.0061814 0.93501693 0.051298942
0.48477608 -0.19569461 -0.45971823 1.2053376 0.32263035 0.22978757 -0.41118714 1.1602334
-0.22142588 0.378464 0.7829128 1.21073 0.26822305 0.33064038 -0.73319906 1.0799906
0.39198527 0.9039314 -0.59449744 0.028674616 0.3084718 0.3948479 -0.03611092 0.88541734
00000000: 6abf 073f d2af c63e 4e74 ac3e c77c c83e
00000010: 4b7b 9b3f a844 5bbe ef59 d93e 220c 2f3e
00000020: 3737 c0be beb0 b13e 15b1 cfbe 0798 153f
00000030: a366 e03e 39ba 06bf b9bb 8c3f b739 6e3e
00000040: 9afd 423f 391d 413f e4e6 6d3f c8ed c73e
00000050: ff72 69bd 43a6 843f 2848 f53e ee31 1b3f
00000060: ae71 843e c8db 423f 97a1 6e3e 0673 49bf
00000070: bf30 d53e a653 2f3f 1d81 133e bded 45be
00000080: 20f3 3ebe 6a38 4fbe 1854 ec3e 23ed 833f
00000090: d426 993f 8dca 803f 455d 6f3f d71e 523d
000000a0: 9234 f83e 2b64 48be 3060 ebbe 8148 9a3f
000000b0: ce2f a53e 6f4d 6b3e 1f87 d2be 8782 943f
000000c0: 77bd 62be 09c6 c13e f96c 483f 33f9 9a3f
000000d0: 8854 893e b249 a93e efb2 3bbf 223d 8a3f
000000e0: 4bb2 c83e 0c68 673f fc30 18bf 07e7 ea3c
000000f0: 04f0 9d3e 8129 ca3e 0be9 13bd b6aa 623f

decoder.fc2.weight f4 [39, 64]
0.30526558 -0.027113492 0.20355485 -0.042026307 0.13764144 -0.010249627 -0.10064341 0.09300631
0.009826312 0.06088787 -0.20523901 -0.019294947 -0.0967036 0.0417613 0.39356312 -0.032262478
0.085766785 -0.04266003 -0.078171276 -0.40515313 -0.140895 0.06396454 0.1480193 0.06813286
-0.063222416 0.007457851 0.08161997 0.15913722 0.09346498 0.14787991 0.2167537 -0.15446767
-0.00815999 -0.1403776 -0.03732687 0.107774936 -0.16259965 -0.1585301 0.008446851 0.23701136
0.23980916 0.037305515 -0.17380016 -0.20636448 -0.050609343 0.021735363 -0.087107524 -0.15209442
-0.16957985 -0.0052706213 -0.09268896 -0.03441386 -0.096114516 0.018119877 0.028071685 -0.026549518
-0.041712537 -0.08879721 0.03415166 0.0017342556 0.40719178 0.079392746 -0.015830172 0.0004588222
0.023648597 -0.06710564 -0.059211534 0.10033078 -0.021256039 0.35283318 0.080552086 -0.0023740332
-0.04292953 0.084802434 -0.029642712 0.05688058 0.028470801 -0.080867305 0.0066203093 0.15140836
0.1728963 0.14285804 -0.341472 0.12945385 0.008931636 0.16517954 -0.078088365 -0.23841694
-0.06586561 -0.11474889 0.23217067 -0.19597845 0.2168795 0.020309264 0.12637454 -0.12371386
0.001062059 -0.11470338 -0.12187311 -0.14159255 -0.14974757 -0.0214792 0.047642875 -0.03622418
-0.09563648 -0.049850494 -0.033241075 0.020324714 -0.07237142 -0.05367884 0.07789143 -0.002693222
0.1030665 -0.048904236 0.046303794 0.037460588 -0.028580712 0.18530467 0.119153574 -0.2074893
-0.08561539 -0.045551583 -0.059022922 -0.132922 -0.036679 0.051406417 0.10824702 0.09932805
-0.10832554 -0.12956433 0.12953933 0.122336484 -0.10687294 0.0403879 0.052745618 0.0073551154
0.02067985 0.077886194 -0.08363556 -0.07210335 -0.05917264 0.08813242 -0.21532315 0.138738
0.034802157 0.22532876 0.13858657 0.054812275 0.030610226 -0.052543014 0.05019122 -0.029261163
-0.130891 -0.17372738 0.09695851 -0.05169116 -0.07672826 0.071735285 0.015466971 -0.048103638
-0.043190606 -0.12599185 -0.10320266 0.014944228 0.0149666 -0.010569986 0.08504733 0.00657886
0.0781709 0.09450855 0.10448834 0.07004173 0.06808891 -0.08064235 -0.072771646 0.18754733
0.048725754 -0.023343625 0.065044254 -0.052507244 -0.146944 -0.3541128 -0.11732219 0.08381048
0.12110487 -0.30371863 -0.056539312 0.047713414 0.0977663 0.13556354 0.016182918 0.06599094
0.18083447 -0.0935811 0.08656902 0.12866585 0.080832005 -0.10123527 -0.28600475 -0.07120559
0.1197637 -0.118922986 -0.054058265 0.18283424 0.13411723 -0.1042939 -0.19852337 0.054726128
0.10266317 -0.0012935565 0.09026891 0.13348915 0.08657841 -0.10934754 -0.007486287 -0.2542696
0.0315687 0.2316719 -0.09081288 0.061177935 0.021267524 -0.19560139 0.12785001 0.16529766
-0.065287605 0.0025792355 -0.059220485 -0.10719688 -0.14821725 -0.075942494 -0.07990726 -0.04482316
0.002269681 -0.012980101 -0.025652854 -0.13497216 -0.1927777 -0.03705471 0.09886502 0.116639525
-0.09297504 -0.16110888 0.053943582 0.13239504 0.024579702 -0.024370441 -0.09422113 0.13069503
0.011897324 0.025339164 0.13545524 0.27101332 0.12973529 -0.1817994 0.047124773 -0.018110383
00000000: c54b 9c3e 1d1d debc af70 503e c723 2cbd
00000010: e1f1 0c3e 0dee 27bc 221e cebd 187a be3d
00000020: 8afe 203c 8f65 793d 2d2a 52be 7010 9ebc
00000030: 890c c6bd e60d 2b3d 1b81 c93e a925 04bd
00000040: 7fa6 af3d 49bc 2ebd 4318 a0bd 3b70 cfbe
00000050: c746 10be d7ff 823d 5f92 173e 3e89 8b3d
00000060: c17a 81bd fd60 f43b 5f28 a73d def4 223e
00000070: 916a bf3d d56d 173e aff4 5d3e c62c 1ebe
00000080: 7bb1 05bc 25bf 0fbe 0fe4 18bd 1bb9 dc3d
00000090: 8680 26be b755 22be a964 0a3c 1bb3 723e
000000a0: 8890 753e abcd 183d abf8 31be 3651 53be
000000b0: be4b 4fbd 5c0e b23c 6e65 b2bd a4be 1bbe
000000c0: 57a6 2dbe 2db5 acbb b6d3 bdbd 8cf5 0cbd
000000d0: b0d7 c4bd 2370 943c 97f6 e53c 607e d9bc
000000e0: c4da 2abd 50db b5bd 9ce2 0b3d f64f e33a
000000f0: 717b d03e aa98 a23d 47ae 81bc 138e f039
00000100: b4ba c13c af6e 89bd cb87 72bd 397a cd3d
00000110: 2521 aebc 8da6 b43e 7ef8 a43d ab95 1bbb
00000120: e0d6 2fbd e6ac ad3d 46d5 f2bc 9cfb 683d
00000130: 993b e93c c29d a5bd 2eef d83b cb0a 1b3e
00000140: ba0b 313e 6149 123e 6bd5 aebe 8d8f 043e
00000150: ff55 123c d324 293e cbec 9fbd 9223 74be
00000160: 8de4 86bd 7701 ebbd 26be 6d3e 93ae 48be
00000170: a915 5e3e 9d5f a63c 5468 013e b15d fdbd
00000180: c934 8b3a 9be9 eabd 9c98 f9bd a3fd 10be
00000190: 6d57 19be 26f5 afbc 2d25 433d ce5f 14bd
000001a0: 0fdd c3bd 0830 4cbd cb27 08bd 0480 a63c
000001b0: 7837 94bd 58de 5bbd 8b85 9f3d c480 30bb
000001c0: 8714 d33d cf4f 48bd 0ca9 3d3d 4670 193d
000001d0: 1922 eabc 82c0 3d3e ca06 f43d 1378 54be
000001e0: 1f57 afbd 4c94 3abd 05c2 71bd b41c 08be
000001f0: b83c 16bd 898f 523d 9db0 dd3d 816c cb3d
00000200: c8d9 ddbd 83ac 04be f5a5 043e 8d8b fa3d
00000210: 33e0 dabd c86d 253d ca0b 583d 2e03 f13b
00000220: ca68 a93c cc82 9f3d 1f49 abbd ecaa 93bd
00000230: 035f 72bd c57e b43d ac7d 5cbe 5611 0e3e
00000240: b58c 0e3d 95bc 663e a3e9 0d3e d682 603d
00000250: 4cc2 fa3c 5837 57bd 4f95 4d3d 1bb5 efbc
00000260: 4a08 06be 97e5 31be 2f92 c63d 1cba 53bd
00000270: b523 9dbd f3e9 923d 2e69 7d3c 5208 45bd
00000280: a2e8 30bd 0204 01be eb5b d3bd a3d8 743c
00000290: 7836 753c bc2d 2dbc 4b2d ae3d 7a93 d73b
000002a0: 1118 a03d b38d c13d fcfd d53d 0a72 8f3d
000002b0: 3372 8b3d d127 a5bd 4d09 95bd 680c 403e
000002c0: a894 473d 213b bfbc ec35 853d d611 57bd
000002d0: 7d78 16be 464e b5be 9e46 f0bd d4a4 ab3d
000002e0: d505 f83d 0281 9bbe c495 67bd 246f 433d
000002f0: b339 c83d 2bd1 0a3e 0a92 843c 4226 873d
00000300: ac2c 393e 73a7 bfbd 194b b13d fbc0 033e
00000310: 408b a53d 7054 cfbd 376f 92be 3dd4 91bd
00000320: ac46 f53d e58d f3bd 336c 5dbd e638 3b3e
00000330: 0756 093e 0a98 d5bd b649 4bbe 8128 603d
00000340: 1141 d23d 8e8c a9ba e8de b83d 61b1 083e
00000350: 0550 b13d 9af1 dfbd 874f f5bb a02f 82be
00000360: 2e4e 013d 663b 6d3e 1afc b9bd b795 7a3d
00000370: 3b39 ae3c bb4b 48be 1deb 023e ca43 293e
00000380: 82b5 85bd 6408 293b 2e91 72bd 0a8a dbbd
00000390: 43c6 17be bd87 9bbd 6ba6 a3bd 7d98 37bd
000003a0: eebe 143b 7daa 54bc ef25 d2bc 2436 0abe
000003b0: 8467 45be aec6 17bd be79 ca3d b4e0 ee3d
000003c0: b369 bebd baf9 24be f2f3 5c3d 9192 073e
000003d0: 5f5b c93c 85a4 c7bc 02f7 c0bd ebd4 053e
000003e0: feec 423c 1494 cf3c c7b4 0a3e 42c2 8a3e
000003f0: 54d9 043e 9f29 3abe e805 413d 3a5c 94bc

decoder.fc2.bias f4 [39]
0.038458962 0.037741248 -0.020948274 -0.04247961 0.12412033 0.06689368 0.09162991 -0.07380838
-0.09003966 -0.1661357 0.0607444 -0.14851478 -0.20667927 0.100459926 -0.019154241 -0.03559723
0.011878332 0.10600348 0.29132503 0.07975154 0.006341747 0.011702143 0.19354878 0.07217154
0.15325412 0.1463635 0.092948385 0.15595159 0.31497842 0.09928681 0.19016713 0.019317184
0.20580618 0.17369074 -0.0126541 0.2604963 0.17577666 0.12068825 0.1013751
00000000: 2587 1d3d 9196 1a3d b79b abbc 19ff 2dbd
00000010: cd32 fe3d 8eff 883d 76a8 bb3d d928 97bd
00000020: b766 b8bd 7a1f 2abe 1fcf 783d 4214 18be
00000030: bba3 53be efbd cd3d 5be9 9cbc 67ce 11bd
00000040: 569d 423c 5a18 d93d 8e28 953e c754 a33d
00000050: 6ece cf3b 58ba 3f3c a731 463e acce 933d
00000060: a6ee 1c3e 50e0 153e b95b be3d c6b1 1f3e
00000070: da44 a13e e256 cb3d 2cbb 423e 123f 9e3c
00000080: dbbe 523e fcdb 313e 2453 4fbc c55f 853e
00000090: ccfe 333e 672b f73d c09d cf3d
