randhie_model.pth (torch, 43656 bytes, 8 tensors)

encoder.fc1.weight f4 [128, 31]
00000000: 7d2b 42be ca7e 52bd a498 843e 6112 48be
00000010: b191 90be 3f69 123e bc19 803e 46be fb3d
00000020: 4066 c43e 62ac f1bd 16a1 3b3d 2746 4b3c
00000030: 5826 793d 07b0 4abd e9b5 ff3d e6c3 c8bd
00000040: ac99 883e 7549 293e 77fe 3e3e 4083 1ebe
00000050: ace5 9cbe 4077 8b3e cfda 27be 6c0b 52bc
00000060: 2ec2 19be 615d 5b3e fb24 da3d b715 0f3d
00000070: 25fb 933d 031a a1bd 5bef 003c 9b2f 143d
00000080: 4c0a 30be 9834 353e 4289 1abe 5e7e c0bd
00000090: a329 d0bd 7372 983d ca19 c4bd b27c 8c3e
000000a0: b35f fbbd 6658 583e 086b 673e 0660 8c3e
000000b0: f84c 84bd 660c 0dbe b0e5 673d c6f8 0a3e
000000c0: 9610 cc3d b403 083d 0eee e13e 8e7b 623e
000000d0: cf1c 86be fcf8 f0bd da86 85be 6e58 f23d
000000e0: 6387 c1bd 27df 29be 62e3 313d a335 4bbd
000000f0: 8e92 10bd 3d0a 9f3d 9e0c 4cbd f572 113e
00000100: 4e10 c3bd 8b19 98bd c832 6abe ba7c 2c3e
00000110: 9961 06be 585b 213e 24a4 59be b69b a1bc
00000120: 08ea d1bd 26d3 24be c8c3 e5bd 7ca7 a13a
00000130: bc60 213e 3758 39be e0b7 533e 2f9a 613d
00000140: ca04 5e3e 6902 b33d e978 323d 3a62 b4bc
00000150: 83a7 1cbc c59c 083e 97e5 f3bd eeca 00bd
00000160: e2b6 2ebd 027f 0b3e 4a83 1d3e ebcf e93d
00000170: b60f 503c dde9 123e 35c8 0fbe cfa5 2f3e
00000180: 27dd ea3b 9ad5 3d3e 8e87 fabb 16ef 353c
00000190: 23a0 a2bd 94d8 1bbd edd4 4f3d 2a8d fcbd
000001a0: 3666 d43d cf0b a7bb 46ab 47bd 1438 283e
000001b0: c16b d3bb 114d 31be 08e6 c73d ebc8 96bc
000001c0: ceab 293e bdcb b8bc 8ff7 093a 017f 0fbd
000001d0: 61d3 8e3d 1d07 9b3d a711 403d b2a6 bebd
000001e0: 6fa8 7cbd 3d82 a53d 7f9d cebc bfad a9bc
000001f0: b828 103f fffc c4be 7acc 953d a495 57bc
00000200: 78c5 a6be 5816 5dbd 7035 a6bd 7c90 b63e
00000210: 5953 4fbe 47ca b93c 8721 813e 4791 ca3d
00000220: 81ff 91be 28cd 343e 7c59 90be 8c61 a23c
00000230: 8912 7e3d 05c5 363e e368 2f3d 243f aa3e
00000240: ba3b ac3e 45ae 04bd 19ed da3e aa0d c83e
00000250: 7dc8 073f 9b3a 823e 8138 95be b33d c9bd
00000260: 1ea5 4cbf b898 0dbf 72f3 813e 0257 973c
00000270: 225e edbd ec39 463e bfbc 2cbd 1a67 a6bd
00000280: 305b 1a3e 6aa7 3a3e 629a 7bbd 61a2 6bbc
00000290: 0edb 04be e17b 6c3d 830d 8c3d df22 643e
000002a0: 7c11 f63d 523c f83c 197d 51bd dcbb cbb9
000002b0: 56d3 113e 3710 3dbd 93a8 c7bd 0dc0 d2bd
000002c0: 804f e7bd 18bd 9e3b 3f4d 80bd 538d 4c3e
000002d0: da18 9b3d f581 9a3d bd5c fbbd b214 1d3e
000002e0: 3a3b b93c 21d9 533e 158d 47bd 92f0 a4be
000002f0: 5c74 6cbd 495c 303d f885 723d 84bb e73d
00000300: 008d 02be 6c84 64be 201f 983c 680a 113e
00000310: 9881 803d 29d8 243d 9de3 123d 7482 3fbd
00000320: 9c69 003c de45 1cbd 6d96 ae3d e51d 5c3e
00000330: 0bbc d4bd b5ef 03be 6860 613d 3b5e 27be
00000340: 0a04 423e b067 fabd 8aad c13d 9bad c3bd
00000350: 9926 b33d c024 153e 7bd4 873d 2ef7 f33d
00000360: 6af9 25bc 466d 873d 5280 b8bd 393d e1bd
00000370: 062d 9ebd 482b 18be f28d 7c3d be31 3e3e
00000380: 5cfa 243e 0f1c c2bc f823 b03d 1128 b5bd
00000390: 9853 3cbe 0256 4dbe 15eb 08be 3dcf 1cbe
000003a0: 9d0a 2bbd d4ab 2dbe 8d3f a7bc 17de 023d
000003b0: 0e9c 3d3d 5e92 553e 1ba4 803d 601e 55be
000003c0: 15bf 013e 3550 7cbd 0ba9 e6bd 2398 a03c
000003d0: cf62 bfbd 96a5 a5bd 4e52 843a 87a0 693e
000003e0: 0778 1abd e9ac 1d3e 32bd 0d3e 212b 543d
000003f0: 6f33 433e 0e36 32bd 5b04 883d 0e58 fcbd
-0.18961902 -0.051390447 0.25897706 -0.19538261 -0.28236154 0.1429796 0.25019634 0.12292151
0.3835926 -0.118004575 0.04580792 0.012406862 0.060827583 -0.04948428 0.124858685 -0.0980299
0.26679742 0.16531928 0.18651758 -0.15479755 -0.30643976 0.27239418 -0.16392063 -0.012820106
-0.1501548 0.2142234 0.10651585 0.03493282 0.072256364 -0.078662895 0.007869567 0.036178213
-0.17191428 0.17695844 -0.15091422 -0.09399103 -0.101641916 0.074437045 -0.095752314 0.27438885
-0.122741126 0.21127471 0.22599423 0.2741701 -0.06459993 -0.13774261 0.05661553 0.13571462
0.09964101 0.033206657 0.44126934 0.22117445 -0.26193854 -0.1176624 -0.26079446 0.11833273
-0.09449651 -0.16589032 0.04342974 -0.0496117 -0.035296015 0.07765625 -0.04981672 0.14204009
-0.09524594 -0.07426747 -0.22870934 0.16844454 -0.13123168 0.15757501 -0.21254021 -0.01972757
-0.10249716 -0.16096172 -0.11218983 0.001233324 0.15759557 -0.18100058 0.20675611 0.05507868
0.21681514 0.08740694 0.04357234 -0.022019494 -0.009561422 0.13341053 -0.11909025 -0.03144353
-0.04265488 0.13622668 0.15382114 0.1141661 0.012699058 0.14347024 -0.14041217 0.17153095
0.0071674767 0.18538514 -0.007645554 0.011104366 -0.079407 -0.038048342 0.05074017 -0.123316124
0.10371058 -0.0050978432 -0.048747323 0.16427642 -0.0064520543 -0.17314555 0.09760672 -0.018406352
0.16569445 -0.022558087 0.00052630244 -0.03503323 0.06973911 0.07569716 0.046891835 -0.09309138
-0.06168407 0.080814816 -0.025221584 -0.020712731 0.5631213 -0.3847427 0.073143914 -0.013158236
-0.32572532 -0.053976387 -0.08115661 0.35657108 -0.20246638 0.022679461 0.25220892 0.09890991
-0.28515247 0.17656386 -0.2819327 0.019821905 0.062029395 0.17848594 0.042824637 0.33251297
0.33639318 -0.03239276 0.42759016 0.39072925 0.53040296 0.25435337 -0.29144672 -0.09826221
-0.7993945 -0.55311155 0.25381047 0.018474106 -0.1159022 0.19358033 -0.04217219 -0.08125134
0.15073848 0.18227926 -0.061426528 -0.014381976 -0.12974188 0.057735328 0.06838515 0.22278927
0.12015054 0.0303022 -0.051144693 -0.00038859143 0.14240775 -0.04615804 -0.0974895 -0.10290537
-0.1129446 0.004844319 -0.062647335 0.19975786 0.075730994 0.075443186 -0.12273548 0.15339926
0.02261125 0.20688297 -0.04871853 -0.3221479 -0.057728156 0.04305676 0.059209794 0.11315063
-0.127491 -0.2231614 0.018569529 0.14164126 0.06274718 0.04024521 0.0358616 -0.04675527
0.007837679 -0.038152568 0.08524785 0.21495779 -0.10387429 -0.1288441 0.05502358 -0.1634454
0.18946853 -0.12226808 0.09456928 -0.09554597 0.08747596 0.145648 0.06632324 0.1191238
-0.010130266 0.06612639 -0.0900885 -0.109980054 -0.07723431 -0.1486026 0.061658807 0.18573663
0.1611113 -0.02369502 0.086006105 -0.08845533 -0.18391263 -0.2005234 -0.13370927 -0.1531343
-0.04175817 -0.16960078 -0.020416046 0.031950083 0.046291403 0.20856616 0.06281301 -0.20812368
0.12670548 -0.06159993 -0.11262711 0.019603794 -0.09345018 -0.08088224 0.001009533 0.22815143
-0.037712123 0.15397991 0.13841704 0.051798943 0.19062589 -0.04350858 0.06641456 -0.123214826

encoder.fc1.bias f4 [128]
00000000: 3ee7 30be a3a4 61bd 1910 883d f80a 863d
00000010: c95f 113e 74be 25bd 31fe 503e 0560 443d
00000020: e462 ffbb 86d5 bf3d efb2 6b3c b2ed 12be
00000030: 2709 3abd c9fb dd3e 33cb 343e d43b a03e
00000040: f86d 68bd b134 933e 4aca f3bd 343e 24bd
00000050: ca90 74bc 0707 c9bc 56de 763e c3c7 b53e
00000060: 3869 e1bd c0a9 c53e 3b78 a0bc 1787 bc3e
00000070: 26b0 263e 18ab ac3d afd1 1cbe fc68 09bd
00000080: e41f 2e3d 92aa 353e 4442 063d ef8e c1bb
00000090: 67fa dc3d eb94 e9bd 2cde f43c 7874 a1bd
000000a0: 3028 8b3e ddd7 403d 2dab f03d de66 88bd
000000b0: fc65 933c 6749 4b3e f975 44bd 3bfe d43d
000000c0: 288d 8c3e 3303 09be 4e88 a3bd 68e6 68bc
000000d0: 4c16 a03d 50db 393c aeb7 4c3e aa99 27bd
000000e0: d2e8 343e 674f 983d fef0 ef3d 8ff3 163e
000000f0: a780 19be af30 143e af70 1cbd b6db 67bd
00000100: ed00 be3c 2564 4c3d c265 81bd 734f e8bb
00000110: d430 003e 708b a0bd 37d3 c7bd 2d39 3dbd
00000120: d02a 8a3d 345c 743b 395b 403e de17 0a3e
00000130: 8f15 e03c 965c 493c 37bd b73c 8269 173d
00000140: b0f4 c03e c254 d63c 30e4 933d aad8 703d
00000150: 0eec 8a3e d596 1e3d e8cd f73b 3097 a73e
00000160: 7eaf f93d 076e 4cbd 85cf 393e db21 393c
00000170: 83e7 0fbe f32d 493e ff50 033e 3da6 d6bd
00000180: 5690 363d e27f 04bd ae3c 13be e64f dbbb
00000190: 8c1b 57bd e205 fabc 1337 103e 5a56 11be
000001a0: 448c 293d 7ca1 6c3d 5e4b 0abe 7e8d f1bd
000001b0: afba b43d 9a8c 893b 2c30 143e 5299 6c3e
000001c0: afde 2d3e 0159 bdbc 5f16 983d b51d 6abd
000001d0: 80e8 ba3d 5d74 69bd fe61 113e 6721 d5bc
000001e0: 092f 133e 0d47 043d b885 4cbd 49aa c8bd
000001f0: 6c77 04bd aa18 243d 4185 1c3e 5c79 f33b
-0.17275712 -0.05508865 0.066436954 0.06545061 0.14196695 -0.040464833 0.20409466 0.047943134
-0.007793771 0.09366898 0.014385923 -0.14348486 -0.045418885 0.4335616 0.1765564 0.31295645
-0.0567455 0.28751138 -0.11903818 -0.040098384 -0.0149270985 -0.024539484 0.24108252 0.3550397
-0.11006397 0.3860607 -0.01958858 0.36821815 0.16278133 0.08431071 -0.15314363 -0.033547387
0.042510882 0.17740849 0.03277804 -0.0059069316 0.10789948 -0.11405357 0.029891096 -0.07883543
0.27179098 0.047080863 0.11751399 -0.06660245 0.017992966 0.1985222 -0.04796407 0.10400053
0.27451444 -0.13380127 -0.079849824 -0.014215089 0.07816753 0.011343792 0.19991943 -0.04091803
0.17666939 0.0743702 0.117158875 0.14741348 -0.14990483 0.14471696 -0.0381934 -0.056606017
0.0231938 0.049900193 -0.06318237 -0.007089549 0.12518626 -0.078390956 -0.09757083 -0.046197105
0.06746447 0.0037286403 0.18784799 0.13485667 0.02735403 0.012290141 0.022429092 0.036965854
0.37686682 0.026163463 0.07221258 0.058800377 0.2713322 0.038718063 0.0075623877 0.32732534
0.121916756 -0.049909618 0.18145569 0.011299576 -0.14053158 0.19646434 0.12823866 -0.10480926
0.044571243 -0.03234852 -0.14378616 -0.0066928742 -0.052516505 -0.030520383 0.14083509 -0.14193097
0.041393533 0.05777119 -0.13505313 -0.117945656 0.088246696 0.004197669 0.14471501 0.23105362
0.16979478 -0.02311373 0.07426142 -0.057157237 0.09126377 -0.05699574 0.14197537 -0.026016904
0.14373411 0.03229432 -0.04993221 -0.09798104 -0.032340452 0.040062584 0.15285207 0.0074302386

encoder.fc2.weight f4 [31, 128]
00000000: b414 00bd 40a2 42bd d5b3 aabd fd52 96bc
00000010: 55bb 72be 3890 03bc 4b3a 12bd 563f 03bd
00000020: 20df c8bc 75e4 24bd 571a debe 1116 edbd
00000030: 3e97 d03c 49b9 00be e864 07be 3bea c0bd
00000040: c880 b63b 77cf de3d 76d6 7a3d cf1d 893b
00000050: 68c4 bebd 05a1 873d 1915 a33c 04c5 aa3e
00000060: 233f 7f3c fd82 0e3d a97f a83c 0dab 533e
00000070: b124 a43a 68f5 c4bd 6e1c bcbc 519b 4b3c
00000080: 162e 713c c728 6cbd d7c9 e43d a019 943c
00000090: 3ca3 4bbd 1bd8 aebc 547c 143c 2d8a 07bd
000000a0: 692c 09be 0f11 8cbd 754a 3bbe d142 dabd
000000b0: 0f99 d53d cc16 15be b33e 7dbd 85a3 0abe
000000c0: 38be 013f d968 b03d ae7f 96bd a352 013d
000000d0: 4e62 27bd 6e39 1cbe aaad febc e168 293d
000000e0: 7f74 093d 586a a3bd f74e 8bbd 9efc 683e
000000f0: 9494 11bd 8be7 95bc 2fbb 9fbd b4a2 bbbd
00000100: 3c22 07bb 4655 6ebe ed4d 88bd 1cc0 833e
00000110: 585d f5bd 1913 453d 8b10 f13c 8ce4 ddbc
00000120: 5478 513d 4af9 1a3d 246f fbbd 786b 633e
00000130: 2a45 b7bd 421a df3d 7c96 75bd 597d 383e
00000140: 2038 813d df6b a9bc 49e1 57be 7200 c1bd
00000150: 6624 edbd 20be 2a3c 181b 113d 845d 2abe
00000160: 74aa f23d ff31 193d f38f 9d3c b0c3 693e
00000170: 6aab cf3c bd07 0abe ddb1 46be c966 203d
00000180: ba37 e1ba c0b1 b6bb 2be7 c13d c8e3 a0bd
00000190: 4c20 7fbe 6c54 8fbc a632 23be 95ab 553d
000001a0: c1cb dabe 015b 20be 182e f4bd 233b 013d
000001b0: 948a 1a3d ff06 07be 2d78 953d 9088 91bb
000001c0: 7c8b 1fbd 6e21 1dbc ec7f febd e32b ac3c
000001d0: a0e3 7d3e ab1f 1e3d 53f1 3cbc 43a2 5dbd
000001e0: 680e 1b3e 8cef 84bc 2502 e4bc ed93 91bd
000001f0: 4761 853a 9157 5fbe 1ab9 fb3c b30c 14bd
00000200: ec0f 55ba ca04 dd3d c5a4 9dbd 9755 bb3d
00000210: 7755 9cbd 6e5b 883d 5954 7e3d 6ee5 433d
00000220: 9bbd d73d 87e3 d6bc 45fb bdbd 5044 2b3e
00000230: da95 8b3d b46a f4bd 25a0 e3bb 7068 0dbe
00000240: 2787 09bd f8f7 8f3e 663c 81bc e74f 963d
00000250: 182c c63d 52da 15bd 21af 443d 92fa e33e
00000260: d9c0 0cbd 8f5f 99be f62d e9bd 68da 87bd
00000270: f015 bf3d 548a 9bbe f197 b63d 709f cf3d
00000280: 8792 8cbd 64be acbd 0c71 19be 0da8 5b3d
00000290: a1f4 f23d 0845 d13d e7ca 87be d741 29bd
000002a0: 8d3e 0d3d b2b1 7dbd ebf3 59be 33c3 9bbc
000002b0: 5479 94be d0ff e939 02ed a53d 784e 173d
000002c0: fcc3 0d3e 9873 acbb 853a bb3d 640b 923d
000002d0: 07e7 9f3d 4126 3f3e 4c10 bf3d ccd1 c03c
000002e0: a67b 28bc 1feb 63be 0ef6 de3d ec6d 7c3e
000002f0: 0374 80bd 8aab ae3d 784b c1bb 8914 cfbc
00000300: 90f2 c3bc c811 323e f626 14bc 6c1b 4d3c
00000310: 8114 e53d 802d f83d 6bee a13d e256 613d
00000320: 6405 463d 5f1c 8cbc 76ba 033e 0990 893e
00000330: ce29 f0bd 3a83 083e 1d7f 873d 65bd 793e
00000340: 6cbe 5b3e 2edd a1bd 7463 643d 02b5 4e3e
00000350: eb2d eebd 56a1 373e d2b6 983c 650c 2ebd
00000360: 72bf 34be 5498 67bd 2b21 06bd 1e1a 353e
00000370: 3417 fb3d cb22 973c f45f 353b 5de0 943d
00000380: 2a78 7e3d 5f53 a63d c117 02bb 03be 6a3d
00000390: 657f 59be 0342 a73d 6286 1d3e 8abd bfbd
000003a0: cdef 73be c717 9a3d 56b9 0f3d 1d1e 34bb
000003b0: decf 523d eaa6 1fbd 57c0 d7bd 266a 9fbd
000003c0: d99b de3d 830b ff3d db5b 24bd 5e6c 033e
000003d0: 6d66 afbe 7cb6 c93d ff6a e7bc 7447 e33d
000003e0: 8e6c 35be 8c28 ae3d cd56 093e 4e90 7ebb
000003f0: 40d7 17bd 5c1e a03e 0aa8 febc 46c1 2a3d
-0.031269744 -0.047518015 -0.083350815 -0.018350119 -0.23704274 -0.00802999 -0.035700124 -0.032042824
-0.024520457 -0.040256936 -0.4337947 -0.115764745 0.025462743 -0.1257068 -0.13222086 -0.09419676
0.005569551 0.108794145 0.061239682 0.0041844617 -0.09314805 0.06622509 0.019907521 0.33353436
0.015579018 0.03479289 0.020568686 0.2067072 0.0012523142 -0.0961712 -0.022962775 0.012427167
0.01472046 -0.057656076 0.111713104 0.018078625 -0.04971622 -0.021343281 0.009062845 -0.03309076
-0.13395847 -0.06839191 -0.18290122 -0.106572755 0.10429584 -0.14559478 -0.061827373 -0.1353894
0.50680876 0.08613748 -0.07348572 0.03157295 -0.040865235 -0.15256283 -0.031088669 0.041359786
0.033558365 -0.07979268 -0.06802171 0.22752616 -0.035542086 -0.018298885 -0.07799374 -0.091618925
-0.002061977 -0.23274717 -0.06655488 0.25732505 -0.119806945 0.048113916 0.029426834 -0.027086519
0.051140144 0.037835397 -0.12277058 0.22208965 -0.08948739 0.1089368 -0.059957966 0.18016566
0.06309533 -0.02068132 -0.21082033 -0.09423913 -0.11579208 0.010421306 0.03542623 -0.16637236
0.118489176 0.037401196 0.01923368 0.22828555 0.025350291 -0.13479514 -0.19403787 0.039160524
-0.0017182746 -0.0055753887 0.0946792 -0.07855946 -0.24914664 -0.01749631 -0.1593729 0.052165587
-0.42733577 -0.15659715 -0.11922854 0.031550538 0.037729815 -0.13186263 0.07298312 -0.0044413283
-0.038951382 -0.00959049 -0.12426743 0.02101702 0.24793863 0.03860442 -0.011532146 -0.054109823
0.15142214 -0.016227506 -0.027833054 -0.07108293 0.0010176086 -0.21810748 0.030727912 -0.036144923
-0.0008127678 0.10791929 -0.07697443 0.09147184 -0.076334886 0.06658064 0.06209216 0.047826223
0.10534211 -0.02623154 -0.092764415 0.16725278 0.06815691 -0.119344145 -0.006946581 -0.13809371
-0.033576157 0.28118873 -0.01577587 0.07339459 0.09676379 -0.03658516 0.04801858 0.44527107
-0.0343636 -0.29955718 -0.113857195 -0.066334546 0.09330356 -0.30378973 0.08915699 0.10137832
-0.068638854 -0.08434752 -0.1498453 0.053627063 0.118630655 0.10218245 -0.2652199 -0.041322555
0.03448348 -0.06193704 -0.21284454 -0.019013977 -0.28998816 0.00044631818 0.08101846 0.036940068
0.13844293 -0.0052628033 0.09142021 0.07131079 0.07807737 0.18666936 0.0932928 0.023537539
-0.010283386 -0.2225766 0.10886775 0.24651307 -0.062721275 0.08528812 -0.005898889 -0.025278347
-0.023919374 0.17389596 -0.009042492 0.012518745 0.111855514 0.121180534 0.07906803 0.0550145
0.048344985 -0.017103372 0.12864098 0.26867703 -0.117267236 0.13331309 0.06616042 0.24388655
0.21459359 -0.07903515 0.05575891 0.20186237 -0.11629852 0.17932639 0.018641863 -0.04249229
-0.17651156 -0.056541756 -0.032746475 0.17685744 0.12260285 0.018449208 0.00276756 0.072693564
0.062126316 0.081213705 -0.0019850584 0.057310116 -0.21240003 0.081668876 0.15383294 -0.093623236
-0.23821945 0.075240664 0.03508886 -0.002748377 0.05146777 -0.03897754 -0.10534733 -0.07783918
0.10869569 0.124533676 -0.040126663 0.12834308 -0.34257832 0.09849259 -0.028249262 0.11097613
-0.17717192 0.085038275 0.13412018 -0.0038843337 -0.037070513 0.31273162 -0.031085987 0.041688226

encoder.fc2.bias f4 [31]
00000000: a0d0 48bd e328 d2bc 4a4e ddbd 7005 3c3d
00000010: 2934 36bd 4799 f9bc 7c2d 8bbd 23ab 343d
00000020: e171 f5bd 6411 d3bd 9288 e73b 86ff 5cbd
00000030: a349 1fbd 461b 6cbb 9fb8 113d c5ca 813d
00000040: 2e82 b6bd 6c55 283d dbb5 45bd 8ffb 2a3d
00000050: c321 07bb 5cfa f93c 61f8 aebd 00d9 6b38
00000060: da4b 973d 809e 2fbc be5f 32bd d6bd 693b
00000070: 9ee3 013e aeb7 3abd f761 01bd
-0.049027085 -0.025654262 -0.10805948 0.045903623 -0.044483338 -0.030468596 -0.06795785 0.04410852
-0.11984611 -0.103060514 0.007065841 -0.053954624 -0.038888585 -0.0036026998 0.03557646 0.06337503
-0.089115486 0.04109709 -0.048269134 0.04174381 -0.0020619489 0.030514888 -0.08543468 5.6230463e-05
0.073875144 -0.010718942 -0.043548338 0.003566613 0.12684485 -0.045585327 -0.031587567

decoder.fc1.weight f4 [31, 31]
00000000: e62b 24be 11d0 ae3d bd7b a73c 2f61 1fbe
00000010: 177c 44bd e7fe 38be 4544 463d a80b 9ebc
00000020: a4b2 ad3d d438 c1bd 882f 34bd 3308 04bc
00000030: ae60 5b3e f56b 38be aef1 2ebe 3813 cbbd
00000040: a0d2 253e cf07 163d c359 c33d 42d9 e73d
00000050: 2977 1a3e 7b95 9f3d d36f 2b3e 2945 fa3c
00000060: e7dc 4f3e 720f b63d dac9 213e 64ca 193e
00000070: fdf3 4f3d 66ea c3bd a8e8 953d 548f 20be
00000080: 4c16 f83c c699 77bd 1b42 0b3e 2892 4bbe
00000090: 7ce5 c23d ca74 53be 6c52 3a3e 5b73 003e
000000a0: 1907 8d3c 7d4e 35be 5080 873d 6dac 3a3e
000000b0: 61e3 2abe 958f 1c3e 4127 e1bd 4820 98bc
000000c0: 7a8c 56be ef5e 57be 06f8 533d 108c c13a
000000d0: eca6 293d f858 f5bd 0668 f1bb a8c4 98bd
000000e0: 5746 adbc 232c 64bd 5dc8 453e 23c3 c43d
000000f0: 98a2 efbd a639 5e3e 164c 41be 53b2 27bd
00000100: 28b7 89bd 52dd 0c3e 6d5b 223e 232e 4fbe
00000110: 0bb1 c83d 2863 9d3e f446 d4bd 7992 8bbe
00000120: 5af4 1abd 795c 833e 5683 1b3e 7f94 39be
00000130: 3ae4 2b3e 7ed5 863e a6d9 cfbd 9a36 033e
00000140: d51a 153e 9e6f 353d 550e ebbd aa08 de3d
00000150: 25ef 75be 354f 9c3d ce60 e5bd 47f8 9f3d
00000160: 92a2 00be 8001 863c ec7c 7fbc 77f5 213e
00000170: 67d2 613c 77d2 943d 310c 9a3d ac55 3fbe
00000180: ad9e f73d c573 dfbd 0824 b13d f85e 32be
00000190: 789d 3a3e aeb6 0abe e479 8cbb 4b9b 573d
000001a0: 0840 d5bd dba0 6b3c 8c15 003e c641 3d3e
000001b0: 6a44 613e ec6f c9bc 983e 9e3d efce 83bd
000001c0: 7111 44be fd7f c2ba 86ae d83d c17c cebd
000001d0: c849 58bd 6cc7 1b3e 5f76 523e 5a4e 563e
000001e0: d7c9 f43d d615 49bd 06b2 3dbe d417 d6bc
000001f0: ba83 b53c 11eb 36bd 3d71 ffbd 9464 34be
00000200: 0652 55bd 73fe cdbd 6cb2 453e 167b 923b
00000210: 0e3e 583e 2169 9ebd 08b0 363e 4810 313e
00000220: 5113 db3d ed62 403e 3d3e c8bd f1cc 17be
00000230: 07ae 0cbe bf33 2abd 25ab 05bd cff3 ff3d
00000240: eb1f 61be 2f97 efbd 1843 ab3d c7a3 773e
00000250: d636 993d c784 1fba 5212 403e b856 19bd
00000260: ea1c 173e dcda 47be 96b2 8c3d b17a f2bd
00000270: 9c42 9ebe 0055 393d 693b 5cbd c4a8 43bb
00000280: 5ec7 4c3c f67f 95bd 2fa7 fa3d 5030 febd
00000290: 7c23 a43d 68e0 14be ddfa 2fbe 1ab6 3fbe
000002a0: 03e9 4dbd f9b3 783e 133b d1bd 86fd 7dbe
000002b0: daf5 11bd e5ac cdbc bcff 75be ea83 d0bd
000002c0: 32c6 bdbc 09ae 1a3e 388c 923e 2f77 51bd
000002d0: d37e d0bd 09c6 073e 45c1 f53d c672 38be
000002e0: 1786 003d 54e1 c73d 4cdd 253d 9267 f53d
000002f0: fd47 e23d 4834 953d fece 973d d69a 2a3e
00000300: bcad e43d bb1a cd3c 508b abbe f885 5a3e
00000310: 7d36 4abe 0c05 943d da54 a83d 8d2e 2d3d
00000320: 1a60 d4bd 7c4d fcbd 8b6e 5cbe 7353 7c3d
00000330: 3871 c33d 0b83 073d 83dc 32be aa7c 7d3e
00000340: 6d8d 213d 8b18 8b3d 68c5 883c f67f b8bc
00000350: f370 b1bc 883a 8e3c 1fdb 523d 5b52 4ebe
00000360: 05b4 583e 8066 90bd 4f81 183e defa 3e3e
00000370: 829c fd3c a1a3 533b 704d d8bc 08db 253e
00000380: bf9b f5bd 2e35 b2bd 67ae e0bc a775 ce3a
00000390: a983 3bbd 5168 053e 625e 343d 1ae7 9f3d
000003a0: e48c 15bd 19e2 f13d 6b79 983d a253 243d
000003b0: 4fdc 1dbd 5d0b d4bd f6c7 56bd fdb8 373d
000003c0: 5b38 febd 941a 18be 900e 7f3c 59d3 2bbe
000003d0: c208 483d e678 cbbd b799 943d 6cdf 0abd
000003e0: 0edc 2bbd 83c6 2a3e 1bca cc3c 9503 1fbe
000003f0: bce3 2b3e 02d2 83be 5e13 48be 8b61 0f3d
-0.16032371 0.08535779 0.020444745 -0.15564416 -0.047969904 -0.18065988 0.04840495 -0.019292668
0.084813386 -0.09434667 -0.04399064 -0.0080585955 0.21423599 -0.18009932 -0.17084381 -0.09915775
0.16193628 0.03662854 0.09538605 0.113207355 0.15084518 0.07792183 0.16741876 0.030550556
0.20299111 0.08889665 0.15799657 0.15018612 0.050769795 -0.09566192 0.07319766 -0.15679675
0.03028407 -0.060449384 0.13599436 -0.19879973 0.09516427 -0.2065002 0.18195504 0.12544005
0.017215298 -0.17705722 0.066162705 0.18229838 -0.166883 0.15289147 -0.10993815 -0.01857008
-0.20952025 -0.21032308 0.051750205 0.0014766473 0.041418955 -0.1197986 -0.007367137 -0.07459384
-0.021151705 -0.055706155 0.19314714 0.09607532 -0.11700934 0.21701679 -0.1887668 -0.040941548
-0.067243874 0.13756302 0.15855189 -0.20232444 0.09799393 0.30739713 -0.10365096 -0.27260187
-0.037830688 0.2565649 0.1518682 -0.18123053 0.1678628 0.26334757 -0.10148935 0.12813798
0.14561017 0.0442959 -0.11477343 0.10841496 -0.24017008 0.07632295 -0.11200105 0.07811027
-0.12562016 0.016358137 -0.015593749 0.15816294 0.013783074 0.072667055 0.075218566 -0.18685025
0.12090812 -0.10910753 0.086494505 -0.1741904 0.18224132 -0.1354625 -0.0042869914 0.052638333
-0.104126036 0.014381613 0.1250822 0.18482122 0.21998754 -0.024589501 0.077267826 -0.06435954
-0.19147278 -0.0014839169 0.10580163 -0.10082389 -0.05280474 0.15212792 0.20552967 0.20928326
0.119525604 -0.04909309 -0.18524942 -0.026134409 0.022157539 -0.04465777 -0.1247277 -0.17616493
-0.052080177 -0.10058298 0.19306344 0.0044702394 0.21117422 -0.077348955 0.17840588 0.17291367
0.10697044 0.18787737 -0.09777496 -0.14824273 -0.13738261 -0.041553255 -0.03263392 0.12497675
-0.21984832 -0.11698758 0.083624065 0.2418357 0.07481162 -0.0006085154 0.18756989 -0.037436217
0.14757124 -0.19517082 0.0687 -0.11839808 -0.30910194 0.045247078 -0.053767595 -0.002985523
0.012498705 -0.07299797 0.12238919 -0.12411559 0.080145806 -0.14538729 -0.1718554 -0.1872181
-0.050271045 0.24287404 -0.10216346 -0.24803743 -0.035634853 -0.025106857 -0.24023336 -0.101814106
-0.023165796 0.15105452 0.28622603 -0.051139053 -0.1018044 0.13259138 0.11999754 -0.18012533
0.031377878 0.09759775 0.04049425 0.11982645 0.11048887 0.072853625 0.074125275 0.16660628
0.1116595 0.02503716 -0.33504725 0.21340168 -0.19747348 0.07227525 0.08219309 0.042280722
-0.103698924 -0.123194665 -0.21526544 0.06160302 0.09543079 0.033083957 -0.17466931 0.24754587
0.039441515 0.067917906 0.016695693 -0.022521954 -0.021660304 0.017361894 0.0514785 -0.20148604
0.21162422 -0.070508 0.14893077 0.18650386 0.030958418 0.0032293575 -0.026404113 0.16196835
-0.11992597 -0.087015495 -0.027426912 0.0015751616 -0.045779858 0.13028075 0.044035323 0.07807751
-0.036511317 0.11810703 0.07445034 0.04011882 -0.03854018 -0.1035373 -0.05243679 0.044854153
-0.12413093 -0.14853889 0.015567437 -0.16779841 0.048836477 -0.09935169 0.07255881 -0.033904478
-0.041957907 0.16677289 0.024998715 -0.1552871 0.16786093 -0.2574616 -0.19538638 0.035005134

decoder.fc1.bias f4 [31]
00000000: 7cec a73c 4ffd aa3d d9ce 1ebd 0094 543e
00000010: d601 0d3d c363 c5bd cc8a 943c 26bf 143e
00000020: 2e39 90bd dd3d 4c3e 72ae 01be 3775 0ebd
00000030: f224 423d 7453 193e 4be2 26bd c179 ae3b
00000040: 9c58 443d 10db 1a3d b5ea 90bd 62df 32bd
00000050: 4ae2 7c3d 640a 683d 63b3 97bd 39ff 013d
00000060: caa0 18be ac7b 3d3e 50d0 44bd dee6 0e3e
00000070: 2219 bcbc 14a0 15be ae34 8a3c
0.020498507 0.08349096 -0.038771484 0.20759583 0.03442558 -0.09638169 0.01813259 0.14526042
-0.07042156 0.19945474 -0.12664202 -0.034779754 0.047398515 0.14973241 -0.040743154 0.005324573
0.047936067 0.03780657 -0.07076017 -0.043670066 0.061739244 0.056650534 -0.07407262 0.03173754
-0.14905086 0.18504208 -0.048050225 0.13955256 -0.022961203 -0.14611846 0.016870823

decoder.fc2.weight f4 [31, 31]
00000000: b3d1 a83c 5945 42bd b9f5 963d a339 0bbe
00000010: 29c4 b93e e243 9d3d a3d7 39be 3d7f 083e
00000020: d097 32bd 0f3e 563d 4e03 e2bd 127f 96be
00000030: d9d4 39bd c95c 023e 3a72 61bd 65e4 9cbd
00000040: 32d1 853c 0971 0c3b 1083 783b dba0 b8bd
00000050: 6ad4 8f3c 26d3 3c3e ae09 fb3d f0da 813d
00000060: fc2a 98bd 8bcb fdbd 7969 22be cd4e f53d
00000070: 1e89 443e 4238 17be 6e22 6f3e 9995 1abe
00000080: bc22 ed3d 694c 8ebd da29 43be a0dd 223e
00000090: 639b e4be d8f6 853e 43ca f23d 4029 1d3e
000000a0: abbb 653e 8ca7 f43c e5da c0bc 0346 d03d
000000b0: f9e2 fe3d a927 7cbe b05f c63d 3aa0 2abd
000000c0: 411c 0dbe e6ac c83b ff35 073e e2e7 24be
000000d0: 749d 8bbd 811f 46be e721 413e 82ab bc3c
000000e0: 160e 29ba 68bc 453e 2526 f4bd c29c d73d
000000f0: 37e8 9dbd 6545 813e e96b 583d c84a a9bd
00000100: e4a6 8fbe 2579 99bd 75a3 40bd 3a68 79be
00000110: 372e e4bc d860 9fbd dc18 7d3e a5de 28be
00000120: 6829 123e 5df3 a53e 6ad4 203e 7fbf 1e3e
00000130: 0672 bb3e b9e2 20bc fcae a6bc cedc 99be
00000140: 3e34 c83d 1fdf 493d 2cfc 09bd dd8d 973d
00000150: 0efa e63d e583 c73d 9100 24be de63 8ebd
00000160: 21fe 2a3d 9591 27bd 27c3 6d3e 0313 903b
00000170: 89a6 563d 6c52 443e 4d6c 74be 83e5 a23d
00000180: cc9c 4f3e ed8d c93d 9537 1cbe b590 7ebe
00000190: 47b7 583d 6e34 0c3e 0d03 f2bd a8d1 51be
000001a0: ee0e 2f3d 68c1 adbb 14d2 b93d 5943 edbd
000001b0: f2ba 88be 850e e93d 668d 203e 73bd 223e
000001c0: 56f4 9a3d b96a 1abb 636a 83be d6ec 07be
000001d0: 64dc e9bd 67d3 d0bd ce14 a4bb 3d7d 563e
000001e0: 7dcd 5d3e 17b0 383d efdb 0b3e 5e3a 123e
000001f0: c8d2 c23d c553 36bc 7f4c 0a3d af59 943c
00000200: 7369 07bd 7123 89bd 4def 72bc 596a 91bd
00000210: 46bd 283c 701e d23c ad9c e33c 1d55 453c
00000220: 4be7 3bbe c5f1 19bd e0c4 93bc 2d0c 043c
00000230: 4577 c33c 1c2e 5dbd bb74 2f3c 528e f2bc
00000240: 61c2 aa3b 3c85 4cbd cf99 d2bd f798 963d
00000250: 621f 4dbd d813 173c 820c 0cbf 3789 f1bb
00000260: f1db c3bc b7b2 10be 648b 113d edf1 c7bd
00000270: 80df 50be 00d8 b0bc 65bb 09be ed37 483e
00000280: de5a 71bd bed8 8cbe ac42 28be 8c28 d63c
00000290: c67a 483e 2671 d9bd debf 443e 58f3 f6bd
000002a0: 6fd5 a5be c779 003e 1665 513e 1652 f4bd
000002b0: 883b 823d e32f a73d 9d12 923d 0b8a 9e3d
000002c0: 8d23 503d 4347 efbd d57d 803d 0259 b83e
000002d0: c030 cd3c e7e9 a83d 6c3f 5cbe 12ed 2ebe
000002e0: 92dd 633d 24fa 8ebd 2369 c3bd a21b 8ebd
000002f0: be60 403d 801f b83d 13d2 8f3d 30db 3f3e
00000300: 9fe1 90bd 103d 82bd 3740 513d 8bb8 1c3d
00000310: ba91 0bbe 93c7 c2bd d47c 8bbc 016c 39bc
00000320: 3fad 7dbb 0c29 093e f39e 0a3e 6597 5c3c
00000330: 6f73 05be 5d71 9fbd 0143 063d dc5f 13bd
00000340: 9fdc ae3d 7499 4dbe f55c 92bd baba 7f3d
00000350: 78c4 91bd 3213 c03d aebc 92bd 6cfe 0abe
00000360: 8809 063f 8c2f 303d df31 a1bd b7b8 933e
00000370: 9799 0a3d abd0 703e ed75 5a3e 1a08 1dbb
00000380: 71c5 24be 042d 613d 974d 5bbc 3149 843e
00000390: 5e55 913e 8fa7 3ebe ae0a 1e3e ef3a 29be
000003a0: ac8e cebd 06a7 87be 7aee cdbd a972 883d
000003b0: ba67 6e3d 2c43 99bd f668 75bd 5594 263e
000003c0: e4c6 87be 5592 393e 1042 4d3e bf02 13be
000003d0: 8dee 12be fd3c 19bc b013 fd3c ef0f 5c3d
000003e0: 647d 09bd 3597 a13d 7fa9 2fba 5cf9 953d
000003f0: 613d c63e 05b5 523d b71f 813e 6514 e93d
0.020607805 -0.047429416 0.073710866 -0.13596205 0.3628247 0.07678963 -0.18148665 0.13329788
-0.04360181 0.052305277 -0.110357866 -0.29393822 -0.045369003 0.12730707 -0.055040576 -0.0766075
0.016335104 0.002142968 0.0037919916 -0.09015056 0.017557342 0.18439922 0.12257706 0.06340587
-0.074300736 -0.12392338 -0.15860547 0.11977921 0.19192931 -0.14767554 0.23352978 -0.1509613
0.11578891 -0.06948168 -0.19058934 0.15904856 -0.446498 0.2616489 0.118549846 0.15347767
0.22434871 0.029865049 -0.023541877 0.10169604 0.12445635 -0.24624504 0.0968622 -0.04165671
-0.1378031 0.0061241267 0.13204192 -0.16104081 -0.06817141 -0.19347955 0.18860589 0.023031
-0.00064489373 0.19310153 -0.11921338 0.10527946 -0.07710307 0.25248256 0.052837286 -0.082662165
-0.28057015 -0.074938096 -0.047030885 -0.24356166 -0.027854068 -0.07782143 0.24716514 -0.16491182
0.14273608 0.32412234 0.1570603 0.15502737 0.3661043 -0.00981968 -0.02034711 -0.30051273
0.097755894 0.04928505 -0.033687755 0.07400105 0.11278163 0.09741954 -0.16015841 -0.06952642
0.041746262 -0.040910322 0.23218976 0.0043967976 0.052404914 0.19172066 -0.23869438 0.07953932
0.20274657 0.09841523 -0.15255578 -0.24859889 0.052909162 0.13691875 -0.11816988 -0.20490134
0.042738847 -0.005302597 0.09073272 -0.11585111 -0.26705128 0.113797225 0.15678939 0.15892582
0.07566135 -0.0023562147 -0.25667104 -0.1327394 -0.11418989 -0.10196572 -0.005007363 0.20946212
0.21660419 0.045089807 0.13658117 0.14280078 0.095128596 -0.011128371 0.03376436 0.01810917
-0.03305955 -0.06696213 -0.014827562 -0.07100362 0.010299033 0.02564928 0.02778467 0.012044218
-0.1834995 -0.037584085 -0.018038213 0.008059544 0.023860583 -0.05399905 0.010708983 -0.02960888
0.00521116 -0.04993175 -0.10283243 0.073533945 -0.050078757 0.00922104 -0.54706585 -0.0073710936
-0.023908587 -0.14130674 0.035533324 -0.097629406 -0.20397758 -0.021587372 -0.13450392 0.19552584
-0.05892455 -0.2750911 -0.16431683 0.026142381 0.19578084 -0.106172845 0.19213817 -0.12058133
-0.323894 0.12546454 0.20448717 -0.11929719 0.06359011 0.081634305 0.071324565 0.07741173
0.050815154 -0.11683514 0.062740006 0.36005408 0.02504766 0.08247738 -0.21508569 -0.17082623
0.055631228 -0.06981304 -0.095415376 -0.06938864 0.04696726 0.08990383 0.0702249 0.18735957
-0.07074284 -0.06359303 0.05108663 0.03826193 -0.13629809 -0.09510722 -0.017027296 -0.011317254
-0.0038708 0.13394564 0.13537197 0.01346383 -0.13032316 -0.07785294 0.032778744 -0.03598009
0.08538174 -0.20078069 -0.071466364 0.062433936 -0.071175516 0.09378661 -0.07164894 -0.13573617
0.52358294 0.043014094 -0.0787084 0.28851864 0.03383788 0.235171 0.21334048 -0.0023961128
-0.16090943 0.05497457 -0.013385198 0.2583709 0.28385442 -0.18618606 0.15433761 -0.16526388
-0.10085806 -0.26494616 -0.100552514 0.06662495 0.05820439 -0.07483515 -0.05991455 0.16267522
-0.2651893 0.18122227 0.20044732 -0.14356516 -0.14348812 -0.00935292 0.030893177 0.053726133
-0.033566847 0.078901686 -0.0006700977 0.07322952 0.38718703 0.051442165 0.2521951 0.11380843

decoder.fc2.bias f4 [31]
00000000: 1b28 4abd 5c26 92bd 15d6 80bb 539e 9ebd
00000010: 13e4 653d fc57 2e3d a398 03bd b060 aa3c
00000020: e70a 35be 75d4 b53a 68c3 34be 77f9 7fbe
00000030: d56c c1bc d1a1 acbd c2cf 9a3d f6b4 fa3d
00000040: aff6 933d e148 093d e273 753c d46b aabb
00000050: a053 5fbb 38f0 c23d 214b 363e 43f6 af3d
00000060: 61a4 d8bd 0029 06bd 355f 6b3c 92d4 05be
00000070: b86e ba3d afac a63d 4cef 323e
-0.049354654 -0.07136223 -0.0039317706 -0.07745042 0.05612571 0.042564377 -0.032127988 0.020798057
-0.1767994 0.0013872521 -0.17652667 -0.24997507 -0.023611465 -0.084293015 0.07559158 0.12241547
0.072247855 0.03351677 0.014981242 -0.0052008424 -0.0034076944 0.09518474 0.17802097 0.085918926
-0.10578228 -0.032753944 0.014365961 -0.1306937 0.09103149 0.081384055 0.17474097
