PVM/simple_NN_predict_model.pth (torch, 58152 bytes, 5 tensors)

fc1.weight f4 [128, 42]
00000000: d599 31bd 29ec f83c ad8a 883d e246 e8bc
00000010: dd93 1b3e a632 143e a8b7 aabd 0a84 3f3b
00000020: b5e6 edbd 91f1 f53d 9a5d 923d 2153 713c
00000030: 7847 803d 4a38 e23c 8bf2 be3d cf88 e6bd
00000040: c080 9ebd 535d f0bc a319 b93d daa0 e8bd
00000050: 99dc a63d bd21 92bd b340 a03d 2c39 943d
00000060: 97db fa3d 5b1e e33d c12f 2b3d 70d6 163e
00000070: 3b90 75bd d478 fb3c be9b 1f3d b63b 1b3e
00000080: 3b63 d93d fdf0 373d 3b35 813d 3087 19be
00000090: f60b 76bd cd0b 04be 36ab 96bc 3084 863d
000000a0: 3714 b8bd d645 8b3c 4409 23bd 15ad 14bc
000000b0: ca83 b63c a26d 1a3e b843 34bd 12ce 5fbd
000000c0: 1d6a d3bd af6f b4bd a9c6 63bd 42f1 25bd
000000d0: 6ddf 753c 0567 13be bd86 9fbd bc20 e439
000000e0: 3dbc e13d 8500 a03d ed87 6bbd 1a30 df3c
000000f0: 0caa 11bd aa9a 413d e8bf 2f3d 6b5c 0f3e
00000100: a7b4 b03d cfac cf3d 8f77 dabd 358e fabc
00000110: b491 643d 0d39 1b3d 5b17 61bb 4425 d4bc
00000120: acdf 79bd 0d2d 4abd 7a8f 2d3d 3d9b f03d
00000130: 281c 1bbe a28e d7bd c7c7 d13c f58e 36bd
00000140: 80bf a13c f3a5 6abd b8a4 df39 704a 033e
00000150: 2898 f73c e943 4fbd a80a 8e3d bacb f0bb
00000160: 17ee 05be 009e 043d a3b9 96bd aea9 37bd
00000170: 7bbe 003e b0ef 61bb f0e3 f63d 13a2 d63c
00000180: 5d62 fcbc 7cf8 973d c04b 11ba 235b 0a3e
00000190: 1f59 77bd a26a d7bc 1fc6 7e3d e7ac 04be
000001a0: afd1 6bbd 4e89 e23d 9697 153e 52d3 6fbd
000001b0: 7f8b 91bd e4b4 0b3e fa33 7c3d af18 f3bd
000001c0: d62f e4bd e820 af3d 616f a73d 5a1f b4bd
000001d0: 92fa 0c3e 8c10 043e 7a44 1c3d 7611 c8bd
000001e0: 17b0 debd 6f89 bbbd 6faf 21bd 20a3 bbbd
000001f0: 56a6 09bd ad87 083e e417 d33c 2715 9d3c
00000200: 7c7b dbbd a4d2 ab3b 5ac9 9cbd 1120 a73d
00000210: 35de 193e bec9 143e 558d 183d 68b6 17be
00000220: 30a4 87bd c999 aebc 1d37 08bd ff8e 113e
00000230: a7b3 1bbe f9b5 9fbd 2a00 65ba fba0 0cbe
00000240: 72f0 1dbe c8f2 833d 435d d2bb e870 ff3d
00000250: 7ff2 ef3d 713c e63d 326a 3fbd 983b 07be
00000260: a9b3 1d3d ed4d b9bd ccf1 b03d 0d11 85bc
00000270: 9e33 a5bb 202f 113e dd28 f6bd 8b94 14be
00000280: fd84 eabd c41e 013e f512 c73d 09b6 bf3b
00000290: 8f95 3bbd 58cd 0bbe d852 e53d fd55 663d
000002a0: 7268 04be 6931 92bd 307f c9bd db36 ef3d
000002b0: 272a aa3c 001e 9abd 1486 72bd 4ddc b73d
000002c0: ef0f 033d 0140 00be 6287 a73c 9530 eb3d
000002d0: 98ce f0bd 1e87 6bbd 1e2a 8239 56f8 19be
000002e0: f51b a2bd 799e 943d 0063 003d ce83 033e
000002f0: b7b7 0bbe 3c92 82bc b82c 4ebd 3f9f 1cbd
00000300: 767f 05be 6377 38bc ff2a 0b3e d310 a3bd
00000310: c920 043e da4c 06be 8841 c3bd 865b 1cbc
00000320: 4d2f 7bbc 0363 c5bd c83e 563d a2a4 b8bc
00000330: ad58 003e 58e7 dabd b80c 60bb 6a4a 033d
00000340: 7226 473d 7f18 13be 0217 0cbe 9d5a ba3d
00000350: cb6a 17be a188 06be 96d6 b23d aad0 153e
00000360: bdab 443d c11f 123e da25 993d 71f0 053e
00000370: a847 05bd 02ce 8a3d ef0a ac3d 16a7 d23d
00000380: 203d 11be b947 f0bc 8910 9cbd b66b ac3c
00000390: df5d 163e 314c 6bbd 7bec 013e 02f4 90bd
000003a0: f8ac 80bd 88ff 473d 9902 a63d f0c2 2dbd
000003b0: c7a5 f0bd 2c1b 09bd c1be d1bc 17dc 88bd
000003c0: d1f6 b43d c23b 03bd 75e4 843c bef3 e7bd
000003d0: 0ddb f33d 9338 a73d fef5 38bc 9667 70ba
000003e0: 73c5 ce3d fd9d 053d f747 49bd 9bbc 033e
000003f0: 7b1d f8bd c924 833d dacf e3bd 0be6 b6bc
-0.043359596 0.030386047 0.06667075 -0.028354112 0.15193124 0.14472446 -0.08335811 0.0029222989
-0.116162695 0.12008966 0.07146759 0.014729292 0.062636316 0.027614731 0.09323605 -0.11256563
-0.07739401 -0.029341375 0.09038093 -0.11358805 0.081475444 -0.07135341 0.078248404 0.07237467
0.12248915 0.11089774 0.04179359 0.14730239 -0.059952002 0.030697264 0.038966887 0.15159497
0.1061463 0.04490756 0.06308981 -0.14992976 -0.06007 -0.12895127 -0.018392187 0.065681815
-0.08988231 0.017001074 -0.03980376 -0.009074469 0.022279639 0.15080884 -0.044009894 -0.054639883
-0.10322974 -0.088103645 -0.05560938 -0.040513285 0.015006882 -0.14394768 -0.07789371 0.00043511938
0.11022232 0.07812599 -0.057502676 0.027244616 -0.03556256 0.04726664 0.042907625 0.14000098
0.08628207 0.101403825 -0.10667335 -0.030585388 0.055803016 0.037896205 -0.0034346196 -0.025896676
-0.061004326 -0.04935937 0.042373158 0.11748359 -0.1514746 -0.10525252 0.025607957 -0.04456993
0.019744635 -0.057287168 0.000426566 0.12821364 0.030223921 -0.050601874 0.06935626 -0.007348505
-0.13079105 0.032377243 -0.07359626 -0.044839554 0.12572663 -0.003447514 0.120551944 0.02620033
-0.030808622 0.074204415 -0.00055425987 0.13511328 -0.060387727 -0.026295964 0.06220066 -0.12956582
-0.057573017 0.11061345 0.14608607 -0.05855114 -0.07106685 0.13643223 0.061573006 -0.118699424
-0.111419365 0.08551198 0.08175541 -0.08795042 0.1376746 0.12896937 0.03815124 -0.097689554
-0.1087343 -0.09157073 -0.039473947 -0.09161973 -0.033605896 0.13333006 0.025768228 0.019175125
-0.10716912 0.005243616 -0.07655592 0.08160413 0.15026172 0.14530084 0.03724416 -0.14815676
-0.06623113 -0.021313565 -0.033255685 0.14214705 -0.1520525 -0.077983804 -0.0008735681 -0.13733284
-0.15423754 0.06442791 -0.006419809 0.12472707 0.11716174 0.11241997 -0.046732135 -0.13206327
0.038501415 -0.09048066 0.08639869 -0.016243482 -0.0050415536 0.14178133 -0.12019513 -0.1450979
-0.11451147 0.12609392 0.09720413 0.0058505577 -0.045796927 -0.13652551 0.11197442 0.05623435
-0.12930468 -0.071383305 -0.09838712 0.11680385 0.020772053 -0.07525253 -0.059209898 0.08977566
0.031997617 -0.12524416 0.020450298 0.11483876 -0.11758155 -0.057501905 0.00024826912 -0.15036139
-0.07915489 0.07256789 0.031344414 0.12843248 -0.136443 -0.01593887 -0.050335616 -0.038237806
-0.13036904 -0.011258933 0.1359062 -0.07962193 0.12903132 -0.13115254 -0.095339835 -0.009543305
-0.015331102 -0.096380256 0.052305967 -0.02253944 0.12533827 -0.106886566 -0.0034187268 0.03205339
0.04862065 -0.14364813 -0.13680652 0.09099314 -0.14786832 -0.13138057 0.08732335 0.1463038
0.048015345 0.14269926 0.07477923 0.13080002 -0.03253904 0.06777574 0.08400523 0.10285775
-0.14183474 -0.029331075 -0.07620341 0.021047454 0.14684246 -0.05744571 0.12687866 -0.07077791
-0.06282991 0.048827678 0.08105964 -0.042422235 -0.117503695 -0.03347318 -0.025603654 -0.06682604
0.08836139 -0.03203941 0.016222218 -0.11325787 0.11907015 0.081650876 -0.011289118 -0.0009170709
0.10096254 0.032621372 -0.049140897 0.12864916 -0.12114998 0.064035006 -0.11123629 -0.02232649

fc1.bias f4 [128]
00000000: 173f e83d 3c08 853d 12fb c53d 7c80 a3bb
00000010: 9dee dc3d 47ad 41bd b706 663d 57c2 a5bd
00000020: 2fc4 1a3e fad8 353d 0729 dbbd 4463 01be
00000030: 5bdf 5dbd 3a4a 9b3d d8c9 ab3b 1c6b a7bc
00000040: f9b8 95bd 350a 0a3e 45e5 a4bd a21b 1cbe
00000050: 9e07 5fbd 68a1 cf3d 3493 cdbc b82c 2a3d
00000060: 7363 3b3c 37fc e0bd fe41 01be 378c 793d
00000070: 23cb 22bd 13fb f5bd 0a93 083e d6c5 843d
00000080: 63f1 7abd 968a 523d 231f 873d 92d9 a6bd
00000090: e464 1cbe 4ca8 9e3d 665e f4bd d173 433d
000000a0: e447 a43d b7a7 abbd b7a6 df3d 0cb7 16be
000000b0: 70c4 dfbd c2a5 863d d06b 143c 6fc9 95bd
000000c0: 4906 aa3d 803c 9c3d ea28 593d 9fec 91bd
000000d0: 9548 093e e0bb 043d 86a5 3f3c 86ed 5a3c
000000e0: 5ad5 043e 8bc1 9abd c824 0d3e 9cda 3bbd
000000f0: 3b92 153e 562c 82bd 8c16 e93d 5033 45bd
00000100: 5e29 c1bd 4ae9 5bbd b87e f1bd 2954 ce3c
00000110: 20e0 023e 6f15 913c 1fda da3d 3930 183e
00000120: ad15 16be 1d34 bd3d c411 6f3d 85e1 c83d
00000130: 8ea9 1bbd c619 18be 3641 3b3d 040f c23d
00000140: 41ac a7bd a0c8 55bc 4a35 fcbd da16 e1bd
00000150: 4fb0 bdbd 71a3 bf3c 1592 053e d4be 183e
00000160: 6240 f1bb a6cf 02bd 0344 b0bd 2d3a 8c3d
00000170: 25db 3f3d a930 b4bd 074c ac3d 6011 adbd
00000180: f85e c83d ffe5 213d b471 393d 8604 70bc
00000190: eaa6 88bd 84b3 d239 c233 86bd bddf d8bc
000001a0: 06a7 8d3c aa2d 86bc cc62 0a3e 5323 e8bd
000001b0: 2900 253c e783 c1bc 46df 103e ded3 a83d
000001c0: 2f70 c03d 19fb 90bd 3829 c43c 7094 2bbd
000001d0: c2cd 93bd 5e0c 82bd 5197 b8bd cfe2 083e
000001e0: 0eb1 1d3d 33f8 6d3a 9d8d 8e3d f5ec d9bd
000001f0: 009f ee3b b1bb 27bc b556 673c 6df2 bd3c
0.113401584 0.06495711 0.096670285 -0.0049896818 0.10787699 -0.04728439 0.056158748 -0.08093708
0.151139 0.044396378 -0.10701185 -0.12635523 -0.054168086 0.07582517 0.0052425675 -0.020436816
-0.07310671 0.13480456 -0.08051542 -0.15244916 -0.054450624 0.10138208 -0.025094606 0.041546553
0.011437285 -0.10985606 -0.1262283 0.060924735 -0.039744508 -0.12010779 0.13337341 0.06483047
-0.06126536 0.051401697 0.06597736 -0.08146967 -0.15272862 0.07746944 -0.119320676 0.047717873
0.080215245 -0.083815984 0.1092047 -0.14718264 -0.10926139 0.065745845 0.009058908 -0.07313811
0.0830198 0.07628727 0.053017534 -0.0712521 0.13406594 0.032405734 0.011697179 0.013362294
0.12972012 -0.07556447 0.13783562 -0.04586278 0.14606564 -0.06356113 0.113812536 -0.04814464
-0.09431718 -0.05368928 -0.11791748 0.025186615 0.1278081 0.017710416 0.106861345 0.14862145
-0.14656706 0.092384554 0.058366552 0.098086394 -0.038003497 -0.14853582 0.045716487 0.0947552
-0.08187152 -0.013048321 -0.123148516 -0.10990687 -0.09262144 0.023393365 0.13044007 0.14916545
-0.0073624114 -0.03193631 -0.08606722 0.06847034 0.046839852 -0.08798344 0.084129386 -0.0845058
0.09783739 0.039525982 0.04527445 -0.014649516 -0.06672461 0.0004018807 -0.06552841 -0.026473874
0.017291557 -0.016379196 0.1351425 -0.113348626 0.010070839 -0.023622466 0.14147672 0.082435355
0.09396397 -0.07079143 0.023945436 -0.041889608 -0.072169796 -0.06350015 -0.09013236 0.1336777
0.03849893 0.0009077817 0.06960604 -0.10640899 0.007282138 -0.01023762 0.014119794 0.023186887

fc2.weight f4 [64, 128]
00000000: 2039 9bbd 2052 aa3c 5755 9f3d ae69 b33d
00000010: 39b7 4fbc 6cfc d53c bde1 babc 6b3d 8dbc
00000020: 9b59 783c 0de8 a23d 956d 30bd 938c b13d
00000030: 7ecc a03d 523c c73a 8dde b73c d8dd 9cbd
00000040: fef7 fdba b762 143d 6a9b b1bd 373c 8abd
00000050: 8bae ec3c 9fd2 afbd f720 a93d 9714 383d
00000060: 0cbe 82bd 8fa9 9c3d 7e68 213d b74e 32bd
00000070: 264f 25bc 54df 2abd c8e0 333d 767a ca3c
00000080: 9832 fa3c 7cca 81bc 057e e3ba 1b33 823d
00000090: 29b5 7f3c 8de3 473c 7716 5a3d 21e6 423d
000000a0: a7dc aa3d 2c2e f6bc 5633 b03c c4b3 80bd
000000b0: acea 0bbb 290f 503d ec5c aabd a508 b0bc
000000c0: a068 213c 5d0a b13c d368 4f3b 9c16 733d
000000d0: 8000 583d a5fa 89bd edea 22bc fc0b 01bd
000000e0: 28b6 2f3d 2e2f d63a d163 a33c cf80 233d
000000f0: b791 2bbd 4dbf 8d3d 5177 96bd e6bd 053d
00000100: a654 213c ea5d e7bb c07b 01ba faa9 b1bd
00000110: 6322 5abc cabe c13c 25ad 99bc 62dc 51bb
00000120: 31e1 a6bd 8745 eabb e04a 8abd 5584 a13b
00000130: 8a67 56bd 7736 f5bc f6f0 063d f3ba e63c
00000140: 6d7d 453d db2a 0bbd edd9 afbd 2fb0 15bd
00000150: ebdb 3c3d 7d43 8ebc 34ef 80bd 23eb 86bd
00000160: fe26 a63c db5d b23d a249 4dbc 3f85 a5bd
00000170: 0aeb 19bd 332d 09bd ed06 9abb 79bd 3fbd
00000180: 046c a73c de9b e43c 82ca 48bc 02a0 aebd
00000190: d595 9fbd 85e2 7a3d 8cc4 8cbc d531 eb3c
000001a0: 3286 cabc 5c92 20bd 025e 603d fbdd cb3c
000001b0: 70cc a23d b714 913c 2f90 93bd de57 33bc
000001c0: 1184 963d f2a8 923d 8cbe c5bc eb4b 67bd
000001d0: 58df 643d cab0 3b3c 7adb b0bd 3b2b afbd
000001e0: cc76 9b3c d797 af3c a460 9a3d ce42 f33c
000001f0: 43e5 8abd f445 9b3d 4bfe afbd d5c1 6a3d
00000200: 9fc7 753d 7229 993d 5d9a 193d 294f 013c
00000210: db9c 9ebc 3b58 16bd 5c8d 17bd 652d 1a3d
00000220: ac43 1e3d 87d2 b33c a255 8c3d b4bc cf3c
00000230: 99e3 72bd 11f1 6cbd 8cdc 863d a10d 92bd
00000240: ef9f c7bc e3db a03c c561 023d ba5c 9abd
00000250: e342 b03d 125e 02bc 908c 13bd 74c8 503d
00000260: ac13 733d 72ad 793d e913 3b3d 2389 96bd
00000270: d0ab 9c3d 327d 9d3d 4eb3 ad3d c174 1d3c
00000280: 11be 0dbb c8f9 a13d bcae a53d 703d 8fbd
00000290: 404a b4bc 5fc6 4d3d d292 993d 5471 6dbd
000002a0: fbee 46bc 7364 e0bc 7d19 37bd 32b5 9c3c
000002b0: eb56 6c3d dd1e 0abd b835 2c3c 6802 fdbc
000002c0: fc43 063d df63 2ebd 9edf 343d 600b c73c
000002d0: ec86 993d 54c8 573c acf6 6dbd 0d0e 81bd
000002e0: e5bb 863c 8289 a0bc fe5a 83bd 3294 00bd
000002f0: bacc f9bc 5f58 5e3d ee4d aebd 0c5e 7cbd
00000300: 19d9 8bbd c6cc 20bd 72c9 93bd 000a 3d3d
00000310: c3d2 943d f987 013d 38e5 7bbc 2436 b2bd
00000320: 9dc1 98bd 84b5 af3c 321b 563d 64e7 913d
00000330: 01f5 153d f4b1 253d 8893 5dbd a4de 7ebd
00000340: d518 dc3b 4f31 ae3d ab22 af3d 78c7 fdbc
00000350: e10a 6abd b338 9d3d bf85 8cbc ca21 50bd
00000360: bb5d a9bc df52 943d 01b4 353d f1f9 aa3d
00000370: 3e39 af3c 0b85 2fbd eef0 a3bc dc7d b23d
00000380: 338d 4ebd ba1a 1c3d 2bd9 b5bb c6f7 39bc
00000390: 4497 5fbd 8f9e a2ba 209a b43d 9b60 9bbd
000003a0: 0283 14bd dd9d 9b3b ba70 313d e42c 763a
000003b0: be45 9fbd 5c1f d2bc 2141 afbc 368f ce3a
000003c0: 9ae4 4fbd 26fb 8c3d f974 90bd a63e fc3c
000003d0: f7a7 b33d 73a0 b93c 9653 363d 9836 bfbc
000003e0: 9409 1abd 0332 933d 63ec 803b 103f a8bd
000003f0: 73af 4a3c f234 3bbd c40c f5bc f929 44bc
-0.07579255 0.020791113 0.07779949 0.08760391 -0.012677961 0.02612134 -0.022812719 -0.0172412
0.015158082 0.079544164 -0.043073256 0.086693905 0.07851504 0.0015200472 0.022444988 -0.07659501
-0.0019376276 0.036226954 -0.08672221 -0.06749766 0.028891822 -0.08585095 0.08258241 0.04494151
-0.06383905 0.07649528 0.039406292 -0.0435321 -0.010089671 -0.04171689 0.04391554 0.024716597
0.030541703 -0.015843622 -0.0017356282 0.06357404 0.015607157 0.012200248 0.05324408 0.04758275
0.08342867 -0.030051313 0.021508854 -0.062842876 -0.0021349592 0.050795708 -0.08318505 -0.021488497
0.009851605 0.021611387 0.0031648173 0.059347734 0.05273485 -0.0673726 -0.009943706 -0.03150557
0.042898327 0.0016340965 0.019945057 0.039917763 -0.04188701 0.06921253 -0.073469765 0.032651804
0.009846842 -0.007060756 -0.00049393997 -0.086749986 -0.0133138625 0.023650546 -0.01875932 -0.0032022228
-0.081484206 -0.0071494016 -0.067525625 0.0049291053 -0.052344836 -0.029933197 0.032944642 0.028165316
0.04821532 -0.033976417 -0.08586488 -0.036544975 0.046108168 -0.017366165 -0.062956244 -0.065878175
0.020282265 0.08709308 -0.012529762 -0.08082055 -0.037577666 -0.03349037 -0.0047005326 -0.046811555
0.020437248 0.027906355 -0.012255313 -0.08526613 -0.0779225 0.061251182 -0.017183565 0.028710285
-0.024722192 -0.03920208 0.054777153 0.024886122 0.079491496 0.017710073 -0.07205235 -0.010946242
0.073494084 0.0716113 -0.024138711 -0.056468885 0.05587706 0.011455724 -0.08635612 -0.085531674
0.018977545 0.021434708 0.07537964 0.02969494 -0.067820095 0.07581702 -0.085934244 0.05731376
0.060004827 0.07478608 0.037500728 0.007892408 -0.019361904 -0.036705237 -0.037000045 0.037640948
0.038638756 0.021950973 0.06852271 0.025358535 -0.059299085 -0.057847086 0.06585035 -0.07131506
-0.024368254 0.0196361 0.03183152 -0.075372174 0.08606508 -0.007956998 -0.036022723 0.050972417
0.059344932 0.060956426 0.045673285 -0.073503755 0.07649958 0.07689895 0.08481465 0.009610356
-0.002162818 0.0790897 0.080899686 -0.0699414 -0.022008061 0.05023801 0.07498707 -0.057969406
-0.012141938 -0.027391648 -0.044702042 0.01912937 0.05770008 -0.03372084 0.010510854 -0.030884936
0.03277968 -0.042575713 0.04415857 0.024297416 0.074964374 0.013170321 -0.058096573 -0.06301508
0.016447017 -0.019596819 -0.0641384 -0.03139133 -0.030493129 0.054283496 -0.08510958 -0.061613128
-0.068285175 -0.039257787 -0.07216157 0.046152115 0.07266762 0.031623814 -0.015374474 -0.08701733
-0.07458804 0.021448858 0.05227203 0.071242124 0.036610607 0.040452912 -0.054095775 -0.062224045
0.0067168274 0.085054986 0.08551534 -0.030978903 -0.05713928 0.0767683 -0.017153619 -0.050813474
-0.020674577 0.07242369 0.04436112 0.08348454 0.0213896 -0.04285149 -0.020012345 0.08715412
-0.050427627 0.038111426 -0.00554957 -0.011350578 -0.054587618 -0.0012406873 0.088184595 -0.075867854
-0.03625775 0.0047490434 0.043320395 0.00093908445 -0.07776974 -0.025649719 -0.02139336 0.0015759233
-0.05075512 0.0688384 -0.07053561 0.030791592 0.08772271 0.022659516 0.044513308 -0.023341462
-0.03760679 0.07187273 0.0039344295 -0.08215153 0.012370932 -0.04570479 -0.029913314 -0.011972898

fc2.bias f4 [64]
00000000: 4cbc 92bd 3b4f 28bd 8e87 0f3d d5e5 783c
00000010: 94cb 703c b16f 113c 8a51 bdbb fabe b23d
00000020: 8bef 93bd 3a69 bd3b 47b3 8a3c f17c 1bbc
00000030: e7d1 2abd d6ec aebd 85c3 4bbd 3abd 22bd
00000040: 7a30 a43d ce6f 90bd 7315 f53c 3498 f03c
00000050: 292a a4bd 1479 03bd ca94 683d 16b4 713c
00000060: 56bd e23b 4d62 43bd 8b1f 61bc c6b1 833d
00000070: 49e6 a33d 02ff 533d fa44 4e3d 196a 99bd
00000080: 323a 4738 142b 91bc 2b82 a03d ddef f0ba
00000090: 5d24 c33c 8bbf 9fbc 2c08 943c 2dc6 35bd
000000a0: e9af f1bc c1fd d0bc 1666 b13d d261 603c
000000b0: ceed e4bc b5e8 803d 08cb 1b3d b800 4ebd
000000c0: 7b82 a93c aa0a 893d c486 343d cfe0 99bc
000000d0: 5286 2c3d 4dd2 c13c f2a5 8f3d 78bb cf3c
000000e0: 897c d3bc 8c9d 1d3c 1688 fabb 5a1b 8c3c
000000f0: c407 37bc 82b4 9cbc 9d2f a33d 8b63 03bd
-0.07164821 -0.041091185 0.035041384 0.015191515 0.014696974 0.008876727 -0.0057775425 0.08727832
-0.072234236 0.0057803662 0.01693119 -0.009490238 -0.041704085 -0.085412666 -0.04974701 -0.03973124
0.08017059 -0.07052575 0.029917454 0.029369451 -0.08015854 -0.03209789 0.05678252 0.0147524085
0.0069195433 -0.04770117 -0.013740431 0.06430392 0.08002908 0.051756866 0.05035875 -0.0749094
4.7499496e-05 -0.017720737 0.078373276 -0.0018382032 0.02382105 -0.019500514 0.018070303 -0.04437845
-0.029502826 -0.025511624 0.086620495 0.013695197 -0.027945425 0.06294385 0.038035423 -0.050293654
0.0206921 0.06691487 0.044073835 -0.018783955 0.042120285 0.02365985 0.070140734 0.025357947
-0.025816219 0.009620082 -0.0076456172 0.017102886 -0.011171285 -0.019129042 0.07968066 -0.032077353

fc3.weight f4 [1, 64]
00000000: 84ea 593d 745c 683d 206c 763c 789a d8bd
00000010: 1041 d13c 96fd a0bd a07e de3b 183b e43c
00000020: 68e2 673d 00d0 7ab9 9c2c 223d aeef c63d
00000030: 9c7c b83d 3051 97bc 604a 0abd 76d5 ee3d
00000040: 08d9 b63c fcc3 6ebd 2431 623d 2e11 bbbd
00000050: ace5 1abd 1833 f63d 7c18 e33d 3646 e7bd
00000060: 7093 613c 5c12 33bd f6a8 ec3d 202a a1bc
00000070: e0c6 8d3b 84f4 ce3d f0f8 8d3c 8a9f f63d
00000080: 00fc aaba 8098 103d 783c 87bc 56dc e73d
00000090: 604b c33c 10dd 9fbd 62ba 89bd 309a a7bd
000000a0: 1834 aebc 90d2 23bd c0c8 21bc c086 e03b
000000b0: aed1 c1bd fcb6 f8bd e2b5 fabd 18c6 283d
000000c0: cc56 6a3d 5601 9dbd 0090 07bd 66d3 afbd
000000d0: 026c cfbd 78e7 b23c 5092 ad3c ec71 09bd
000000e0: 0438 82bd 003a 47ba a0a3 db3c 4690 debd
000000f0: 5015 653d a057 b13c 66bf e4bd 188d 253d
0.053202167 0.056728795 0.015040427 -0.105763376 0.02554372 -0.07860868 0.006789997 0.02786021
0.056612402 -0.00023919344 0.039593324 0.09713684 0.09008142 -0.01847133 -0.033762336 0.11661808
0.022320285 -0.058292374 0.055222645 -0.09134136 -0.03781669 0.12021464 0.110886544 -0.112926885
0.013768062 -0.04371868 0.11555664 -0.019673407 0.0043266863 0.101052314 0.017330617 0.120421484
-0.0013045073 0.035301685 -0.016508326 0.113213226 0.023839653 -0.07805836 -0.06725003 -0.08183706
-0.021265075 -0.03999573 -0.009874523 0.006852001 -0.09463821 -0.121442765 -0.12241723 0.041204542
0.057211682 -0.076662704 -0.033096313 -0.08585243 -0.10128023 0.021838889 0.021187931 -0.03355591
-0.063583404 -0.000759989 0.02681142 -0.10867362 0.05592853 0.021648228 -0.11169319 0.04041776
