PVM/simple_NN_predict_model.pth (torch, 58152 bytes, 5 tensors)

fc1.weight f4 [128, 42]
000000 50 00 13 3e f7 fa 2a bd e7 dc a3 bd 68 c7 0e 3e
       0.14355588 -0.041743245 -0.08001118 0.13943255
000010 b2 c9 a7 bc 76 0b 19 be 88 20 9d bd 33 21 11 be
       -0.020481918 -0.14945778 -0.076722205 -0.14172821
000020 b0 ae 03 be a6 46 80 3c 1a 6a 78 bd 87 10 80 3b
       -0.12859607 0.015658688 -0.06064806 0.00390822
000030 8e 01 14 3d 81 d9 eb 3d cf ce f6 bd 30 a0 cb bd
       0.036134295 0.11516095 -0.12051164 -0.09942663
000040 f1 21 9c bd 5a e0 fd bd 6c 8b f0 3c d0 7e 92 bb
       -0.07623661 -0.12396307 0.029363357 -0.0044706836
000050 33 6e 21 bd 8e 15 cd 3d 8b 69 cd 3d 24 59 ca bd
       -0.039411735 0.10013877 0.10029896 -0.098802835
000060 2d d7 1c 3e 3c 13 0a 3d af 7f a3 bd e7 34 6a 3d
       0.15316458 0.03370975 -0.07983338 0.057179358
000070 00 d4 c7 bc 79 66 5a 3d 75 7d e8 bd 74 2e 10 be
       -0.024393082 0.05332038 -0.11352054 -0.1408022
000080 95 88 62 3d 00 04 91 bd a1 b6 41 3b 03 f8 df bd
       0.055306036 -0.07080841 0.0029558318 -0.10935976
000090 90 58 a5 3d 22 97 a6 bb c7 40 ba 3d d7 72 4d bd
       0.080735326 -0.0050839344 0.090943865 -0.050158348
0000a0 5f f6 2a 3c c4 b5 9a 3d ed ee 9a bd 39 15 d8 bd
       0.010434716 0.075542 -0.07565103 -0.10550923
0000b0 a5 d2 05 3e fd 08 30 bc cc 72 92 3d 6c c7 b5 bb
       0.13068636 -0.0107443305 0.07150802 -0.0055474546
0000c0 1d de 51 3c 01 8c 9f 3d 19 3a a5 bb 73 89 c8 bd
       0.012809304 0.077903755 -0.005042326 -0.09791841
0000d0 e1 ea e5 bd 11 d4 00 bd ae 5a 7b 3d ba 34 e3 bc
       -0.1122644 -0.031452242 0.061365776 -0.027735103
0000e0 07 ac 0e 3e be c1 5a 3d a1 84 fb 3d e9 20 e3 bd
       0.1393281 0.053407423 0.12281156 -0.110902615
0000f0 ad 2d af 3d b1 82 8a 3d 0b 97 e6 3d b1 29 4a bd
       0.08553634 0.06763209 0.11259278 -0.049356166
000100 b9 87 4a 3d 36 fe c5 3d ed d4 1a bd 6d b0 66 bd
       0.04944584 0.096676275 -0.037800718 -0.056320596
000110 19 5d 06 be d6 6d 67 3d a7 04 74 3d 24 2d 03 be
       -0.13121451 0.056501232 0.05957475 -0.12810189
000120 7b dd c5 bd b0 72 0c 3d a2 12 b9 bd c0 9c a1 bd
       -0.09661385 0.034289062 -0.09036757 -0.07891226
000130 09 e3 e1 bc 5e b2 e3 bd e0 d7 6d 3d d3 f6 7a 3c
       -0.02757408 -0.11118005 0.058067203 0.015317637
000140 02 8f df 3d f4 eb 1b 3e 2f 47 14 3e 48 87 06 be
       0.109159485 0.15226728 0.1448028 -0.13137543
000150 54 ad 91 bd 53 d3 0a be 8d 40 1d 3d bd 3c 9e bd
       -0.07113138 -0.13557176 0.03839164 -0.07726429
000160 ef 5a 1f 3d 8c 74 87 3d 1a fd 13 bc e8 a3 68 bd
       0.03890508 0.066140264 -0.009032512 -0.05679694
000170 db 16 a2 bd e6 eb be 39 92 ef 1b be df dd f5 bd
       -0.079145156 0.00036415382 -0.15228108 -0.12005209
000180 2e 6f b8 bd 89 40 be 3d 01 b8 fa bd b2 7e 0d 3e
       -0.09005581 0.09289653 -0.12242127 0.13817862
000190 4e 6e f4 bd 50 74 bd 3d 4e 1e 17 3e 11 aa 01 be
       -0.119351014 0.092507005 0.14757654 -0.12662531
0001a0 e7 c9 34 bc 84 e2 34 3c 2b 8a 09 3e 38 9c d0 bd
       -0.011034465 0.011040334 0.13431613 -0.10186046
0001b0 2e fb 8b bc 9a 5c 0e be 7b 69 e1 bd 2b f7 ad 3d
       -0.017087545 -0.13902512 -0.11006447 0.08494409
0001c0 41 1a fe 3d d3 00 d8 bd 42 cb 5b 3c 25 f2 fc bd
       0.12407351 -0.10547032 0.01341516 -0.12350873
0001d0 2f b1 9b bd 95 27 c8 bd 3c 9d d4 3c e8 94 ff 3d
       -0.076021545 -0.09773175 0.025953881 0.124795735
0001e0 67 c5 ee bd 86 ad b2 bd 00 8f 07 3e 0a f9 a6 3c
       -0.11658745 -0.08724503 0.13238144 0.020382423
0001f0 5c ff 18 3e 97 54 a7 bd 95 79 9e 3d a5 63 25 3d
       0.14941162 -0.08170431 0.07738034 0.04037823
000200 ba 42 8e bd 3b d0 56 bd 0b 23 24 bd ce 49 79 bd
       -0.06946321 -0.052444678 -0.040072482 -0.0608614
000210 eb 02 ae 3c 41 8a a2 bd 5d 36 f9 3d 9b 92 6a 3d
       0.021241626 -0.07936526 0.12168572 0.05726872
000220 97 26 ff 3d 98 46 a1 3d b4 2d 18 be d9 0e c7 bd
       0.12458532 0.07874793 -0.14861184 -0.09719629
000230 af c2 ca 3d b5 95 94 3d 3a 11 ec 3d 06 03 63 bd
       0.09900414 0.07255117 0.11526723 -0.055422805
000240 38 5f 83 3d 95 cb a2 bd ef 3e a4 bc 8f c8 06 be
       0.06414646 -0.079489864 -0.02004954 -0.13162445
000250 8b bf 12 3d 23 9d fb 3d 07 67 cc 3d 55 25 6e 3c
       0.0358272 0.12285831 0.099805884 0.014535268
000260 c5 66 c9 bb 1d 87 78 bd c4 63 a8 3c 9c 3d 40 3d
       -0.0061462843 -0.06067573 0.020555384 0.046933755
000270 84 74 d6 bd ab 1d eb bd cf 9b cd bb 91 93 02 3e
       -0.10471442 -0.11480268 -0.0062746773 0.12751605
000280 28 c3 dc 3d 1d 48 fb bd 17 e1 a9 bd 64 98 ab bd
       0.107794106 -0.12269614 -0.082948856 -0.083786756
000290 96 b3 da 3d 1c 55 41 ba 43 d6 18 3e 44 2f 17 be
       0.106787845 -0.0007375048 0.14925484 -0.14764124
0002a0 3b 3d 9f bd 21 5f 84 3d c5 d5 17 be 21 22 55 3c
       -0.07775351 0.06463457 -0.1482764 0.013008625
0002b0 f7 18 92 bd a4 e7 b7 bd db 4f 8a bd a9 ed 75 3d
       -0.07133668 -0.08979729 -0.067535125 0.060041104
0002c0 79 5a 84 bc cd f0 0a 3e d5 79 ef bd 17 22 c4 3d
       -0.016156422 0.1356842 -0.116931595 0.095768146
0002d0 a7 2a 72 3d 71 3d 98 bc 09 f6 22 bd 6c 8c 0d 3e
       0.059122708 -0.018583985 -0.03978542 0.13823098
0002e0 77 64 f4 bd 3e ca cf bd 31 c0 fb bd 9a 56 a9 3b
       -0.11933225 -0.101459965 -0.12292517 0.0051677944
0002f0 6d 08 73 3d 7f f1 ba ba 40 98 38 bc 04 9f 08 bc
       0.059334207 -0.0014262645 -0.011266768 -0.0083386935
000300 c6 4f c4 3d 95 02 1c 3e 2c 93 0a bd 66 38 bb bd
       0.09585528 0.1523536 -0.03383176 -0.091416165
000310 c7 49 a9 bd a1 f0 b7 bd 75 c1 f8 3b 03 39 08 3e
       -0.08266025 -0.08981443 0.0075914213 0.13302998
000320 cd c1 58 bd 06 0a dc bd 78 7b 23 3d 5e 61 c2 3d
       -0.052919198 -0.10744099 0.03991267 0.094912276
000330 32 8f 02 3e 31 dd ab bd d2 ab 94 bd d4 7c bd bd
       0.12749937 -0.08391798 -0.072593346 -0.09252325
000340 0a 94 0a bc 03 b1 98 3d fd c5 f3 bc 12 63 03 be
       -0.008458147 0.07455637 -0.029757494 -0.12830761
000350 7f 44 eb 3d 10 86 0e be 4d 98 94 3d 29 2a 1b bc
       0.11487674 -0.13918328 0.072556116 -0.009470501
000360 02 b1 c2 bd 35 01 0b bd 47 6c 51 bd 5f 7c 8c bc
       -0.09506418 -0.033936698 -0.051128652 -0.017149149
000370 76 72 45 3c 56 0c b9 3d 30 0e 94 3c 47 71 0a be
       0.012051215 0.09035556 0.018073171 -0.13519774
000380 f5 19 f4 3d 83 91 1b 3e 16 1e d7 3d b1 82 58 bd
       0.119190134 0.15192227 0.10503785 -0.052859012
000390 17 b2 8a bd 8c 9d c0 bd 0f d9 9e 3d c1 47 f7 bd
       -0.06772249 -0.0940505 0.077562444 -0.12074233
0003a0 6a 79 3f 3d 5c 37 30 3c db a3 7d bc ad 85 2f bc
       0.04674665 0.010755386 -0.015480961 -0.010713023
0003b0 ea 63 02 be fa 51 c9 bc 7b c1 f6 bd 2e 7e bc 3d
       -0.12733427 -0.024575222 -0.12048622 0.09203754
0003c0 44 04 bf 3d 33 dd 2e bd fe d4 fe 39 fa 4d 36 3c
       0.093269855 -0.04269142 0.00048605347 0.0111269895
0003d0 6a 08 da 3d f0 63 ce bc 39 3e 54 bb 04 67 a9 3d
       0.10646136 -0.025194138 -0.003238572 0.08271602
0003e0 5e c7 60 3d 15 ef ce bd 59 dc 64 3d 59 75 97 bb
       0.05487763 -0.10104195 0.055874202 -0.004622143
0003f0 32 bf 1d bd 49 75 14 bd 78 bb e7 bb e3 b4 62 bd
       -0.038512416 -0.036244664 -0.0070719086 -0.05534829

fc1.bias f4 [128]
000000 61 e0 ff 3d 60 a1 96 bc d6 cf ef bd c9 02 18 bd
       0.12493969 -0.018387496 -0.117095634 -0.03711203
000010 46 7e 15 3e d5 7f 04 be 45 92 f9 3c b6 4a 28 bd
       0.1459895 -0.12939389 0.030465255 -0.041086875
000020 5c f3 64 bc 38 2a d6 3d 6a 32 e3 3c 4d 75 55 bb
       -0.013974037 0.10457271 0.027734 -0.0032571137
000030 28 59 33 bd 27 49 e5 bd f0 74 48 3d 4f 57 1d 3e
       -0.043786198 -0.11195593 0.048939645 0.15365337
000040 56 ff f8 3c 32 6a b6 3d c8 ac 8f 3d 9e 76 0d be
       0.030395191 0.08906974 0.07015377 -0.1381478
000050 13 c7 0e 3e b1 00 a1 3d 4c 86 0b 3d c2 ee 04 3e
       0.13943128 0.0786146 0.034063622 0.12981704
000060 60 7e 11 be 84 b6 bf 3d 8d 27 07 3e 1b 48 df 3d
       -0.14208364 0.09360984 0.13198681 0.10902425
000070 3f f6 c7 3d 3d 49 95 bb 99 6f 58 3d 41 e8 e8 bd
       0.097637646 -0.00455585 0.052840803 -0.11372424
000080 7e 8d b4 3c 63 45 19 3e 92 91 04 be f0 a9 cb 3d
       0.022040125 0.14967875 -0.12946156 0.099445224
000090 00 2c 9c bc 9a 2f 06 3e 13 1f 76 3c ae a1 d5 3d
       -0.01906395 0.13104096 0.015022057 0.104312286
0000a0 02 f3 d4 bd 49 cf 5f bd 9a 07 9f bd 85 13 a7 bd
       -0.103979126 -0.054641042 -0.07765122 -0.0815802
0000b0 45 bb 05 be ff 02 98 bb 16 b1 7f bd 2b 78 7d bd
       -0.13059719 -0.004639029 -0.06242474 -0.06188218
0000c0 2b 28 65 bd e3 59 9a bd b7 4c f1 3d 85 cf e6 bd
       -0.05594651 -0.07536676 0.1178221 -0.1127005
0000d0 e1 37 8c 3d 17 b0 e5 bd 4b fc 86 3d 29 55 d2 bd
       0.068465956 -0.11215227 0.0659109 -0.10270149
0000e0 54 5d 0b 3e ab 83 ce bd 32 1e f8 bd 89 cb cc 3d
       0.1360982 -0.100837074 -0.12115134 0.09999759
0000f0 61 89 b8 3d 57 40 6c bd 5a 0a ec 3d aa 29 19 be
       0.09010578 -0.057678547 0.11525412 -0.149573
000100 93 fb 14 3e e9 c5 98 bd 07 e9 95 bd d9 74 d4 bc
       0.14549093 -0.07459623 -0.07319837 -0.025934624
000110 8f ff c0 bd a6 3c 12 be 83 a9 cc bd 47 40 a9 bd
       -0.09423744 -0.14280948 -0.09993269 -0.08264213
000120 37 31 dc bd 6b c3 65 bd 21 92 01 3d 8c 3a df bd
       -0.107515745 -0.05609457 0.0316335 -0.10899839
000130 fc f5 11 be 62 da 1a 3c 90 8b 4f bd 56 bb 3a 3d
       -0.14253992 0.009451481 -0.050670207 0.045588814
000140 d9 29 14 be a0 21 0a be ff 79 f9 bd 7c 9f 14 be
       -0.14469089 -0.1348939 -0.12181472 -0.14513963
000150 1c 09 0f be 6e 97 20 3c 5f 72 f6 3d aa d2 0c bd
       -0.13968319 0.009801729 0.12033533 -0.034380592
000160 bf d9 e1 bd 6e 63 c4 bc 7c 6a ea bd e3 42 ac 3d
       -0.1102786 -0.023973193 -0.114460915 0.08411195
000170 2a 04 87 bd 22 9b bb bd 45 5c 87 3d 3d cb c3 bd
       -0.06592591 -0.091604486 0.06609396 -0.09560249
000180 b5 22 f1 3d 9f 8e 9a 3c 58 59 e5 3d 59 8b 8b bd
       0.11774198 0.018866835 0.111986816 -0.06813688
000190 1e a4 c7 bd f8 ac 81 bd 2f fc e2 bd ae 49 12 be
       -0.097481 -0.06331819 -0.110832565 -0.14285919
0001a0 ed 0e ab bd a0 cc c2 bd 1f cd 0e be 90 b2 d1 3c
       -0.08352456 -0.09511685 -0.13945435 0.02559784
0001b0 4a d4 16 be 0f 40 0c be df 21 97 3c 7f 87 18 be
       -0.1472942 -0.13696311 0.018448768 -0.14895438
0001c0 98 09 fb 3d 5b 1d 1d be 72 7b 1c 3d 38 83 42 bd
       0.12257689 -0.1534323 0.038203664 -0.04748842
0001d0 83 53 12 bd 84 fa 07 3e 44 a4 85 bd 3f e7 03 3d
       -0.035724174 0.13279158 -0.06525472 0.032202955
0001e0 f5 90 85 bd 6d 6d bf 3d 83 8b 66 3d 75 a5 80 3d
       -0.06521789 0.09347043 0.056285392 0.062815584
0001f0 1f dd ff bc 3b 01 ea 3c ea e0 18 be 5d 67 12 be
       -0.031233368 0.02856504 -0.14929548 -0.14297242

fc2.weight f4 [64, 128]
000000 05 c8 3c bd 07 67 8c 3d 8c b2 92 bd d4 13 95 bd
       -0.04608919 0.068555884 -0.07162961 -0.072791725
000010 c2 da ad bd f3 38 8a 3d 77 f4 86 3c 24 b2 a2 3d
       -0.0848899 0.067491435 0.016473992 0.07944134
000020 ea c6 66 3d 1d fd a9 3d 43 89 c7 3c 12 80 79 3b
       0.056342043 0.08300231 0.024357444 0.003807072
000030 01 b0 4e bd 7f da a8 3b 98 e0 a5 3d bb ee 25 bc
       -0.05046082 0.005153 0.080994785 -0.010127719
000040 c4 18 29 bc 83 0f 76 bd bd 6f fe bc 36 ad 80 3c
       -0.010320846 -0.060073387 -0.03105914 0.015707593
000050 be 0d 53 3d bf d0 ba 3c f8 28 9f 3d e4 c7 24 3d
       0.051526777 0.022804616 0.07771486 0.040229693
000060 63 91 07 bd af 19 9a 3d a8 d6 77 bc d1 0e 09 bd
       -0.033097636 0.0752443 -0.015126862 -0.033461396
000070 b7 b9 3d 3d 8b 07 4f 3d 96 fc 6d bc 3a 79 93 bc
       0.04631969 0.050544303 -0.014525553 -0.018002141
000080 82 15 90 3d 0f 48 5b bd 74 03 38 bc 5a bc af 3d
       0.07035352 -0.053535517 -0.011231292 0.08580847
000090 6d fa 6c bd ce 8d 2d bd 4b 73 76 3c a1 c5 41 3d
       -0.057856012 -0.042371564 0.015042136 0.047307614
0000a0 a9 5d 3b bc 3b 31 01 bd 63 c2 89 bd e0 45 b1 bd
       -0.011435905 -0.03154109 -0.067265294 -0.08655906
0000b0 90 6f 4b 3d 12 7d 7e bd 69 62 24 bd e6 69 8c 3d
       0.04966694 -0.062130995 -0.040132914 0.06856136
0000c0 ce 1b cd bb 8c 08 ac 3d 3b 3b 72 bc 42 3f 93 bd
       -0.006259418 0.08400068 -0.014784629 -0.071898
0000d0 63 21 85 bd b4 50 36 3d ee c7 ac bd 72 62 3d bd
       -0.06500509 0.04451056 -0.08436571 -0.046236463
0000e0 2a c3 e7 3c 84 c8 40 bd 6b cb 56 3d 68 99 1c bd
       0.028291304 -0.047066227 0.05244009 -0.038232237
0000f0 7f 44 81 3d c5 90 35 3d 2c 9f 4f 3d 74 9f 95 3d
       0.06311893 0.044327516 0.050688908 0.07305804
000100 c0 59 99 3c e6 41 a5 3d 60 2d 86 bd 29 81 43 3d
       0.018719554 0.0806921 -0.06551623 0.0477306
000110 e8 33 5b bd d3 71 7c 3d 31 55 ea bc 88 1a 99 3c
       -0.0535163 0.06163199 -0.028605076 0.018689409
000120 ce 85 a8 bd 5f 51 61 3d 2e 72 45 bd 2d fb 72 3d
       -0.08228646 0.055009242 -0.048204593 0.05932157
000130 1a 61 4d bb 76 0c 48 3d 5e 0a 69 3d be eb 11 3b
       -0.0031338395 0.04884001 0.056894653 0.0022265757
000140 fe 7b 73 bc 10 13 6d bd b6 26 cf 3b ae 9e ab bd
       -0.014861105 -0.057879508 0.0063217534 -0.08379875
000150 fc 2f 3b 3d b0 6d 9d bd 43 b4 38 bd a1 59 b1 bd
       0.04570006 -0.07686937 -0.045093786 -0.086596735
000160 bb 0f 9e bd 47 2b 4c 3d b0 39 2a bd b8 b9 c3 3c
       -0.07717844 0.04984596 -0.04155892 0.023892269
000170 cb 41 37 3d c9 30 d3 3c 50 44 3b 3d 81 f6 07 3d
       0.04474048 0.025780099 0.045719445 0.03319407
000180 54 9c 84 3d 0b c5 b1 3d ce f9 6e bd 77 d6 37 bc
       0.0647513 0.08680161 -0.0583437 -0.011220566
000190 24 08 8c bd b8 f3 b3 bc a6 ca 55 3d e2 19 8e bc
       -0.0683749 -0.0219668 0.052195214 -0.017346326
0001a0 61 7b 91 3d 6d 33 38 bd ac 05 bf bc 21 04 07 bc
       0.07103611 -0.04497092 -0.023318134 -0.0082407305
0001b0 49 86 83 bd 17 ec 8a bd d1 5f 9b 3c fe 5e e8 3c
       -0.06422097 -0.06783312 0.018966587 0.028365608
0001c0 04 e2 38 bd c2 6a a2 bd 7e d6 75 bd 7f 4a ff 3c
       -0.04513742 -0.07930519 -0.06001901 0.031163452
0001d0 16 84 0f bd 5e 48 6a 3d ea f4 e1 3c 27 45 37 bd
       -0.035038076 0.05719792 0.027582604 -0.044743683
0001e0 14 6c 54 3d 6f 69 88 3d 88 93 a8 bd d7 87 ab bc
       0.051860884 0.06660735 -0.08231264 -0.020938797
0001f0 e8 7c ac 3d 67 a4 b4 bd 53 99 00 3d 9d 0b 52 3d
       0.084222615 -0.0882042 0.03139622 0.051280607
000200 c2 97 32 bb 6d 9b a5 3c ae 68 a7 ba a4 1a 47 3c
       -0.00272511 0.020215714 -0.0012772286 0.012152348
000210 f2 a1 ae bd be 53 5c bd 7c 5e 9e bd 10 9b ab 3d
       -0.08526982 -0.0537908 -0.07732865 0.08379185
000220 de 2a b5 bb 15 dd bd 3c 12 d8 c9 bc 92 62 55 bd
       -0.005528792 0.02317671 -0.024639163 -0.052095957
000230 11 50 ae bd 8c 06 b4 bd 88 aa 8a 3d 80 af f7 bb
       -0.08511365 -0.08790311 0.067708075 -0.007558763
000240 b3 11 b1 bc b3 69 33 3d 89 e5 76 3c 9b 13 8c bd
       -0.021614885 0.043801975 0.015069374 -0.06839677
000250 73 f3 8f bd e0 ae b1 bd bb ea cb bc bb 79 85 bd
       -0.07028856 -0.08675933 -0.024892202 -0.06517359
000260 27 29 92 3c 06 dd bc bc 48 36 b7 3c c6 52 96 3d
       0.017841889 -0.023054611 0.02236475 0.073400065
000270 48 88 e6 3c 44 c3 e0 3c 7a 1e 89 bd 99 c1 91 3d
       0.028141156 0.02743686 -0.06695266 0.07117004
000280 b9 c1 01 3d f2 65 61 bc 35 83 8a bd 32 c5 aa 3d
       0.03167889 -0.013757216 -0.06763307 0.08338393
000290 1b fb a5 bb 73 66 b8 38 d3 8d 47 3d aa 60 a1 bd
       -0.0050653345 8.7928864e-05 0.04871924 -0.07879765
0002a0 70 84 5b bd c9 18 32 3d d2 0d ff 3c 28 44 96 3d
       -0.0535931 0.04348067 0.03113452 0.073372185
0002b0 e4 34 2e 3d 5b d2 e9 3c 73 29 8c 3c 4b a5 51 3d
       0.04253091 0.028542688 0.017109608 0.051183026
0002c0 a0 7b 32 bd 94 70 d8 3c d2 84 a4 3d 8f 49 9d bd
       -0.04357493 0.026420869 0.08033146 -0.07680046
0002d0 4e 0f 58 bb 3d cc a6 3d 6a af 14 3d 56 e7 26 bd
       -0.0032968107 0.08144424 0.0363001 -0.040747963
0002e0 f1 79 c0 3c 5e 9b 00 3d 3b 90 2c 3d 2e 02 67 bd
       0.023495646 0.03139817 0.042129736 -0.056398563
0002f0 08 b6 79 bc f4 49 3a bd 37 ee a9 3d 96 43 a6 39
       -0.015241154 -0.045480683 0.08297389 0.00031712343
000300 1b df 63 bd ca bb 96 bd aa 8e 64 3d 0d f0 a2 3b
       -0.05563269 -0.07360037 0.055800118 0.004972464
000310 e6 93 02 bc c4 f1 6b ba a9 20 26 bd b6 c4 06 3c
       -0.007969832 -0.00090005645 -0.04055849 0.0082256105
000320 64 b3 a3 3b c5 79 36 3d 56 2c 33 bc fa cd 9b 3d
       0.0049957503 0.044549722 -0.0109358635 0.07607646
000330 cb 00 09 bd c3 a2 1d 3b 81 ae 8a bd 6b 98 3f bc
       -0.03344802 0.0024053312 -0.06771565 -0.011694054
000340 92 c0 14 3d 76 07 6b bd e8 f8 85 bd a2 15 59 3d
       0.03631646 -0.057380162 -0.06541616 0.052999146
000350 64 88 38 b9 f3 9b 0f 3d e0 ad 6d 3d e9 bc c1 3b
       -0.00017598417 0.035060834 0.05802715 0.0059124124
000360 50 5c c3 bc 1c 62 ad 3d 09 bd a1 3c 5b 29 95 3b
       -0.023847729 0.084659785 0.01974346 0.004552049
000370 de 5b 59 3d 76 7b 9a bd d7 8d 57 3d f7 48 5f 3c
       0.053066127 -0.075430796 0.052625503 0.013628236
000380 33 69 ab 3d 4f b7 56 3d 89 01 50 3d 75 c7 9a 3d
       0.083696745 0.05242091 0.050782714 0.07557575
000390 22 0a 15 3d 49 39 5f 3d 90 28 00 bc 1e 7e b1 3d
       0.036386617 0.05449799 -0.007822171 0.08666633
0003a0 51 9c eb bc 57 ff 03 bd cb 87 8e 3c a5 8c 51 3d
       -0.02876106 -0.032225933 0.017398736 0.05115952
0003b0 62 f7 49 bc 10 b6 36 bd cc 13 5b 3d c9 78 7c bd
       -0.012327047 -0.044607222 0.053485677 -0.061638627
0003c0 2f e4 2d bd 27 2c 6f bc ea 80 8d bd 6b 86 63 bd
       -0.04245394 -0.014597929 -0.06909354 -0.055548113
0003d0 a4 89 b0 bd f0 6e af 3d 52 08 80 bd 06 f2 45 bd
       -0.08620003 0.085660815 -0.06251587 -0.048326515
0003e0 d8 2b 81 3d 6b 06 d5 bc f2 4c ad bd 7e 4e 28 bc
       0.06307191 -0.026004037 -0.08461942 -0.01027262
0003f0 a8 2c 31 39 f3 a3 4a bd 1a 58 a9 3d b0 43 9b 3d
       0.00016896671 -0.04947276 0.08268757 0.0758127

fc2.bias f4 [64]
000000 f0 e9 60 3c 77 d2 ae 3d f8 53 f4 bc 50 2c 66 bc
       0.01372765 0.08536237 -0.029825196 -0.014048651
000010 cf e4 25 3d 8f e9 84 bc a0 47 64 bd bd 86 50 3d
       0.040501412 -0.01622465 -0.05573237 0.050909746
000020 27 f6 8e 3d 9f 10 6f bc 51 d6 09 bd 7c f5 a6 bd
       0.069805436 -0.014591365 -0.033651654 -0.08152291
000030 33 c2 a0 3d 33 f4 69 3d a4 86 eb ba 04 d9 24 3d
       0.078495406 0.057117652 -0.0017969203 0.040246025
000040 14 5e 70 3d bb 6f 03 bd 39 2d 8c bd 6f 75 9c bd
       0.05868347 -0.032088976 -0.06844563 -0.07639586
000050 5a 4e 12 bd fb fb 92 3a ee fe 7b bd 2f 2c 7c bd
       -0.035719253 0.0011214012 -0.061522417 -0.061565574
000060 55 1a 88 bb 3e 4c 3e bd b9 2b 9d 3c b5 cd 0a 3b
       -0.0041535296 -0.04645943 0.019185888 0.002117974
000070 e7 3c 5a bd 89 40 a1 3d 90 33 88 3d 9f ee a5 bc
       -0.053280737 0.07873637 0.0665046 -0.020255385
000080 4a 8a 81 3d 6e 61 99 bd 72 46 ce bc 24 21 32 bd
       0.06325205 -0.07489286 -0.025180075 -0.043488637
000090 7a 43 c7 3b 66 b0 29 bd 7c c7 e9 3b fd 6b 33 bd
       0.006081042 -0.041427992 0.007134376 -0.043804158
0000a0 37 1f aa bd a2 5c d2 bc 05 6e 83 3d 4c 2d 9e 3d
       -0.08306735 -0.025678936 0.06417469 0.077234834
0000b0 cf 07 99 3d e8 22 04 bd 16 fa 86 3d d8 42 f8 bc
       0.074721925 -0.03225985 0.06590669 -0.030305311
0000c0 69 be 90 bd 0e c2 3e 3d 02 8b a1 bd 5b 8e c9 3c
       -0.07067568 0.046571784 -0.07887842 0.024604013
0000d0 1b 79 88 bc cd 08 21 3d 28 f1 1e bd 5a b5 26 3d
       -0.01665931 0.039315034 -0.038804203 0.040700294
0000e0 53 61 8a 3d 19 26 a8 3b 1c f1 a9 3d 6d a4 63 bc
       0.06756844 0.0051314947 0.08297941 -0.013894183
0000f0 49 8d ad bc 4f 47 99 3d b3 55 01 3c 71 4e 66 bd
       -0.021185534 0.07484304 0.007893967 -0.05622715

fc3.weight f4 [1, 64]
000000 ea 19 f8 3d 10 63 e8 bc ac 75 ed 3d 02 24 f6 bd
       0.12114318 -0.02836755 0.1159471 -0.12018587
000010 a8 eb cd 3c 40 3b dc 3c 00 34 b6 ba ec 08 e7 3d
       0.025136784 0.026883721 -0.0013900995 0.112809986
000020 00 f5 b3 3b e6 40 e0 bd c0 e1 61 3b b0 b4 2e 3c
       0.0054918528 -0.109498784 0.0034466833 0.010663196
000030 f8 76 58 bd c0 7e b5 3d 48 34 a1 3c 18 44 f0 3c
       -0.052847832 0.08862066 0.01967825 0.029329345
000040 00 4e 57 ba 80 2e 49 3c 68 fa a8 3c 18 a2 cd 3c
       -0.0008213222 0.012279153 0.020627216 0.025101706
000050 58 b0 9c bd 7c b4 5a 3d 5a b4 c2 bd c8 98 b0 3c
       -0.076508224 0.05339478 -0.095070556 0.021557227
000060 20 f1 50 3d 18 6f 64 3d 80 c7 82 3b e8 62 ac 3c
       0.051011205 0.05577001 0.0039910674 0.021043256
000070 90 b0 57 bc 44 fb 9a 3d 7c b9 18 3d 00 b8 d0 38
       -0.013164654 0.07567456 0.037286267 9.9524856e-05
000080 44 7d d6 bd 82 08 f5 bd 70 91 e4 bc 00 f2 aa 39
       -0.10473111 -0.11964513 -0.027901381 0.0003260523
000090 00 9f 34 3a 3a 4d 85 3d 1a 62 84 3d 58 fa cf 3d
       0.0006890148 0.065088704 0.06464024 0.10155171
0000a0 22 81 a9 bd 00 53 4c ba 08 b4 3b 3d 1c 62 bf 3d
       -0.08276583 -0.00077943504 0.045825988 0.09344885
0000b0 40 9d 0a bd f4 d0 39 3d 64 84 3b bd d8 6c f8 3c
       -0.03384137 0.04536529 -0.045780554 0.030325338
0000c0 a8 28 5f 3d 52 43 c1 3d 80 63 a2 3a e2 00 fa bd
       0.054482132 0.094366685 0.0012389272 -0.122072
0000d0 08 09 04 3d 10 70 38 3d de 76 92 3d 9c 24 23 bd
       0.032235175 0.045028746 0.07151578 -0.039829835
0000e0 58 9e 14 3d b0 b6 32 bd a8 07 d1 bd 24 b6 39 3d
       0.03628382 -0.043631256 -0.102065384 0.04533972
0000f0 98 39 3c bd e6 fb da bd c0 99 8e 3c 64 95 95 3d
       -0.045953363 -0.10692577 0.017407298 0.073038846
